openWakeWord/hey_tater.onnx (onnx, 205430 bytes, 9 tensors)

layer1.weight f4 [32, 1536]
00000000: 0b72 3f3c 7f6d a93c f1da 903c f5a0 c73b
00000010: 2e4e 5f3c 7271 be3a 5108 883c 48f5 a4bc
00000020: e41e 13bd ec2e bd3c 3e42 e3bb 0df6 4d3b
00000030: 9809 cd3b 0374 dc3c 47e7 3abc eb77 31bc
00000040: b519 a3bc 7d58 ccbc 754f 87bb a923 a33c
00000050: 4dac 0ebd 4066 c43b f2a0 293c 5f79 65bd
00000060: ebda 2a3b de1f cdbb 0ce2 263c 5f02 c3bc
00000070: c5a7 30bb 3592 60bb a71e 9d3b 427f f8bb
00000080: dc4a 6cbc f1fb 07bd 5d3f 37bc d4c3 183d
00000090: 7023 69bb 7c23 ecbb b3f0 04bb 78c7 a23a
000000a0: bb2a 0dbd 2e94 643c e92b 9cbc ca37 78bc
000000b0: 61d3 05bd 688e febb ebd6 e03b 17af 03b9
000000c0: 2617 313c 1695 273d 11f8 a83c e01b bebc
000000d0: b039 9f3c 2947 5f3b e3fc 18bb c88a a93c
000000e0: 59ab 4f3b ca77 83bb f7eb 8f3c 93b7 46bc
000000f0: a4e2 623b dcb2 913c 8b4b f93c 4bd0 17bc
00000100: c3d0 1c3c ff18 17bc c8b7 d93c b028 fe3b
00000110: 85a7 b23b 0ac3 00bd 1fde 003d f834 61bb
00000120: c24f eabb 1e36 243c fc8b 47ba 8478 a13c
00000130: 49b5 89bc 8e49 21bd f0d1 80bc 7ec2 a8bc
00000140: 4129 223c 2d13 963c 61b6 073d f325 bdbc
00000150: 0c28 d13c 5bf4 39bd 1df0 01bd c0dc 15bd
00000160: a905 87ba b885 623c 8435 b43c d678 213c
00000170: e92b 903c 566a 503c 16d3 2bbc bc49 e939
00000180: 0fc9 dd3c 7367 82bc 8be3 cb3c 1087 35bc
00000190: db42 403c f6cb 383c e9d2 043d f910 283c
000001a0: e711 2bbd a480 eabb 69ee c3bb 6e27 1a3b
000001b0: f1e3 69bc e6fd 37bc 0633 f1bc 8b96 08bd
000001c0: 2154 103a 971a 843c 5e67 25bc 318a 6cbc
000001d0: 0fc4 45bc d835 81bc 36c1 143c 53b2 19bd
000001e0: 95e5 cc3b 06ad 5d3c 4318 423c 45fb b6bc
000001f0: 895f 63bc 33f0 c0bc 9a63 6b3c d54c 9d3c
00000200: 1a6f 0e3c 2660 5cbc 62ed 72bc 2460 ab3c
00000210: 32d1 e9ba 4b88 373c f111 4f3b 04ea b6bb
00000220: faf2 d9bc f7a3 cf3b 14a9 bbbc 8672 b73c
00000230: f7d5 00bd 788a 6fbb e7a5 7cba a1ec fd3c
00000240: 2764 14bd 082c 6d3d e97f cd3b ba0c 553c
00000250: 1985 a5b9 3a9c c53c 9b71 53bc d93a 0fbc
00000260: 9ef9 923c 8bfe 4bbc 01c2 09bc 1c46 103d
00000270: a633 803b 22be aa3c ea5e 5a3c da89 43b7
00000280: 0f08 dbbc d77e 573c c811 a83c 1262 4dbc
00000290: e9e9 8ebc c2f5 7cbb fe84 0f3c 72ca 6c3c
000002a0: 5321 3abc a0a7 8dbc 5de1 783c 4551 e43c
000002b0: 197b 75bc f052 97bc ce47 55bc cce9 abbb
000002c0: 7233 ca3c e6d9 933c 0c5a a0bc e61f 2ebb
000002d0: 2213 0c3c 6e68 b03a edbf 0fbc 89e2 f6bc
000002e0: 0310 0d3c af21 d93b dd85 c93c 0cd8 363c
000002f0: e70e 283c 58a8 bb3b c824 193d 812d c3bc
00000300: 5744 58bc 3b9f 9ebc 9fd1 5a3c 901f b9bc
00000310: 8787 63bc f68b fa3a 66c6 13bc abbd ae3b
00000320: 0289 19bc 92f4 8d3c 21d7 ceb9 98b8 0abd
00000330: 31d3 9cbb a21f 473b 4735 26bc d3ad ebba
00000340: 2a2f dc3c 31dd a83c d7b2 a8bc 8a45 81bc
00000350: 9d38 6c3c 5959 07bb d7d1 ec3c 5a65 e73c
00000360: 15ab 07bc 8825 e63b 31d5 42bc c995 22bc
00000370: 6677 8a3c a637 1b3c 43ef 9c3a 48f1 b33c
00000380: 1685 9a3c 3e28 bbba d266 153c 297b a63c
00000390: a1b1 5cbc 3d6f 45bc 1870 d2bb 2386 ca39
000003a0: 38bb 5dbc bbac 743c e2f6 cfbc 7b48 fb3b
000003b0: dac8 16bc 58e6 30bc da05 43bc 3a56 903c
000003c0: 02e7 e13b 96eb 063d 1899 12bc 6d28 39bc
000003d0: 4c66 6a3c de30 db3c 7635 81bb 7a4e 46bc
000003e0: 9a44 903c 9306 acb9 92cb 993c 00c4 8cbb
000003f0: b327 e83a 463c ed3a 2d4d 313d 342e 67bc
0.011684905 0.020682095 0.017682524 0.0060921856 0.013629479 0.0014529659 0.016605528 -0.02013649
-0.03591813 0.023093663 -0.006935387 0.0031427175 0.006257247 0.026910787 -0.01140768 -0.010831813
-0.019909719 -0.024944538 -0.004129345 0.019914465 -0.034832288 0.0059936345 0.010353314 -0.05602395
0.0026070427 -0.0062599024 0.01018573 -0.023804842 -0.0026955467 -0.0034266834 0.004794914 -0.0075835297
-0.014422145 -0.033199254 -0.011184541 0.03729613 -0.00355741 -0.0072063785 -0.002028507 0.0012419065
-0.03446458 0.013951344 -0.019063907 -0.01515002 -0.03267229 -0.007768441 0.0068615577 -0.0001255836
0.010808742 0.040913664 0.0206261 -0.023206651 0.019436687 0.0034069514 -0.0023344092 0.020696059
0.0031687825 -0.0040120827 0.017568571 -0.012128728 0.0034619952 0.017785482 0.03043153 -0.0092659695
0.009571257 -0.009222268 0.026576892 0.007756315 0.005452099 -0.031436004 0.03146183 -0.0034363847
-0.007150621 0.010022668 -0.0007612107 0.019710787 -0.016810076 -0.039376788 -0.015725106 -0.020600554
0.009897531 0.01831969 0.033132914 -0.023089385 0.025531791 -0.04539905 -0.03172313 -0.036587477
-0.001030137 0.013825826 0.021998174 0.00985547 0.017599063 0.012720665 -0.0104873385 0.0004449616
0.027073411 -0.015918469 0.024888774 -0.011079565 0.01173469 0.011279097 0.032427702 0.010257953
-0.04176512 -0.0071564484 -0.0059793484 0.0023522037 -0.014275537 -0.011229968 -0.029443275 -0.033346694
0.00055057 0.01612596 -0.010095445 -0.014437244 -0.01207067 -0.015772745 0.009079268 -0.03752358
0.0062529542 0.0135300215 0.011846605 -0.022336612 -0.013877758 -0.023552036 0.014367009 0.019201675
0.008693481 -0.013450658 -0.014827104 0.020919867 -0.0017838834 0.011201928 0.0031596387 -0.005582096
-0.026605118 0.006336685 -0.022907771 0.022393476 -0.031454053 -0.003655104 -0.00096377585 0.030996623
-0.036228325 0.05790332 0.0062713516 0.0130035225 -0.00031570418 0.024122346 -0.012905504 -0.008742058
0.017941292 -0.0124508245 -0.008408071 0.03522311 0.003912407 0.020842616 0.013328293 -1.1655002e-05
-0.026737241 0.0131528 0.020516291 -0.012535589 -0.017445521 -0.0038598632 0.008759735 0.014452564
-0.011360484 -0.017291844 0.01519045 0.027870784 -0.014982962 -0.018472165 -0.013017608 -0.0052463766
0.024682734 0.018048238 -0.019574188 -0.0026569306 0.0085494835 0.0013458857 -0.008773786 -0.030137317
0.0086097745 0.00662633 0.024599964 0.011159908 0.010257459 0.0057268552 0.037388593 -0.023825409
-0.013199887 -0.019363036 0.013355642 -0.022598058 -0.013887293 0.0019115198 -0.00901947 0.005332669
-0.009371044 0.017328534 -0.00039451665 -0.03386745 -0.004785918 0.0030383845 -0.010144538 -0.0017980881
0.026877958 0.020613285 -0.02059309 -0.01578023 0.0144177945 -0.002065262 0.028908653 0.02824657
-0.008280535 0.007023517 -0.011891649 -0.009923407 0.016902637 0.009473717 0.0011973161 0.021965638
0.018862288 -0.0014278961 0.009118753 0.0203224 -0.013470084 -0.012050447 -0.006422054 0.00038628382
-0.013533406 0.01493376 -0.025386278 0.0076685525 -0.00920316 -0.010797106 -0.011903251 0.017619241
0.0068939934 0.032939516 -0.008947633 -0.011301142 0.014306616 0.0267567 -0.0039431406 -0.012103671
0.017610837 -0.00032811295 0.018773828 -0.004295826 0.0017712027 0.0018099628 0.04328649 -0.014110137

layer1.bias f4 [32]
00000000: ff2a 633c 52ae 653c 50fe 853c ad19 733b
00000010: 9ea8 b2bc de68 93bc f0f7 ae39 5985 ce3c
00000020: e6c9 66bc df5e b53c 3ce3 2c3c 3ff1 2abc
00000030: 5161 31bc bf75 a4bc be0c bc3c 6ec3 263a
00000040: 0a4a d2bc 4498 95bb 2295 dfba ab2d a93c
00000050: e310 643b a452 623c 3406 e0bb 745c 553c
00000060: a533 19bb 18bf a3bc ab8f 183b e830 4fbc
00000070: 30c3 983b 3e35 463a 3294 80bc a307 c4bc
0.013865232 0.014018612 0.016356617 0.0037094161 -0.021808919 -0.01799434 0.00033372594 0.02521007
-0.014086222 0.022139965 0.010552224 -0.010433494 -0.010826425 -0.020075677 0.022955295 0.0006361519
-0.02567007 -0.0045652706 -0.0017057995 0.020651659 0.0034800104 0.013813648 -0.006836677 0.013022531
-0.002337673 -0.019988582 0.0023278992 -0.0126459375 0.00466194 0.0007561034 -0.015695665 -0.023929423

layernorm1.weight f4 [32]
00000000: 81db 7f3f 90de 7d3f 4aa8 7f3f 68a6 843f
00000010: c8be 733f 4cd3 7c3f 23d2 7e3f 471e 823f
00000020: 2ed0 7e3f 3006 803f d2df 813f 2c34 7f3f
00000030: ed28 853f fd6c 7f3f fb4e 813f aaf9 7f3f
00000040: 5270 823f ba16 813f a56b 7f3f d5b2 7d3f
00000050: 9890 7e3f 0c85 813f 0a8d 843f 2fd6 823f
00000060: 6de4 7d3f 62ba 7f3f 774a 7e3f 246e 7f3f
00000070: ab6e 7f3f 7bba 7e3f ace0 7c3f e333 7f3f
0.9994431 0.9916773 0.99866164 1.0363283 0.95212984 0.98759913 0.99539393 1.016549
0.99536407 1.0001888 1.014643 0.9968898 1.0403115 0.9977568 1.0102228 0.9999033
1.0190527 1.0085061 0.9977363 0.99101 0.9943938 1.0118728 1.0355542 1.0221614
0.99176675 0.9989377 0.99332374 0.99777436 0.9977824 0.99503297 0.9878032 0.9968855

layernorm1.bias f4 [32]
00000000: 0d2d 023b 2c67 a83c 38bb c2bb 5692 b13c
00000010: e86c 813c f304 2bbb ffaf 0b3c 7663 513c
00000020: 7eb3 acbb 870c 4c3c 37d4 003c ebce d2bb
00000030: 3b5b d03c 0c64 f7bb b17f 6f3c 2eff 6cbb
00000040: 1769 cb3b 395a 1f38 ed1a dbbb 5ae2 29bc
00000050: fd12 87bc bc3b 6a3c f473 103d 5a7a 243c
00000060: 2065 f03b f446 6f3c 566a f7ba 3482 60bc
00000070: 775a 56bc cfa3 983c 54af 10bc 6ab8 3bbc
0.0019863278 0.020557009 -0.0059427284 0.021676224 0.015799 -0.002609548 0.008525847 0.012780061
-0.0052704206 0.012454159 0.007863096 -0.006433358 0.025434127 -0.0075497683 0.014617846 -0.003616284
0.006207596 3.799258e-05 -0.0066865594 -0.010368908 -0.016488547 0.014296468 0.03526683 0.0100389365
0.007336274 0.014604319 -0.0018876295 -0.013702918 -0.013083092 0.018632798 -0.008830864 -0.011457542

blocks.0.fcn_layer.weight f4 [32, 32]
00000000: f1e7 4abc ffc6 363e 9324 c7bd f97e c3bd
00000010: 898e ed3c 59fc 39bd 0c71 03be 1511 5f3e
00000020: 8f27 a7bd 95c9 a93c 9e4e 46bd ca34 a43d
00000030: 8048 1b3e 8d04 b23d a31f 1b3d 5776 a13c
00000040: 03a1 27be 330a a6bd 80da 0a3e 5730 233e
00000050: 37d8 023e 2319 cd3d 2ce4 d0bd 65a0 10be
00000060: 8ebb ec3d 7055 003e 2a20 1bbe a002 023d
00000070: 314c fd3b 10f0 87bd fc50 053e f4c7 89bd
00000080: 2d27 583d 76f0 a7bc bcbe 32be 7dc1 d9bd
00000090: ca85 8e3d 7f44 073e c3d4 f23d 93df bebb
000000a0: 6ec9 2abd fb5b d73d 541a 923d 8ac8 0a3e
000000b0: 4564 aabc bfca 24be 6097 b33d 4915 11be
000000c0: c37a 17be c115 2a3e 0a48 e93d 2f19 d2bd
000000d0: 7068 393e fecf 99bc ea10 42be 0faf cdbd
000000e0: 1bc6 e23d b8d7 533b 2d7d 98bd 1fd0 d8bd
000000f0: c87b 8c3a 9853 ca3b 0aae 333d ce11 cb3d
00000100: 3335 c23d 024a 0f3e 946d 243d 52f7 21be
00000110: ceaa 18be c2f3 923d d43b d4bc d414 cfbc
00000120: e27d 373c 96c5 46be e564 e03d 64cb dd3b
00000130: 18b6 0d3e 6408 c8bd eae3 ad3d b8a0 13be
00000140: 06c6 f53d a7c4 123e 5071 2c3e e5f6 10be
00000150: 9933 9abd bc59 273d da8e 39bd b0c5 173d
00000160: fdac c0bd 0f76 02bd 8977 cd3d ebf2 893d
00000170: dfaa b7bd 6090 d23d 0003 be3d fe17 163c
00000180: 303b 0fbe 9a01 9c3d d85e 89bd f295 56bd
00000190: e761 8c3c 4415 97bd d5b4 543e 4412 c63c
000001a0: 815c 033c a8d0 bf3d b430 a73c d7cd a0bb
000001b0: 4f6d 153e d044 38bd 8691 a1bd 6f15 05be
000001c0: e9d4 e8bd 6288 87bc f246 edbd 25bb d83b
000001d0: 266c 8e3d cbbd 373e a572 073e fba8 44be
000001e0: d197 11bd 7d2c d03d ce7b 0dbe 41cb 8dbd
000001f0: fb38 fc3d 4f12 243e 52b0 253e d909 51be
00000200: ae01 893d b83a 24be 8abc 95bc 0d50 283d
00000210: be21 33bd cf54 3c3d fa4e 243c 7daf 07be
00000220: 24bd 05be d263 973c bd41 2cbc ae0f efbd
00000230: 0840 533d 3f7c 253e 6475 533d c040 d43b
00000240: 8827 993d 1446 6cbd 76b9 313e b5a8 143e
00000250: d21a edbd 202d 9bbd 0fcd 143e 0569 2b3e
00000260: f81f 36bd eda9 923d 8dd1 123d ae24 9f3d
00000270: e75e 84bd 15e2 b8bd 2c77 2fbe 64e5 7abc
00000280: a69e 023e fb6c a6bc 22f6 ba3d c71c 1abe
00000290: c8fb 2b3c a63b 29bd 6686 2cbe 99e9 a83d
000002a0: 009b febd 5464 56bd f459 c0bd 1c70 053d
000002b0: 86ef e03d 4d40 603d 0428 5d3d a841 d5bd
000002c0: afe2 0e3e 1ff4 113e 3020 213e 10fe 5bbd
000002d0: 1075 a7bd 0b13 ba3d 6cd1 75bc 649e 263e
000002e0: 0207 29be c2fd e2bc b2df 10be 7e53 4abd
000002f0: 1aac c3bd f773 b13c 8c2f a4bd f784 163d
00000300: 4205 3e3d 1bce 253e 9e25 2fbe d7ec f43d
00000310: ae0e 9abd 7d2d 1d3e 3cf9 1b3e 0d45 39bd
00000320: 2c12 26be 2e1e 88bd 57e2 3dbe 732e a4bd
00000330: e7a4 b03d 87d1 a8bc f89f a53d 05f6 c1bd
00000340: 86c6 97bd 3dc0 1abe 28a8 92bc a256 2c3e
00000350: 99a7 2abe 5649 c23d 6ecd 283d 0320 b33c
00000360: 4218 f2bd 26bc b93d 2c6a 8c3d 8594 07be
00000370: de7d 1dbe 85e7 503e b75f cfbd 7143 c63c
00000380: d415 083e 4499 6cbd 0477 23be 8d18 bb3b
00000390: e230 2bbe 4042 953d 3961 aabb 3930 23bd
000003a0: 2031 5f3d 0f97 87bd c410 a53d 23ef 14bd
000003b0: 84f5 803d cbc9 503d d5cb 583d 3875 0d3e
000003c0: 7554 2c3d e25c 02bd 31bb 47bd 06cd dcbd
000003d0: b327 4b3e 77b2 963d 1549 a03d 267d e43a
000003e0: d96f fd3d d444 c3bc e655 cb3d a550 23be
000003f0: b874 88bd d083 13be 9f82 dabc 2882 013e
-0.012384401 0.17849348 -0.09723773 -0.095457025 0.02899863 -0.045406673 -0.12836093 0.2178386
-0.08161842 0.020726005 -0.04841482 0.08017881 0.15164375 0.08692274 0.037871968 0.01970975
-0.16370015 -0.08107414 0.13559914 0.15936409 0.12777792 0.1001456 -0.1019977 -0.14123686
0.11559211 0.12532592 -0.15148988 0.031740785 0.00773003 -0.06637585 0.13019174 -0.06727591
0.052771736 -0.020500403 -0.17455572 -0.10632608 0.06959112 0.13209723 0.11856987 -0.005824992
-0.041696005 0.10515591 0.07133928 0.13553062 -0.020799765 -0.16092966 0.08769107 -0.14168276
-0.14792924 0.16609861 0.113906935 -0.1025871 0.18106246 -0.018775936 -0.18951765 -0.100431554
0.11072942 0.0032324623 -0.074457504 -0.10586571 0.0010718042 0.006174516 0.04386715 0.09915505
0.09482803 0.13993075 0.040143564 -0.15817001 -0.14908907 0.07175399 -0.025907435 -0.025278486
0.011199446 -0.1941131 0.10956744 0.006768631 0.13838995 -0.097672254 0.08490737 -0.14416778
0.120006606 0.1433283 0.168401 -0.14156683 -0.07529373 0.04085706 -0.04530225 0.037053764
-0.09407995 -0.03185087 0.10032565 0.06735786 -0.08968138 0.102814436 0.09277916 0.009160994
-0.13987422 0.07617493 -0.06707543 -0.052389093 0.017136527 -0.07377103 0.20772107 0.024178632
0.00801766 0.0936597 0.020408966 -0.0049073505 0.14592479 -0.0449875 -0.078890845 -0.12996458
-0.113687344 -0.016544525 -0.11585797 0.0066141062 0.069542214 0.17943494 0.13227327 -0.19205086
-0.035545174 0.101647355 -0.13816759 -0.06923533 0.12315556 0.16022609 0.16180542 -0.20413913
0.066897735 -0.16038024 -0.018278379 0.041091967 -0.04373335 0.045979317 0.010028595 -0.13250537
-0.13060433 0.018480215 -0.01051372 -0.116729125 0.051574737 0.16160677 0.051625624 0.0064774454
0.07478243 -0.05768402 0.17355904 0.14517482 -0.11577381 -0.07576966 0.14531349 0.1673928
-0.04446408 0.07161317 0.035844374 0.07770668 -0.06463414 -0.09027497 -0.17135304 -0.01531348
0.12755832 -0.020315638 0.09128977 -0.1505004 0.010497041 -0.04131665 -0.16848144 0.0824768
-0.12431908 -0.052341774 -0.09392157 0.03257762 0.109831855 0.054748822 0.05399324 -0.104129136
0.1395366 0.14253281 0.15734935 -0.05370909 -0.08176625 0.090856634 -0.015003543 0.16271359
-0.1650658 -0.027708892 -0.14147833 -0.04939603 -0.0955431 0.021661742 -0.08016881 0.0367479
0.046391733 0.16191904 -0.17104194 0.11959236 -0.07522331 0.15349384 0.15231794 -0.045231868
-0.1621787 -0.06646381 -0.18543373 -0.08016672 0.086252026 -0.020607723 0.08087152 -0.094707526
-0.07410912 -0.15112396 -0.017902449 0.16829923 -0.16665496 0.09486644 0.041211538 0.02186585
-0.11821033 0.090690896 0.06856188 -0.1324025 -0.15380046 0.20400818 -0.10125678 0.02420208
0.13289577 -0.057763353 -0.1596337 0.005709714 -0.16717866 0.07288027 -0.005199578 -0.03984091
0.05449021 -0.06620609 0.080598384 -0.03636087 0.062968284 0.050973695 0.052928764 0.13814247
0.042072732 -0.03182686 -0.048762504 -0.107812926 0.19839363 0.07358258 0.07826439 0.0017432317
0.12374849 -0.02383653 0.09928493 -0.15948732 -0.06662887 -0.14405751 -0.026673613 0.12647307

blocks.0.fcn_layer.bias f4 [32]
00000000: 4ea3 4b3e d86c 003d b359 3dbd d24e a0bd
00000010: 7db7 4f3c d595 6e3d 4ea3 16be 010e 0ebe
00000020: eac4 353e e7ce a13c 7b28 dcbd 214a 483d
00000030: a0f4 f83d b429 383e 3d9f 95bc 8a8d 39bc
00000040: 60e4 07be cc7e a4bd 5da3 423e fbd1 9d3d
00000050: 560f 2dbd ffce 17bd 68f1 0b3e d692 123d
00000060: b3f9 cdbd 9785 eabd 03de cb3d f5ec e63d
00000070: 5dba 13be 199c 0bbe 53e3 c53d ffd9 3fbd
0.19886515 0.0313538 -0.046228122 -0.07827534 0.012678024 0.05824836 -0.14710733 -0.1387253
0.17750898 0.019751979 -0.107499085 0.04889882 0.121560335 0.17984658 -0.018264407 -0.011325249
-0.13270712 -0.08031997 0.1900763 0.07706066 -0.042250954 -0.03706264 0.13666308 0.035784565
-0.10057392 -0.114512615 0.09954455 0.11275665 -0.1442656 -0.13633765 0.09662499 -0.046838757

blocks.0.layer_norm.weight f4 [32]
00000000: 4b63 b23f 4e4f 7d3f 2a41 803f 147f b63f
00000010: bc2b 853f 9f40 843f ec8a a73f 4c72 833f
00000020: abe0 833f c2b3 803f 7fe3 9f3f 16e8 823f
00000030: 23b5 a23f 643c 9e3f f8c2 8c3f 197b 9e3f
00000040: c211 a13f 25fd 7f3f 760a 7e3f 775b 903f
00000050: 7cd0 853f 671d 883f bdfe 803f 817e 823f
00000060: 6db1 813f 6176 7e3f bff6 7d3f 70b0 803f
00000070: c4dd 8a3f d653 893f 0154 873f e390 743f
1.3936552 0.98949134 1.0019886 1.4257531 1.0403972 1.0332221 1.308927 1.0269256
1.0302938 1.0054858 1.2491301 1.0227077 1.2711529 1.236218 1.0997 1.2381316
1.2583544 0.9999564 0.9923471 1.1277913 1.0454249 1.0633973 1.007774 1.0194856
1.0132271 0.9939938 0.9920463 1.0053844 1.0848927 1.072871 1.0572511 0.9553358

blocks.0.layer_norm.bias f4 [32]
00000000: c32a a53e 2b32 92bc bf7c 123c f767 ad3e
00000010: 4f89 d13c 137c bc3c d2a4 923e 892d ae3a
00000020: d43e 013d 842b 8c3b af6e 853e 0509 383b
00000030: 8990 8b3e 119f 813e db83 503d b2b0 813e
00000040: afd1 873e 8dcf 3cbc 77e3 acbc 2153 a03d
00000050: 7bae 573c 9604 4d3d 1714 9f3b ade3 e93b
00000060: 01c2 403c f157 9bbb 6589 4bbc de89 453b
00000070: a0a1 663d 9559 0d3d 312b b73c ab50 58bd
0.32259187 -0.017846188 0.008940875 0.3386838 0.02557817 0.023008382 0.28641373 0.0013288717
0.03155406 0.0042776484 0.26061007 0.0028081548 0.2725871 0.2531667 0.050906997 0.2533012
0.26527163 -0.011524093 -0.021104557 0.078283556 0.013164158 0.0500532 0.00485469 0.007137737
0.011765004 -0.004740708 -0.012422894 0.003014199 0.05630648 0.03450926 0.022359462 -0.052811306

last_layer.weight f4 [1, 32]
00000000: 0702 b4be 7244 b13b eec0 96bc 7bd5 bcbe
00000010: cc7f f83c 85ce 493e 904d a9be 79ff 183e
00000020: 9e4a 503e 17bc e53c 4f9b b9be 694d 2c3e
00000030: ddd8 a0be d9a4 b6be e80a ab3d e321 b7be
00000040: 8390 a9be 5fd0 15be 0962 10be 68be 3f3e
00000050: 7698 143e 0480 373e 61a5 313d f515 3f3e
00000060: 3e18 3d3c 6af2 373b 6159 783d 3147 fe3d
00000070: d428 813e ec15 653e b459 063e 6980 1ebd
-0.35157797 0.0054097706 -0.018402543 -0.36881623 0.030334376 0.19707687 -0.33066988 0.14941205
0.20340964 0.02804379 -0.36251304 0.16826405 -0.31415454 -0.35672644 0.083516896 -0.3576804
-0.33118066 -0.14630269 -0.14099897 0.18724978 0.14511284 0.17919928 0.04337061 0.1866072
0.011541424 0.0028068074 0.060632113 0.124159224 0.25226462 0.22371644 0.13120157 -0.03869668
