openWakeWord/Hey_Norman.tflite (tflite, 206748 bytes, 9 tensors)

Const_1 f4 [32]
00000000: 4e4d 9aba dfab 06b9 1c7f abbc bf4d 9c3b
00000010: 1385 c93c 7de0 d73b 4810 883c 4fec a539
00000020: 9329 36bc 8153 343c 765c cfbb af0f a0bc
00000030: bc7d 2bbc e12c 513a 7203 a03c be6d 6bbc
00000040: 9d22 333c 5603 a7bc 60ab 023d 4e5f 55bc
00000050: 67d6 2d3c 6a93 213b 7c73 8e3c 34af adbc
00000060: a8bc 4a3c 6bb8 c9bc fdf7 ddbc f627 9fbb
00000070: 7ff2 963c 3fe8 8a3c 7046 c2bb e333 6abc
-0.0011772306 -0.00012843263 -0.020934634 0.0047700102 0.024599588 0.0065880404 0.016609326 0.00031647316
-0.0111183105 0.011006237 -0.006328161 -0.019538729 -0.010466989 0.0007979405 0.019532893 -0.014369426
0.010933545 -0.020387333 0.031901717 -0.013023211 0.0106101995 0.0024654516 0.017389052 -0.021201707
0.012374081 -0.02462407 -0.02709579 -0.0048570586 0.018426178 0.016956447 -0.005928807 -0.014294597

Const_2 f4 [32]
00000000: 4fda 7d3f c12e 7e3f 9405 843f 46d8 7f3f
00000010: 69dd 813f 488d 823f cd8a 7e3f 17a5 833f
00000020: 1854 7b3f dc56 7f3f 44bd 7e3f 7b5b 813f
00000030: 4188 7b3f 8651 733f 3dc1 7f3f 0068 7c3f
00000040: 14e7 783f a1c9 803f aca1 833f 829c 773f
00000050: 10a5 7e3f 308f 7e3f 4257 7c3f de15 7f3f
00000060: b099 813f 86a7 793f 64c1 7e3f 58e7 7a3f
00000070: a08b 7a3f 0982 7c3f 6bc7 7d3f 3d24 853f
0.9916124 0.9929009 1.0314202 0.9993938 1.0145694 1.0199366 0.99430543 1.0284756
0.9817519 0.9974191 0.99507546 1.0106043 0.9825478 0.9504627 0.99904233 0.9859619
0.972276 1.0061532 1.0283713 0.96723187 0.99470615 0.99437237 0.98570645 0.9964274
1.0125027 0.97521245 0.9951384 0.9800925 0.978693 0.9863592 0.9913241 1.0401684

Const_3 f4 [32]
00000000: 116a 98bc 9882 dabb eb38 213d d847 1abb
00000010: 90a0 b43c b5da 863b 4b79 5cbc 953f cb3b
00000020: 5293 a4bc 1856 bfbc 4e36 31bb d29c 883b
00000030: c774 87bc d9a5 ba39 7017 033c a35d 32bc
00000040: 0822 9fbc 6ad6 a23b e0d1 af3c cf0b 87bc
00000050: 521f 42bc d89d 6fbc 48a0 a43c 74bf 13bb
00000060: 844f 01bb 1aa4 fbbc e426 67bb 5c20 2a3d
00000070: 2cb2 0cbd 1a2e bebb 9da0 8dbc ca98 8a3c
-0.018605264 -0.0066684 0.03936092 -0.0023541357 0.022049218 0.0041154274 -0.013456653 0.006202648
-0.020089779 -0.023356482 -0.0027040425 0.004169085 -0.016535176 0.0003560025 0.008001193 -0.010886583
-0.019425407 0.004969408 0.02146238 -0.016485123 -0.011848288 -0.014625035 0.02009596 -0.0022544535
-0.0019731233 -0.030717898 -0.0035270983 0.041534767 -0.034349605 -0.0058038356 -0.0172885 0.016918559

Const_5 f4 [32]
00000000: 91fa 42bc a0bd c73d 1cad a5bc 6e9d d9bd
00000010: 231b 193e c27a 053c b556 c73c 2b48 e9bd
00000020: 976e 043e f553 8abd 0604 1e3d 94ab ff3d
00000030: c317 ef3d 5964 ca3c bbe9 4e3e 1abb a93d
00000040: 789a 933d e134 843d 5227 29be b263 973d
00000050: e03b 6e3d b7fe fb3c 8467 12be 52ed a03c
00000060: 41f7 c43d da8a 463c ccff 033e de72 f53d
00000070: c0b5 123d 9abd c2bd 0438 e4bd 7917 053d
-0.01190056 0.09752965 -0.020224147 -0.106257305 0.14951758 0.0081469435 0.024333337 -0.11390718
0.12932812 -0.06754295 0.038578056 0.12483898 0.11674454 0.024706053 0.20206349 0.0828764
0.07207197 0.06455398 -0.16518906 0.07392062 0.05816257 0.030761106 -0.142973 0.019644413
0.096174724 0.012118066 0.12890548 0.119848 0.03581786 -0.0950882 -0.11143497 0.03249309

Const_6 f4 [32]
00000000: 5c7c 9c3f 8d52 893f 520c 7f3f d049 8d3f
00000010: eb28 7f3f c61e 803f 7e23 7e3f cf45 783f
00000020: bd46 843f d36b 823f cc84 a43f 85a0 7e3f
00000030: b286 9a3f aea1 a63f 5556 b13f 58cc 7c3f
00000040: 3ce6 843f 0a11 9c3f c21f 803f 8417 ad3f
00000050: e18e 8f3f 1010 7d3f ae39 803f 67a8 863f
00000060: 7b08 813f 28d6 7f3f 64d6 9d3f 0df4 a53f
00000070: 7fcc 7f3f cacc 803f a68c 7d3f 5472 7c3f
1.2225451 1.0728317 0.99628174 1.1038151 0.9967181 1.0009391 0.99272907 0.9698152
1.0334088 1.0189155 1.2853026 0.99463683 1.2072356 1.3018091 1.3854471 0.98749304
1.0382762 1.21927 1.0009692 1.3522801 1.1215478 0.98852634 1.0017602 1.0520142
1.0080713 0.9993615 1.2331052 1.2965103 0.9992141 1.0062497 0.9904274 0.9861195

Const_7 f4 [32]
00000000: 5b60 763e 3444 963d ea93 c7ba 7e4e b23d
00000010: a9d3 d1bb 4fdb 04bc 1922 dc3b 4795 22bd
00000020: 64f0 943c 5eb4 a03c 77a7 863e 81a0 c7bb
00000030: 0dd0 783e b8b9 893e 3b49 9d3e 746a b3bc
00000040: 9e5e a43c 9e6e 733e 9a4a 933a 1cef 953e
00000050: eaf0 bd3d 8abf f2bb 1444 f83a ab27 7e3c
00000060: a2fb 1c3b 1669 62ba bb22 733e d127 8a3e
00000070: 97a6 bfbb ab05 3f3c 5338 27bc bcda 58bc
0.24060194 0.073372275 -0.0015226577 0.087063774 -0.0064034057 -0.008108928 0.006717932 -0.039693143
0.018181033 0.019617256 0.2629964 -0.0060921316 0.24298115 0.26899505 0.30719933 -0.021901347
0.020064648 0.23772666 0.0011237443 0.29283988 0.09274466 -0.007408087 0.0018941187 0.015512387
0.0023953696 -0.0008636875 0.23743717 0.26983503 -0.0058487165 0.011659066 -0.0102063 -0.013235744

MatMul f4 [32, 1536]
00000000: c1e6 a5bb 18e5 97bc e1e7 a63c ced7 163a
00000010: 5959 91bc 2ee4 febb 5a46 803b 6d01 16bc
00000020: 4c9a 95bc 2c15 d73c 51d7 c23c 2fed bb3a
00000030: 9fd3 27bc 8732 3e3b 0bbf ab3c cb4c b93c
00000040: c8f0 efbc 9656 8f3c 25b1 dbbb 8b94 913b
00000050: a452 0ebb 7ac9 b23c eb9f 99bc 1223 8f3c
00000060: 30ff 913c 67cc 38bc cd20 953a 56d7 4d3c
00000070: 8eb3 0837 c3da 873c 0f5b d1bc 18c3 4abc
00000080: f0e5 b9bc 329b 88bc 5d06 d53b 2fe5 5d3c
00000090: 4035 acbb 1714 9bba 65f3 b7bb ade0 83bc
000000a0: a319 003d ee21 89bc 25e3 323c 91c4 3cbc
000000b0: 8dd4 5f3c c9f4 de3b 4bdb 3dbb fd55 6a3c
000000c0: 603a 323c 2125 0abc 8ab3 4bbb 2a93 2f3b
000000d0: b8b1 69bc 09a0 3dbb 21f0 9f3c 265c 99bc
000000e0: 5e60 923b 7402 24bc 06fb ba3c d1bb 283c
000000f0: 4548 b93c fb79 023c e3a6 e83c 4281 1f3b
00000100: 09c3 d1bc c128 743c 8e67 1b3c f561 c23b
00000110: 289a c3ba 3fc2 48bc ac42 e9bb 50dc 2cbc
00000120: 860d 073d 80eb e5bb 5c30 c93c 27c0 42bc
00000130: 6e66 693a cd5f 573b 0f9d 79bc 9606 493c
00000140: 84d3 873b 7422 f8b9 414d 43bb f4ac a1bb
00000150: 0d79 08bc b066 d03c ae75 38bc 118d 90bc
00000160: d6c9 0ebc 154d e3bb 3de2 663c 1aeb e33c
00000170: a82c 04bc cf75 71bb 409f 3b3c 0402 5e3c
00000180: 8d44 063c 04d8 1bba cc97 c93c 178c d0bc
00000190: dd59 f83c 1238 83bc fc29 57b9 1da5 303b
000001a0: 213e eeba 63e6 7e3c 3906 20bc 80c9 cbbc
000001b0: 9675 403b c8d9 b1bb bbee 9ebc 98d3 88bc
000001c0: a6fd 88bc faae 0bbb 58f4 633c 8105 963c
000001d0: bf06 98bb a4ca b03c adc7 30bc a2e8 3d3c
000001e0: 2a39 b5bc b69f e33c a7d8 b23b fa8b 12bd
000001f0: aa40 8fbb 137e bd3c 36d2 073c 2004 c83b
00000200: b4e9 b7ba e317 7abc 25ba dfbc f3ee b13c
00000210: 6677 a33b 02cd 8f3c a566 903c 02cd e9bb
00000220: 79eb aa3b f6e5 103c 67d6 adbc 9a3c 93bc
00000230: b129 9ebc 7664 283c 56ee 243c e7db acbc
00000240: f76e b73b 91b8 c93b 3e62 4d3c c68f d33c
00000250: 5f78 bf3c baec 14bc 46ed 85bc 6116 4e3c
00000260: 9a63 c1bb 47c7 00bc 46f8 d33b bfbb e23b
00000270: 18f4 0f3c 6a3d 24bb 778a a5bb f68d d5bb
00000280: 183b a5bb 0f6e 583c 722b e33b 935d 84bb
00000290: 5c67 923c 5cfc 6bbc 66ad 753c a9a9 99bc
000002a0: 1c1c f23c f92a a23c df30 f3bc d9b0 0b3b
000002b0: 8a8f af3c d912 b83c 4d87 60bc e13d a63c
000002c0: a630 80bc 8ae9 0e38 95ef 06bb 1b6d 58bc
000002d0: 82fa cfbc ad8e dc3c 4a7e fc3b 8082 1abc
000002e0: a5c8 8bbc 86e2 5cbc 11b6 a23b 8aa4 aa3c
000002f0: a8b0 4ebc 9584 0abc e498 37bc bb68 9f3b
00000300: 4346 44bc 94e6 283a e962 abbc e5b9 88bc
00000310: 0f94 91bc ea47 793c 6754 afbc 1a3d 343c
00000320: e2af 6ebc 9c21 9e3c 4428 9a3c 37be f939
00000330: a26d aabc f1fb 43bc 6923 95bb e8a0 cfbc
00000340: a601 0cbc 3176 aa3c 7fb5 88bc 37eb b8bc
00000350: de82 54bc 9e46 eb3b 8a59 9a3c 2cfe a73b
00000360: bf5f 00bc eb46 0abc de0d 6d3c f97a 8a3c
00000370: 9739 a83c dc36 083d 77d0 a4bc 67f9 d5bb
00000380: a932 b3bb eb40 acbc f1b4 683c 1eac d6bb
00000390: 1fc9 46bc 457d 2cbc 1f69 af3c baf0 acbb
000003a0: 4d10 c8bc 9a33 bc3c 03aa 563c d3c2 553c
000003b0: 7b11 d63b 1dfa 1f3b d9ee af3b 5c03 e3bc
000003c0: 9525 983c 042c 46bc abd4 86bc 30e1 883c
000003d0: 88a3 10b9 2bf4 2c3b 116d 903a b189 083c
000003e0: a7f8 983c 1eac acbc d20f 943b 9dfb e03b
000003f0: 65b5 473c 9dcc 243c c79c fabb 7ca2 0f3c
-0.0050629084 -0.018541858 0.02037424 0.00057542033 -0.0177428 -0.007778666 0.0039146366 -0.009155613
-0.018262051 0.026255213 0.023784311 0.0014337654 -0.0102433255 0.0029021816 0.02096512 0.022619626
-0.029289618 0.017497342 -0.006704467 0.0044427565 -0.0021716738 0.021824587 -0.018753013 0.017472778
0.017821878 -0.011279202 0.0011377573 0.012563547 8.1480375e-06 0.016583806 -0.025556115 -0.012375616
-0.02269265 -0.016675565 0.0065010027 0.013543411 -0.0052553713 -0.0011831549 -0.0056137317 -0.016098345
0.03127445 -0.016739812 0.010918413 -0.011521474 0.013661516 0.006804083 -0.002896982 0.014302728
0.0108781755 -0.008431704 -0.0031082355 0.0026790597 -0.014263563 -0.00289345 0.019523682 -0.018720698
0.0044670543 -0.0100103505 0.022824775 0.010298685 0.022617469 0.007963653 0.02839989 0.0024338518
-0.025605695 0.014902295 0.009485139 0.0059320875 -0.0014923261 -0.012253343 -0.0071185436 -0.0105505735
0.03297188 -0.007016599 0.024559192 -0.011886633 0.0008903508 0.0032863498 -0.0152352 0.012269637
0.0041450877 -0.00047327916 -0.0029800686 -0.0049339477 -0.008329642 0.02543959 -0.011258526 -0.01764539
-0.008715114 -0.006936679 0.014092025 0.027822066 -0.0080672875 -0.00368439 0.011451542 0.013550285
0.008195055 -0.00059449696 0.024608515 -0.025457425 0.030316288 -0.016017947 -0.00020519638 0.0026953884
-0.0018176475 0.015557858 -0.009767109 -0.024876356 0.0029366962 -0.005427573 -0.019400945 -0.016702458
-0.016722512 -0.002131401 0.013913237 0.018313171 -0.004639476 0.021581002 -0.010789794 0.0115911085
-0.022121985 0.027786117 0.005457956 -0.035778023 -0.004371722 0.023131406 0.008289864 0.0061040074
-0.0014031441 -0.015264484 -0.02731044 0.021720385 0.0049885986 0.01755381 0.01762707 -0.0071350345
0.005216059 0.008843889 -0.021220399 -0.017973233 -0.01930699 0.010277858 0.010066589 -0.021100951
0.005597945 0.0061560352 0.01253563 0.025825392 0.023372827 -0.009089643 -0.016348492 0.012578578
-0.005901766 -0.007860011 0.0064688055 0.0069193537 0.008786224 -0.002506102 -0.0050519067 -0.006517167
-0.005042445 0.013209834 0.0069326693 -0.004039475 0.017871551 -0.014403429 0.014994955 -0.018757658
0.02955442 0.019795882 -0.02968639 0.0021315126 0.02143075 0.022469925 -0.013704133 0.020293178
-0.015648197 3.407294e-05 -0.002058958 -0.0132096065 -0.025388006 0.026923502 0.0077054845 -0.009430528
-0.017063448 -0.013481742 0.0049655517 0.020830411 -0.01261536 -0.008454462 -0.011205886 0.0048647798
-0.011979642 0.000644305 -0.020921187 -0.016690204 -0.017770795 0.0152149 -0.02140255 0.011000896
-0.014568301 0.019303136 0.018818028 0.00047634702 -0.02080423 -0.011961923 -0.0045513404 -0.02534528
-0.008545315 0.020808311 -0.016688107 -0.022573097 -0.012970654 0.007180049 0.018841524 0.005126735
-0.007835328 -0.00843976 0.014468638 0.016904341 0.020535273 0.033255443 -0.020118935 -0.006529975
-0.0054686856 -0.021027049 0.014203296 -0.0065512797 -0.012132912 -0.010527913 0.02141243 -0.0052777203
-0.024421835 0.022973824 0.013102057 0.013046938 0.0065328456 0.0024410554 0.005369049 -0.027711563
0.018572608 -0.012095455 -0.01645883 0.01670894 -0.0001379383 0.0026390653 0.0011018832 0.008333609
0.018673254 -0.021078166 0.0045184875 0.006865932 0.012189244 0.010058549 -0.007648084 0.008766767

MatMul_1 f4 [32, 32]
00000000: c899 fabd 7eb5 eabd 0819 92bd a806 35bd
00000010: f7d6 293d ae68 303d 50b7 03be 8473 40bd
00000020: a11c e3bd 06a0 b9bd eeba a43d d230 14be
00000030: 5286 08be cea0 133e 42c8 d53d 05fe 043d
00000040: 7b65 fc3d 5578 223e 9667 b03d 1f6a 553d
00000050: ad0e f23c 1f62 06be 51b6 503d 73be 25be
00000060: 2be3 c03d 84ae b9bd b2cb edbb bb54 24bc
00000070: 862c 15bd cdbc 3c3d d645 003b e9a2 203e
00000080: ead5 99bd 2f67 3ebb 612b 873d faa9 e8bd
00000090: 1e04 9bbd 12c3 b63d 1b39 da3d 8024 143e
000000a0: fa50 35bd 21a9 033e 7a42 1abe 2316 06be
000000b0: 641b 17be 95bf eabd 1bfb aa3c f0f6 fdbd
000000c0: 77c8 71bd 7764 303d c40f 09be 65a7 43bd
000000d0: 87aa 883d f5d9 68bc 40e8 06bd d80f 0b3e
000000e0: 8eb4 84bd bc44 ddbd 2f00 333e f4ec f33d
000000f0: 70ca 243e 9040 b73d 4d64 013d 57fa a43c
00000100: 3ba3 9cbd 4de0 283e 8b04 073c 009e d23d
00000110: 7a87 0bbd b66f 233e 15e9 a2bc 37be e7bd
00000120: 1d9d 7cbd 31b9 343d 6ca9 1bbe a41a c7bd
00000130: 609f 363d 954a 543c faab 7cbd e0b6 f7bd
00000140: fa4b 70bd c3e8 75bd c12d 9d3d 0e3e 443d
00000150: 8e94 413d 09ec 2c3e 5588 a53d 23ac 92bd
00000160: 38f6 3c3e 26ca ffbb 23de 113d b7f2 02be
00000170: d89a b5bb 3f99 eabc 98a3 1b3e 243e 9c3d
00000180: 54b3 2ebe fc4d 943d ea3a 163e 34f0 193e
00000190: 82e7 8ebd 4dba d53c 835d 6c3d d55d 173d
000001a0: fade 943d 452a 08be b825 a63b 4d96 4abc
000001b0: 983b 9d3d e318 353c 40af cd3d 3d1e 05be
000001c0: d880 e4bc 7363 6ebd e15f 75bd 7b83 c73d
000001d0: c5b7 babd 87e3 293e 95d9 6e3c f91f 1a3d
000001e0: bec2 0bbd 6ad6 c43d fe1d c93a 5da3 1a3e
000001f0: 2564 03be 6c99 ec3b 321b f4bd bf79 c5bd
00000200: 01f8 94bd 9b55 183e 008c 7abd 76e2 023e
00000210: ceae 99bd d959 79bb 96fd 853d 2dc2 e1bd
00000220: 7c86 21bd cbf6 c73b 7a75 113d 6875 983d
00000230: 6cd1 a6bd 54c7 16bd 8e9d 76bd 6c48 a93d
00000240: 6ce3 16be 2fc8 1fbe 10fc 2bbd b09c 5ebd
00000250: 187e 62ba 9171 1b3e d14b cf3d fab1 e8bd
00000260: a5c7 ed3d 07cd 82bd 4f33 74bd 73c3 e83d
00000270: f23e 74bd bcd5 c9bd 1c9c ed3d 4c20 c13d
00000280: 00de d2bd 70b2 b63d f9a0 6bbd 2b80 2d3e
00000290: c934 5bbd 14e3 c63d 68bc 78bc 71be 4f3b
000002a0: edc5 273e 9c1d a8bc e3be 283c 7b2e 2a3e
000002b0: 68de df3c 1786 193e 11fe 89b8 6fcf b3bd
000002c0: 5c85 393b 9d6a df3c ce70 023c d0f2 ab3c
000002d0: 2b68 1f3c 942e 6b3d 9fa9 0a3e a55b 173d
000002e0: d96e 193e 4e6e 913d 1ee1 8bbd 2658 9bbd
000002f0: 63e8 aebd a6c0 c3bc 40f0 173e 4991 fbbc
00000300: 9af6 953c 4df1 513d 8bba 4c3d a047 1e3e
00000310: 734f 4ebd a72d 1b3e 0f57 2c3e f381 d33d
00000320: 8ade b9bd 1aa8 e0bb f526 353e 4c19 b83d
00000330: fc65 ac3d 3e4b 043e 3321 be3d 090a 5cbd
00000340: 87d2 fb3d 4a24 943c 1b97 4cbe 1a5a e9bd
00000350: 8fd7 b5bd 7987 ce3d 4bf3 cbbd 23aa 84bb
00000360: 9870 de3b de25 cf3d 148c be3d 0ec1 933d
00000370: 9dd6 8a3d 9216 cc3d c78a 3bbc e6a0 2a3d
00000380: 446c 583d 5af7 2f3c 6142 d93d 9958 69bd
00000390: db99 ea3d f517 eebb cd7e 60bc 5d7a 45bd
000003a0: 5b6d 19be 7f7d 2abd eaf4 3a3d a257 073e
000003b0: 6a79 62bd dd7f 453d c813 03bd 9e90 2a3e
000003c0: 2e8c dd3d 26de 46bd ab92 4bbd 95d2 d13c
000003d0: c8fd b2bc dc91 a23d e8f3 33bd df3f 56bd
000003e0: 3904 833d 373a 053e ccb2 9dbd 62d9 f9bd
000003f0: f2b1 2f3e 537e 21be 8003 a3bd 6dee bd3c
-0.12236363 -0.11460398 -0.071336806 -0.0441958 0.041464772 0.04306858 -0.12862897 -0.046985164
-0.11089445 -0.09063725 0.080434665 -0.14471748 -0.13332489 0.14416811 0.10438587 0.032468814
0.12324043 0.15866216 0.086135074 0.052103158 0.029548014 -0.13123368 0.05095512 -0.16185932
0.09418329 -0.09066489 -0.0072569484 -0.010029967 -0.036419414 0.046078492 0.0019572875 0.15687145
-0.07511504 -0.0029053201 0.06600071 -0.113605455 -0.07569145 0.089239255 0.10655423 0.14467049
-0.04426668 0.12857486 -0.15064421 -0.13094382 -0.14756542 -0.114623226 0.02087169 -0.12400615
-0.05902907 0.04306456 -0.1338492 -0.04776706 0.066731505 -0.014212121 -0.032936335 0.13580263
-0.064797506 -0.10804126 0.17480539 0.119104296 0.16092849 0.08947861 0.031589795 0.020138903
-0.07648321 0.16491814 0.008240829 0.10284042 -0.034064747 0.15960583 -0.019886533 -0.113155775
-0.061673272 0.044121925 -0.15201348 -0.09721878 0.044585586 0.012957235 -0.061687447 -0.120954275
-0.058666207 -0.060036432 0.076747425 0.047910742 0.047260813 0.16886915 0.08082644 -0.07161739
0.184533 -0.0078060804 0.035612237 -0.12787901 -0.0055421405 -0.028637527 0.15199125 0.0762904
-0.17060596 0.07241437 0.14670911 0.15033036 -0.0697775 0.026089812 0.057706367 0.03695472
0.07269092 -0.13297375 0.0050704144 -0.012364936 0.07677382 0.011053297 0.10043192 -0.12999816
-0.027893469 -0.05820031 -0.05990589 0.09741875 -0.091170825 0.16590701 0.014578243 0.037628148
-0.034121267 0.09611209 0.0015344021 0.1510138 -0.12831171 0.0072204378 -0.119192496 -0.09642362
-0.072738655 0.14876406 -0.06116867 0.127817 -0.075040445 -0.0038047938 0.06542508 -0.11023364
-0.039434895 0.006102418 0.035512425 0.074442685 -0.08145413 -0.036811188 -0.06020885 0.082657665
-0.14735192 -0.15603708 -0.041988432 -0.054348648 -0.0008640005 0.15180041 0.10121883 -0.11362071
0.11610345 -0.06386762 -0.059619244 0.11365404 -0.05963034 -0.0985522 0.11602041 0.09429988
-0.102962494 0.08920753 -0.057526562 0.16943423 -0.053517137 0.097112805 -0.015181638 0.0031699205
0.16384096 -0.020521931 0.010299417 0.16619293 0.027327731 0.14992557 -6.5799926e-05 -0.08779799
0.0028308248 0.027272517 0.007961465 0.020989805 0.009729425 0.057417467 0.13541268 0.036952633
0.14983691 0.07101117 -0.06830047 -0.07585172 -0.08540418 -0.023895573 0.14837742 -0.030708926
0.018306065 0.051255513 0.04998259 0.1545701 -0.050368737 0.15154134 0.16830085 0.1032752
-0.09075649 -0.006855977 0.17690642 0.089892 0.084178895 0.12919328 0.09283676 -0.053720508
0.12296014 0.01808371 -0.19979517 -0.11394139 -0.08879005 0.10084433 -0.09958514 -0.004048602
0.0067883246 0.101146445 0.093040615 0.07214557 0.067792155 0.099652424 -0.011446661 0.04165735
0.052837625 0.010740126 0.10608364 -0.05696926 0.11455127 -0.0072660395 -0.013702107 -0.048212398
-0.14983122 -0.04162359 0.045643725 0.13217023 -0.05529157 0.048217643 -0.032001287 0.1665673
0.10817753 -0.0485517 -0.04970042 0.025613109 -0.021849528 0.07937977 -0.04393378 -0.052307006
0.0639729 0.13010488 -0.077001184 -0.121996656 0.17157724 -0.15770845 -0.07959652 0.02318498

MatMul_2 f4 [1, 32]
00000000: ea31 abbe 781d fb3d cd53 08be f8bc 273e
00000010: 2735 e63d 1862 093e d37a d23a 31bd febc
00000020: 7786 523d af70 343e 8814 a7be 48d5 c13b
00000030: ca1c 8fbe 8fca a1be 10d9 b2be d624 db3a
00000040: d86e 183e a886 abbe 3ace 2c3e d0b2 a8be
00000050: 315e ec3d c3de 81bc bbe9 ccbd 0504 623e
00000060: d5e7 283e ccc5 ee3b b9bb bcbe 6a17 a3be
00000070: 266a 163d c1f9 4c3d 7339 073c e259 55bd
-0.3343652 0.1226148 -0.13313217 0.1638068 0.11240607 0.13416326 0.0016058333 -0.031096073
0.051397767 0.1762111 -0.32632852 0.0059153177 -0.27951652 -0.31599852 -0.3493123 0.0016719352
0.14886034 -0.33501172 0.16875544 -0.32948923 0.11541403 -0.015853291 -0.10005518 0.22071846
0.16494687 0.007286763 -0.3686197 -0.318538 0.036722325 0.05004287 0.008253443 -0.052087672
