microWakeWord/hey_norman.tflite (tflite, 77800 bytes, 18 tensors)

tfl.pseudo_qconst1 i1 [1, 2960] scale=0.005060273 zero_point=0
00000000: e601 fad4 f511 0af2 1ae1 0506 04f4 2b0b
00000010: 02f0 e201 ee08 cfe0 dc23 121d eb06 090a
00000020: f7e0 0317 06fa defb 13fc fc13 f2f9 f0fa
00000030: d704 ed0a efe1 ff34 e9f0 f9f8 e1ff c5eb
00000040: 0e02 04e4 2000 0602 f002 36fb e508 ff05
00000050: f902 f9eb 0719 11f3 20e9 0109 0bf9 21fe
00000060: 0c05 ec0b fd11 e4e5 ed0a 1d15 fc04 0e0e
00000070: f0d9 fd18 0002 ec07 1609 0013 eefb f903
00000080: f106 0500 f3e9 0523 f0fc ee09 e9f6 dcf4
00000090: 0703 fdf4 0c04 03fd f505 2dfb 0509 f50f
000000a0: 01ff 06f0 0e0c 10f5 08ef ff08 08fa 1000
000000b0: ff08 f90b f302 f2f0 f604 0602 fcfd 0afc
000000c0: f3eb f00b 07f8 f30d 010c fc08 e500 01f6
000000d0: f9f3 ff0c fef0 0a1c 03f3 f104 f3f4 df03
000000e0: 0f04 03e5 0c08 0105 fbfc 13f1 0fe7 f812
000000f0: f0ea fdf8 fd01 06f9 08f9 ff0c 0cf3 1000
-0.1315671 0.005060273 -0.03036164 -0.22265202 -0.055663005 0.08602464 0.050602734 -0.07084382
0.1315671 -0.15686847 0.025301367 0.03036164 0.020241093 -0.06072328 0.21759175 0.055663005
0.010120546 -0.08096437 -0.1518082 0.005060273 -0.09108492 0.040482186 -0.24795339 -0.16192874
-0.18216984 0.17710957 0.09108492 0.14674792 -0.10626574 0.03036164 0.04554246 0.050602734
-0.04554246 -0.16192874 0.01518082 0.11638629 0.03036164 -0.03036164 -0.17204928 -0.025301367
0.09614519 -0.020241093 -0.020241093 0.09614519 -0.07084382 -0.03542191 -0.08096437 -0.03036164
-0.2074712 0.020241093 -0.09614519 0.050602734 -0.08602464 -0.15686847 -0.005060273 0.2631342
-0.11638629 -0.08096437 -0.03542191 -0.040482186 -0.15686847 -0.005060273 -0.29855612 -0.10626574
0.07084382 0.010120546 0.020241093 -0.14168765 0.16192874 0.0 0.03036164 0.010120546
-0.08096437 0.010120546 0.27325475 -0.025301367 -0.13662738 0.040482186 -0.005060273 0.025301367
-0.03542191 0.010120546 -0.03542191 -0.10626574 0.03542191 0.12650684 0.08602464 -0.06578355
0.16192874 -0.11638629 0.005060273 0.04554246 0.055663005 -0.03542191 0.16698901 -0.010120546
0.06072328 0.025301367 -0.10120547 0.055663005 -0.01518082 0.08602464 -0.14168765 -0.13662738
-0.09614519 0.050602734 0.14674792 0.10626574 -0.020241093 0.020241093 0.07084382 0.07084382
-0.08096437 -0.19735065 -0.01518082 0.12144656 0.0 0.010120546 -0.10120547 0.03542191
0.11132601 0.04554246 0.0 0.09614519 -0.09108492 -0.025301367 -0.03542191 0.01518082
-0.0759041 0.03036164 0.025301367 0.0 -0.06578355 -0.11638629 0.025301367 0.17710957
-0.08096437 -0.020241093 -0.09108492 0.04554246 -0.11638629 -0.050602734 -0.18216984 -0.06072328
0.03542191 0.01518082 -0.01518082 -0.06072328 0.06072328 0.020241093 0.01518082 -0.01518082
-0.055663005 0.025301367 0.22771229 -0.025301367 0.025301367 0.04554246 -0.055663005 0.0759041
0.005060273 -0.005060273 0.03036164 -0.08096437 0.07084382 0.06072328 0.08096437 -0.055663005
0.040482186 -0.08602464 -0.005060273 0.040482186 0.040482186 -0.03036164 0.08096437 0.0
-0.005060273 0.040482186 -0.03542191 0.055663005 -0.06578355 0.010120546 -0.07084382 -0.08096437
-0.050602734 0.020241093 0.03036164 0.010120546 -0.020241093 -0.01518082 0.050602734 -0.020241093
-0.06578355 -0.10626574 -0.08096437 0.055663005 0.03542191 -0.040482186 -0.06578355 0.06578355
0.005060273 0.06072328 -0.020241093 0.040482186 -0.13662738 0.0 0.005060273 -0.050602734
-0.03542191 -0.06578355 -0.005060273 0.06072328 -0.010120546 -0.08096437 0.050602734 0.14168765
0.01518082 -0.06578355 -0.0759041 0.020241093 -0.06578355 -0.06072328 -0.16698901 0.01518082
0.0759041 0.020241093 0.01518082 -0.13662738 0.06072328 0.040482186 0.005060273 0.025301367
-0.025301367 -0.020241093 0.09614519 -0.0759041 0.0759041 -0.12650684 -0.040482186 0.09108492
-0.08096437 -0.11132601 -0.01518082 -0.040482186 -0.01518082 0.005060273 0.03036164 -0.03542191
0.040482186 -0.03542191 -0.005060273 0.06072328 0.06072328 -0.06578355 0.08096437 0.0

tfl.pseudo_qconst3 i1 [80, 1, 1, 80]
00000000: fdfa 4601 155d fed1 1403 ecc9 4809 d0ff
00000010: 3836 0ce9 51d1 a947 b401 2e62 06cf ea18
00000020: dda7 c516 fa38 e0d1 072f 3154 b10f a817
00000030: fdec d4ec fac0 c1ea e8f1 8bfb 0601 49c3
00000040: 04cd 36d0 087f d231 a2c6 f9ea cbf4 9032
00000050: c0ff 0af7 f242 0fd2 d0d8 10a4 f3ed 080c
00000060: f917 19c9 f02b de19 f1fd 2621 1f07 0bdf
00000070: 2714 ef1a d823 0b23 db16 dac3 c7f5 1f12
00000080: f709 da3d 7fec 2d36 3df6 0118 e111 f5e9
00000090: e82c d029 e1fc 15e9 0fe4 ce2c e9dc eaec
000000a0: f404 0511 dec3 bc10 d512 3afc f9ef e05b
000000b0: 24fc 2ac5 fbca 032b de39 4249 ef1b 25d7
000000c0: eb3a f309 0c29 fe34 7f21 0efa f2e1 1419
000000d0: 09f1 13f0 25f6 ffc8 0818 8cd0 ee34 01d9
000000e0: db24 d10a c3f8 26b7 eec5 afc0 1f13 1301
000000f0: d29e 2bce e6dc 4dae dc26 e309 b026 48b5
-3 -6 70 1 21 93 -2 -47
20 3 -20 -55 72 9 -48 -1
56 54 12 -23 81 -47 -87 71
-76 1 46 98 6 -49 -22 24
-35 -89 -59 22 -6 56 -32 -47
7 47 49 84 -79 15 -88 23
-3 -20 -44 -20 -6 -64 -63 -22
-24 -15 -117 -5 6 1 73 -61
4 -51 54 -48 8 127 -46 49
-94 -58 -7 -22 -53 -12 -112 50
-64 -1 10 -9 -14 66 15 -46
-48 -40 16 -92 -13 -19 8 12
-7 23 25 -55 -16 43 -34 25
-15 -3 38 33 31 7 11 -33
39 20 -17 26 -40 35 11 35
-37 22 -38 -61 -57 -11 31 18
-9 9 -38 61 127 -20 45 54
61 -10 1 24 -31 17 -11 -23
-24 44 -48 41 -31 -4 21 -23
15 -28 -50 44 -23 -36 -22 -20
-12 4 5 17 -34 -61 -68 16
-43 18 58 -4 -7 -17 -32 91
36 -4 42 -59 -5 -54 3 43
-34 57 66 73 -17 27 37 -41
-21 58 -13 9 12 41 -2 52
127 33 14 -6 -14 -31 20 25
9 -15 19 -16 37 -10 -1 -56
8 24 -116 -48 -18 52 1 -39
-37 36 -47 10 -61 -8 38 -73
-18 -59 -81 -64 31 19 19 1
-46 -98 43 -50 -26 -36 77 -82
-36 38 -29 9 -80 38 72 -75

tfl.pseudo_qconst5 i1 [1, 25, 1, 80]
00000000: 7442 7f81 8181 bf15 e00b 6925 cfb4 d911
00000010: cab9 8179 7f96 57f0 7f7c 7f7f 8177 b9d0
00000020: b034 81d9 9381 8de8 0a7f f2b4 22ed 81da
00000030: e492 409b cda3 d80b 0fe6 8934 b50f d4f2
00000040: d1dc 8110 da81 5f08 87ac efa7 c6f4 817f
00000050: 7f55 4d8c 9789 bd26 042c 4355 2f91 1b07
00000060: dab3 bd5b 6da6 51ee 635b 7952 987f 981a
00000070: 8566 b5f3 8191 9f69 0970 cab2 f4ea 98f4
00000080: fe90 5ab9 d2c1 bee3 12dd 91cd ce2e caa6
00000090: d0fb 9b55 e1b3 7f04 93bf f4bc c9a1 904b
000000a0: 2b4b 0c24 adc0 c917 d748 6c3b 0598 f20a
000000b0: dcce dc62 49d3 270c 357f 6b40 b16b 9412
000000c0: 9262 c3d0 8ce8 835c 0453 f9c2 0bde a90b
000000d0: ee81 37bc d7ed fc39 3102 8181 bc47 af81
000000e0: c6e7 a638 0b9f 3ef8 81da 029b d9f1 a842
000000f0: 0d4e fb24 ebb8 f108 813a 0846 7f94 b211
116 66 127 -127 -127 -127 -65 21
-32 11 105 37 -49 -76 -39 17
-54 -71 -127 121 127 -106 87 -16
127 124 127 127 -127 119 -71 -48
-80 52 -127 -39 -109 -127 -115 -24
10 127 -14 -76 34 -19 -127 -38
-28 -110 64 -101 -51 -93 -40 11
15 -26 -119 52 -75 15 -44 -14
-47 -36 -127 16 -38 -127 95 8
-121 -84 -17 -89 -58 -12 -127 127
127 85 77 -116 -105 -119 -67 38
4 44 67 85 47 -111 27 7
-38 -77 -67 91 109 -90 81 -18
99 91 121 82 -104 127 -104 26
-123 102 -75 -13 -127 -111 -97 105
9 112 -54 -78 -12 -22 -104 -12
-2 -112 90 -71 -46 -63 -66 -29
18 -35 -111 -51 -50 46 -54 -90
-48 -5 -101 85 -31 -77 127 4
-109 -65 -12 -68 -55 -95 -112 75
43 75 12 36 -83 -64 -55 23
-41 72 108 59 5 -104 -14 10
-36 -50 -36 98 73 -45 39 12
53 127 107 64 -79 107 -108 18
-110 98 -61 -48 -116 -24 -125 92
4 83 -7 -62 11 -34 -87 11
-18 -127 55 -68 -41 -19 -4 57
49 2 -127 -127 -68 71 -81 -127
-58 -25 -90 56 11 -97 62 -8
-127 -38 2 -101 -39 -15 -88 66
13 78 -5 36 -21 -72 -15 8
-127 58 8 70 127 -108 -78 17

tfl.pseudo_qconst7 i1 [80, 1, 1, 80]
00000000: 8112 fad5 ff15 30e9 472b dbfd 2dc5 1b43
00000010: ce22 efea f501 ee24 e5f7 0837 cfff 0af1
00000020: 04fb 0f1f c70d 19af 08ed efe9 f102 c2fe
00000030: e304 4957 c9e3 e2df 3abb 1ace ce12 07de
00000040: cd50 1452 22c1 1e1a e903 ee2c f811 b4da
00000050: f352 c581 6cf2 c90c 2ff6 d623 fd06 cffe
00000060: 02f6 34c1 9110 e6b0 36ab e4ed 5723 2f14
00000070: 3f42 4d37 48d6 f8e9 aabd b596 c8e7 fe34
00000080: 02b9 3d85 e65f 1f49 020f 4020 9d39 030f
00000090: 3619 b5ff 1dd1 dcb2 93ca 0dc2 27c9 0ed2
000000a0: 3d4a d3c4 5eb9 cd01 1349 d88c fe21 01d9
000000b0: 2f39 d3c6 914d 0ffe 2d29 e729 177e 993d
000000c0: 0b58 300d ec87 4983 0d0d 33e8 db81 6eb4
000000d0: d509 4c3d 0863 fda9 e308 57b3 3f35 a743
000000e0: 62f3 47d3 f5f4 e71e b2d1 61bd 4ad1 fb13
000000f0: e85b 1fb6 1537 099f f54d d1ec f731 a9d9
-127 18 -6 -43 -1 21 48 -23
71 43 -37 -3 45 -59 27 67
-50 34 -17 -22 -11 1 -18 36
-27 -9 8 55 -49 -1 10 -15
4 -5 15 31 -57 13 25 -81
8 -19 -17 -23 -15 2 -62 -2
-29 4 73 87 -55 -29 -30 -33
58 -69 26 -50 -50 18 7 -34
-51 80 20 82 34 -63 30 26
-23 3 -18 44 -8 17 -76 -38
-13 82 -59 -127 108 -14 -55 12
47 -10 -42 35 -3 6 -49 -2
2 -10 52 -63 -111 16 -26 -80
54 -85 -28 -19 87 35 47 20
63 66 77 55 72 -42 -8 -23
-86 -67 -75 -106 -56 -25 -2 52
2 -71 61 -123 -26 95 31 73
2 15 64 32 -99 57 3 15
54 25 -75 -1 29 -47 -36 -78
-109 -54 13 -62 39 -55 14 -46
61 74 -45 -60 94 -71 -51 1
19 73 -40 -116 -2 33 1 -39
47 57 -45 -58 -111 77 15 -2
45 41 -25 41 23 126 -103 61
11 88 48 13 -20 -121 73 -125
13 13 51 -24 -37 -127 110 -76
-43 9 76 61 8 99 -3 -87
-29 8 87 -77 63 53 -89 67
98 -13 71 -45 -11 -12 -25 30
-78 -47 97 -67 74 -47 -5 19
-24 91 31 -74 21 55 9 -97
-11 77 -47 -20 -9 49 -87 -39

tfl.pseudo_qconst9 i1 [1, 17, 1, 40]
00000000: 4919 10eb 02a6 3c81 9804 4129 9b81 7f7f
00000010: 81f1 7fe6 7f81 0ddf 3a04 3a81 cd0f b38e
00000020: 50ed 067f 818a 8181 4e3c 3e1a 01f8 6c89
00000030: 832f 7342 b6cb 6442 a8b6 790f 70d1 09d5
00000040: 451e ebb3 b5f8 c481 7f1e 085b a5b0 b3e3
00000050: 587f f819 ce24 779e 9feb 5f2f 81ac 2531
00000060: ea8e 4c02 3ccc d5e7 312e ddc9 f8e9 f182
00000070: 480b db43 ba97 83f0 2b38 2532 d8f7 57c3
00000080: 81f5 3a4f b5d0 2d65 fc98 4cf7 4cbf 0400
00000090: 2ae5 f2fe 2f18 d4d8 1937 e14a df8c 83d2
000000a0: 5153 087f ce3e 7feb abcb 577f dcf3 0c05
000000b0: 20ec 1f28 4e00 e637 442b 292c 162e 0afc
000000c0: 1e04 f33f ccb6 eab5 77e1 d450 e731 70cc
000000d0: e220 1f7e 3109 08f3 fcab 0c1a 3296 bd20
000000e0: 2be4 f834 6ff4 f849 fdeb d8f6 92c7 d105
000000f0: 129d de28 d90a 0a00 9d1d 2740 10c3 0eb1
73 25 16 -21 2 -90 60 -127
-104 4 65 41 -101 -127 127 127
-127 -15 127 -26 127 -127 13 -33
58 4 58 -127 -51 15 -77 -114
80 -19 6 127 -127 -118 -127 -127
78 60 62 26 1 -8 108 -119
-125 47 115 66 -74 -53 100 66
-88 -74 121 15 112 -47 9 -43
69 30 -21 -77 -75 -8 -60 -127
127 30 8 91 -91 -80 -77 -29
88 127 -8 25 -50 36 119 -98
-97 -21 95 47 -127 -84 37 49
-22 -114 76 2 60 -52 -43 -25
49 46 -35 -55 -8 -23 -15 -126
72 11 -37 67 -70 -105 -125 -16
43 56 37 50 -40 -9 87 -61
-127 -11 58 79 -75 -48 45 101
-4 -104 76 -9 76 -65 4 0
42 -27 -14 -2 47 24 -44 -40
25 55 -31 74 -33 -116 -125 -46
81 83 8 127 -50 62 127 -21
-85 -53 87 127 -36 -13 12 5
32 -20 31 40 78 0 -26 55
68 43 41 44 22 46 10 -4
30 4 -13 63 -52 -74 -22 -75
119 -31 -44 80 -25 49 112 -52
-30 32 31 126 49 9 8 -13
-4 -85 12 26 50 -106 -67 32
43 -28 -8 52 111 -12 -8 73
-3 -21 -40 -10 -110 -57 -47 5
18 -99 -34 40 -39 10 10 0
-99 29 39 64 16 -61 14 -79

tfl.pseudo_qconst11 i1 [1, 11, 1, 40]
00000000: fe0c 5533 2d17 fa5c 1281 50df f87f 3b60
00000010: 0cce c223 3917 0882 a3ad 09f0 be45 4398
00000020: f181 0a25 cd7d cc5f 9ce4 0b7f 0bd6 1c7b
00000030: da92 d716 8114 1868 35dc 1f05 3d37 1a81
00000040: 2181 5b1d 9e21 d6d5 1789 f559 bc7f 2047
00000050: 9337 ec36 21f0 4e34 51b7 04e1 d31f 4a7f
00000060: 0e28 b82b 4b11 1493 7f94 3d64 9d29 b0a9
00000070: ceff f822 1d45 f97f 81f8 813c feff 7f26
00000080: 12e9 6503 e2fd 2747 2504 3445 7f6d 55a1
00000090: 6d90 1b1f be01 fad9 f036 fce9 07d6 0450
000000a0: de21 d714 0c52 7d79 3b24 42c1 2cd4 1d16
000000b0: 135f e84b 5304 bdf1 02cb 5018 81fc 81b1
000000c0: 0a26 e0d9 fb11 4c20 37fb ddcc ef47 4913
000000d0: b91f 2505 5685 efca 0623 171b 6bff f83e
000000e0: 4d01 7f5a a2eb 16f2 df5a d60c f066 ee15
000000f0: 7bce d3d4 f80b 47bb ce1f 54c1 3599 d892
-2 12 85 51 45 23 -6 92
18 -127 80 -33 -8 127 59 96
12 -50 -62 35 57 23 8 -126
-93 -83 9 -16 -66 69 67 -104
-15 -127 10 37 -51 125 -52 95
-100 -28 11 127 11 -42 28 123
-38 -110 -41 22 -127 20 24 104
53 -36 31 5 61 55 26 -127
33 -127 91 29 -98 33 -42 -43
23 -119 -11 89 -68 127 32 71
-109 55 -20 54 33 -16 78 52
81 -73 4 -31 -45 31 74 127
14 40 -72 43 75 17 20 -109
127 -108 61 100 -99 41 -80 -87
-50 -1 -8 34 29 69 -7 127
-127 -8 -127 60 -2 -1 127 38
18 -23 101 3 -30 -3 39 71
37 4 52 69 127 109 85 -95
109 -112 27 31 -66 1 -6 -39
-16 54 -4 -23 7 -42 4 80
-34 33 -41 20 12 82 125 121
59 36 66 -63 44 -44 29 22
19 95 -24 75 83 4 -67 -15
2 -53 80 24 -127 -4 -127 -79
10 38 -32 -39 -5 17 76 32
55 -5 -35 -52 -17 71 73 19
-71 31 37 5 86 -123 -17 -54
6 35 23 27 107 -1 -8 62
77 1 127 90 -94 -21 22 -14
-33 90 -42 12 -16 102 -18 21
123 -50 -45 -44 -8 11 71 -69
-50 31 84 -63 53 -103 -40 -110

tfl.pseudo_qconst13 i1 [80, 1, 1, 80]
00000000: 32eb e526 22fc 1738 03ef 0d07 fc00 deea
00000010: ec0b a606 d908 2bff 0e57 140d 0af8 f7f9
00000020: 04ea 0a4e e8f6 df0b c9f7 94fc d1d6 0206
00000030: f629 0fe7 18ef 0500 facd ebfe e8e0 150a
00000040: 111c 0af0 3949 4481 ea28 0904 16f5 f713
00000050: 32ff c3f6 f101 e517 223d 5837 ef23 e1ee
00000060: 518a 01c5 c6d4 69e1 ea20 e4f4 ccbb eb0b
00000070: 0b07 d7f9 d2e4 fdc4 45f3 761a 09f0 13f0
00000080: 1fd9 7fff e830 fa03 fb08 4821 c641 dcf7
00000090: d94d ee11 ded5 f416 5e48 60ff 0ff8 22d9
000000a0: 071b 310e 072c f019 294c 32f5 dbd7 40dd
000000b0: 5afb bac3 f4e0 08e0 dc7f e007 e3f5 fc0b
000000c0: f01f d90c dd9e c341 2eec f5d6 f630 e72d
000000d0: 0e22 3ff3 004c d5cd 6c0a 00e8 cdb0 dd56
000000e0: ebc8 a1f5 25b0 7a17 f1eb fdb3 3fac 77f1
000000f0: 48ee 5b1d eb07 7f4e c7ff c326 02b2 c4e6
50 -21 -27 38 34 -4 23 56
3 -17 13 7 -4 0 -34 -22
-20 11 -90 6 -39 8 43 -1
14 87 20 13 10 -8 -9 -7
4 -22 10 78 -24 -10 -33 11
-55 -9 -108 -4 -47 -42 2 6
-10 41 15 -25 24 -17 5 0
-6 -51 -21 -2 -24 -32 21 10
17 28 10 -16 57 73 68 -127
-22 40 9 4 22 -11 -9 19
50 -1 -61 -10 -15 1 -27 23
34 61 88 55 -17 35 -31 -18
81 -118 1 -59 -58 -44 105 -31
-22 32 -28 -12 -52 -69 -21 11
11 7 -41 -7 -46 -28 -3 -60
69 -13 118 26 9 -16 19 -16
31 -39 127 -1 -24 48 -6 3
-5 8 72 33 -58 65 -36 -9
-39 77 -18 17 -34 -43 -12 22
94 72 96 -1 15 -8 34 -39
7 27 49 14 7 44 -16 25
41 76 50 -11 -37 -41 64 -35
90 -5 -70 -61 -12 -32 8 -32
-36 127 -32 7 -29 -11 -4 11
-16 31 -39 12 -35 -98 -61 65
46 -20 -11 -42 -10 48 -25 45
14 34 63 -13 0 76 -43 -51
108 10 0 -24 -51 -80 -35 86
-21 -56 -95 -11 37 -80 122 23
-15 -21 -3 -77 63 -84 119 -15
72 -18 91 29 -21 7 127 78
-57 -1 -61 38 2 -78 -60 -26

tfl.pseudo_qconst15 i1 [1, 13, 1, 40]
00000000: 7f51 e31b f46d d981 d0dd 150a 4454 8181
00000010: 8330 2ecd 8314 e9f0 5df2 161f b2c3 821a
00000020: e992 d712 df24 252e 7c3a 1cc7 167f 96cc
00000030: dce4 d8ef 3067 a1ae b97f 0d05 8135 cf0c
00000040: 06c7 af13 81c6 c517 5602 e333 c938 464e
00000050: 4b54 d9e0 7734 00a2 d3e4 dad7 776f bfdd
00000060: 2d21 e0fa e72c e211 22cf c5d7 98e3 9ff3
00000070: 42c4 fb24 f033 4901 5a03 ef18 7032 13cb
00000080: ee0c 30db 627f cfd2 e1fe 33c8 f75b ce03
00000090: 4095 16f1 f02e db0c 7ff8 e612 de37 6b77
000000a0: 2736 f0f3 2c2d 41ea 17e5 ff05 7f53 0903
000000b0: 44d6 3eff 424a eade 22a5 1cb2 0b08 047f
000000c0: 5c9c cc47 d205 7f2c fe13 db1a 6208 dcb9
000000d0: 201f 0a3a 702a 16c6 5821 52e8 7e27 e110
000000e0: 1ee4 f1e2 03c9 466e 5981 1e51 edff 697f
000000f0: 1dd0 0507 eb17 b7e9 0321 1934 0604 29d7
127 81 -29 27 -12 109 -39 -127
-48 -35 21 10 68 84 -127 -127
-125 48 46 -51 -125 20 -23 -16
93 -14 22 31 -78 -61 -126 26
-23 -110 -41 18 -33 36 37 46
124 58 28 -57 22 127 -106 -52
-36 -28 -40 -17 48 103 -95 -82
-71 127 13 5 -127 53 -49 12
6 -57 -81 19 -127 -58 -59 23
86 2 -29 51 -55 56 70 78
75 84 -39 -32 119 52 0 -94
-45 -28 -38 -41 119 111 -65 -35
45 33 -32 -6 -25 44 -30 17
34 -49 -59 -41 -104 -29 -97 -13
66 -60 -5 36 -16 51 73 1
90 3 -17 24 112 50 19 -53
-18 12 48 -37 98 127 -49 -46
-31 -2 51 -56 -9 91 -50 3
64 -107 22 -15 -16 46 -37 12
127 -8 -26 18 -34 55 107 119
39 54 -16 -13 44 45 65 -22
23 -27 -1 5 127 83 9 3
68 -42 62 -1 66 74 -22 -34
34 -91 28 -78 11 8 4 127
92 -100 -52 71 -46 5 127 44
-2 19 -37 26 98 8 -36 -71
32 31 10 58 112 42 22 -58
88 33 82 -24 126 39 -31 16
30 -28 -15 -30 3 -55 70 110
89 -127 30 81 -19 -1 105 127
29 -48 5 7 -21 23 -73 -23
3 33 25 52 6 4 41 -41

tfl.pseudo_qconst17 i1 [1, 9, 1, 40]
00000000: 7f20 843c c37f dfe5 e124 22ea f26e c675
00000010: 7f9e 81f6 102f a399 f502 0bdb eefb 81f1
00000020: 9e5c e881 de12 12d0 77da b3b6 e07f f818
00000030: c211 4ed7 812c 817f 77ae ac20 6447 8181
00000040: ed32 e6e8 443e 9c07 4b7f 0cdb 9886 e9cc
00000050: 4b4f a6df f830 bf25 df3f 7f19 dc72 a312
00000060: 5514 4f42 01c6 d2a5 ec79 2781 2e40 b6e1
00000070: ef53 ed99 4121 43d9 bf29 9df0 34e0 c427
00000080: 0c44 7627 d940 dd3c 3371 6506 8181 abac
00000090: 2a55 46dd 7f04 2163 a602 fda9 7f90 e4c4
000000a0: 94af d636 14e8 c9e9 0223 7b20 58a8 adf9
000000b0: 097f 5e1a f9bb 2141 7ff9 22db 50ed 0f44
000000c0: 289d 0204 2cab d1fd 9caf 9991 05f2 cce4
000000d0: 5729 5fe8 5b29 0f3f dc71 21f4 52e5 a7cc
000000e0: 3fcc fa24 5dc5 55e7 a594 0208 56e8 edab
000000f0: 12c5 c2fc 81d3 cd1b 1c18 3f36 e502 a654
127 32 -124 60 -61 127 -33 -27
-31 36 34 -22 -14 110 -58 117
127 -98 -127 -10 16 47 -93 -103
-11 2 11 -37 -18 -5 -127 -15
-98 92 -24 -127 -34 18 18 -48
119 -38 -77 -74 -32 127 -8 24
-62 17 78 -41 -127 44 -127 127
119 -82 -84 32 100 71 -127 -127
-19 50 -26 -24 68 62 -100 7
75 127 12 -37 -104 -122 -23 -52
75 79 -90 -33 -8 48 -65 37
-33 63 127 25 -36 114 -93 18
85 20 79 66 1 -58 -46 -91
-20 121 39 -127 46 64 -74 -31
-17 83 -19 -103 65 33 67 -39
-65 41 -99 -16 52 -32 -60 39
12 68 118 39 -39 64 -35 60
51 113 101 6 -127 -127 -85 -84
42 85 70 -35 127 4 33 99
-90 2 -3 -87 127 -112 -28 -60
-108 -81 -42 54 20 -24 -55 -23
2 35 123 32 88 -88 -83 -7
9 127 94 26 -7 -69 33 65
127 -7 34 -37 80 -19 15 68
40 -99 2 4 44 -85 -47 -3
-100 -81 -103 -111 5 -14 -52 -28
87 41 95 -24 91 41 15 63
-36 113 33 -12 82 -27 -89 -52
63 -52 -6 36 93 -59 85 -25
-91 -108 2 8 86 -24 -19 -85
18 -59 -62 -4 -127 -45 -51 27
28 24 63 54 -27 2 -90 84

tfl.pseudo_qconst19 i1 [80, 1, 1, 32]
00000000: 30d8 ec13 b60a e9ea e223 ea12 361f 0c07
00000010: b73f 13ef 30f7 2be8 1a81 28c0 1713 45c3
00000020: c1cf 02e5 2f29 0816 ec95 04f5 fb27 5508
00000030: ef96 1b4a 2d5c 7f22 3dc6 e2bf 28cb 990d
00000040: f67f dbc7 17ab 364d 206e b107 d53f 3d4f
00000050: d7e8 1816 d0ad 2306 63f4 ea51 0fa3 a8f2
00000060: 0f92 4f1e 2b1b f43d f021 d83c e7f1 814c
00000070: 1ca7 c25c 5050 f2dc cb2d 2f0f 5d1c 29cd
00000080: 4fea 13ea e568 93b0 15d9 24fe cdea b57f
00000090: 1cf0 0fe3 1edd 4d55 44da ad34 aa6a dc38
000000a0: dc07 d9ab ef2d e02e e7f6 1236 0c0f e7d8
000000b0: e3d5 f5d6 fbcc 81e0 9d02 05e2 00ee 9bf9
000000c0: a50c 0553 1ced d101 dc7f fa11 53d7 db2d
000000d0: 8516 2904 11ec c112 2ed2 36da 5ff1 f1df
000000e0: 08f5 e1f9 b3b2 b81d eabe aed2 e1d3 1129
000000f0: 24b5 07f3 f8d4 7f12 ebe5 4400 47c6 d700
48 -40 -20 19 -74 10 -23 -22
-30 35 -22 18 54 31 12 7
-73 63 19 -17 48 -9 43 -24
26 -127 40 -64 23 19 69 -61
-63 -49 2 -27 47 41 8 22
-20 -107 4 -11 -5 39 85 8
-17 -106 27 74 45 92 127 34
61 -58 -30 -65 40 -53 -103 13
-10 127 -37 -57 23 -85 54 77
32 110 -79 7 -43 63 61 79
-41 -24 24 22 -48 -83 35 6
99 -12 -22 81 15 -93 -88 -14
15 -110 79 30 43 27 -12 61
-16 33 -40 60 -25 -15 -127 76
28 -89 -62 92 80 80 -14 -36
-53 45 47 15 93 28 41 -51
79 -22 19 -22 -27 104 -109 -80
21 -39 36 -2 -51 -22 -75 127
28 -16 15 -29 30 -35 77 85
68 -38 -83 52 -86 106 -36 56
-36 7 -39 -85 -17 45 -32 46
-25 -10 18 54 12 15 -25 -40
-29 -43 -11 -42 -5 -52 -127 -32
-99 2 5 -30 0 -18 -101 -7
-91 12 5 83 28 -19 -47 1
-36 127 -6 17 83 -41 -37 45
-123 22 41 4 17 -20 -63 18
46 -46 54 -38 95 -15 -15 -33
8 -11 -31 -7 -77 -78 -72 29
-22 -66 -82 -46 -31 -45 17 41
36 -75 7 -13 -8 -44 127 18
-21 -27 68 0 71 -58 -41 0

tfl.pseudo_qconst21 i1 [1, 7, 1, 32]
00000000: 8158 54c2 11cd 7f7a dab9 d24a ef9d 5aa5
00000010: bf01 855a e569 cf1f cc52 69fb fdd1 706a
00000020: 9afb 18fd e581 7670 b8b7 3130 b384 54f2
00000030: cd7f c058 7649 c77f 957f 4ace 2a12 1323
00000040: b16a d3e3 7f87 7efa f3e1 b6ed d0b3 582d
00000050: 4de5 8137 4a7f a8fa c762 1e10 8110 5872
00000060: e368 1792 46f8 1325 18f0 8116 4f06 e386
00000070: 650f 4704 5e3a ae93 f33c 5a9a 97fc 1e1f
00000080: e6f4 978b 12f6 6a50 62f1 0731 2aed 2bae
00000090: 7f09 c7a7 2b08 1d77 761d 7981 9e0b 2581
000000a0: 0397 d6ab d48c 5973 7f64 3a15 7fe2 2245
000000b0: 6c1a 58b7 7f15 63b4 7ff3 f0f9 d9c4 33cf
000000c0: ce81 7f81 8197 717f 0c7f 7d81 5581 817f
000000d0: d078 c981 1ece 7f2e 292f 7f6d b681 7ff6
-127 88 84 -62 17 -51 127 122
-38 -71 -46 74 -17 -99 90 -91
-65 1 -123 90 -27 105 -49 31
-52 82 105 -5 -3 -47 112 106
-102 -5 24 -3 -27 -127 118 112
-72 -73 49 48 -77 -124 84 -14
-51 127 -64 88 118 73 -57 127
-107 127 74 -50 42 18 19 35
-79 106 -45 -29 127 -121 126 -6
-13 -31 -74 -19 -48 -77 88 45
77 -27 -127 55 74 127 -88 -6
-57 98 30 16 -127 16 88 114
-29 104 23 -110 70 -8 19 37
24 -16 -127 22 79 6 -29 -122
101 15 71 4 94 58 -82 -109
-13 60 90 -102 -105 -4 30 31
-26 -12 -105 -117 18 -10 106 80
98 -15 7 49 42 -19 43 -82
127 9 -57 -89 43 8 29 119
118 29 121 -127 -98 11 37 -127
3 -105 -42 -85 -44 -116 89 115
127 100 58 21 127 -30 34 69
108 26 88 -73 127 21 99 -76
127 -13 -16 -7 -39 -60 51 -49
-50 -127 127 -127 -127 -105 113 127
12 127 125 -127 85 -127 -127 127
-48 120 -55 -127 30 -50 127 46
41 47 127 109 -74 -127 127 -10

tfl.pseudo_qconst23 i1 [32, 5, 1, 40]
00000000: 0cb4 0e3b 141c 0deb 07d8 05c1 cfe7 f4b9
00000010: 9ed3 c3d8 df08 0d24 181e 05c7 d1e3 f114
00000020: ccf2 b092 a798 b9d7 14d7 1130 cd0d b1cc
00000030: f9b1 c4da ffae dedc a49e d31f 1c0f 0219
00000040: 5a26 2de4 1e31 0712 ecf3 a3c5 94d5 e3bf
00000050: 27be 3901 fdfd bbf6 ddff c9d6 f8c8 ca05
00000060: 81e1 02ce f42d 291f 462c 2111 1def eeff
00000070: b4f3 f6ca fe03 dbf2 1608 df3c 0bf1 0aed
00000080: ced5 d7c3 dea7 bcb8 e3db fbed 151b f242
00000090: 575a 48e4 ff3d 3924 b2ae efd6 f1fa 0707
000000a0: 3e03 100b 1015 b805 d911 dad1 e0ba c2b7
000000b0: d524 35f8 1112 1662 5857 022a 0c1c 1d2d
000000c0: c8e1 dbd6 b3e9 02ca 2dc5 1b11 513c 7577
000000d0: 6063 603f 221f 17f2 1e4c 3e41 21e8 c7ec
000000e0: d8f4 fa18 4d2b c1f1 180a 2edf 1a07 37ee
000000f0: 15ea fe20 0c20 4d62 5d3f 5a1e 2f27 2b18
12 -76 14 59 20 28 13 -21
7 -40 5 -63 -49 -25 -12 -71
-98 -45 -61 -40 -33 8 13 36
24 30 5 -57 -47 -29 -15 20
-52 -14 -80 -110 -89 -104 -71 -41
20 -41 17 48 -51 13 -79 -52
-7 -79 -60 -38 -1 -82 -34 -36
-92 -98 -45 31 28 15 2 25
90 38 45 -28 30 49 7 18
-20 -13 -93 -59 -108 -43 -29 -65
39 -66 57 1 -3 -3 -69 -10
-35 -1 -55 -42 -8 -56 -54 5
-127 -31 2 -50 -12 45 41 31
70 44 33 17 29 -17 -18 -1
-76 -13 -10 -54 -2 3 -37 -14
22 8 -33 60 11 -15 10 -19
-50 -43 -41 -61 -34 -89 -68 -72
-29 -37 -5 -19 21 27 -14 66
87 90 72 -28 -1 61 57 36
-78 -82 -17 -42 -15 -6 7 7
62 3 16 11 16 21 -72 5
-39 17 -38 -47 -32 -70 -62 -73
-43 36 53 -8 17 18 22 98
88 87 2 42 12 28 29 45
-56 -31 -37 -42 -77 -23 2 -54
45 -59 27 17 81 60 117 119
96 99 96 63 34 31 23 -14
30 76 62 65 33 -24 -57 -20
-40 -12 -6 24 77 43 -63 -15
24 10 46 -33 26 7 55 -18
21 -22 -2 32 12 32 77 98
93 63 90 30 47 39 43 24

tfl.pseudo_qconst24 i1 [1, 24, 1, 80] scale=0.040479362 zero_point=-128
00000000: 8080 8080 8080 8080 8080 8080 8080 8080
00000010: 8080 8080 8080 8080 8080 8080 8080 8080
00000020: 8080 8080 8080 8080 8080 8080 8080 8080
00000030: 8080 8080 8080 8080 8080 8080 8080 8080
00000040: 8080 8080 8080 8080 8080 8080 8080 8080
00000050: 8080 8080 8080 8080 8080 8080 8080 8080
00000060: 8080 8080 8080 8080 8080 8080 8080 8080
00000070: 8080 8080 8080 8080 8080 8080 8080 8080
00000080: 8080 8080 8080 8080 8080 8080 8080 8080
00000090: 8080 8080 8080 8080 8080 8080 8080 8080
000000a0: 8080 8080 8080 8080 8080 8080 8080 8080
000000b0: 8080 8080 8080 8080 8080 8080 8080 8080
000000c0: 8080 8080 8080 8080 8080 8080 8080 8080
000000d0: 8080 8080 8080 8080 8080 8080 8080 8080
000000e0: 8080 8080 8080 8080 8080 8080 8080 8080
000000f0: 8080 8080 8080 8080 8080 8080 8080 8080
0.0 0.0 0.0 0.0 0.0 0.0 0.0 0.0
0.0 0.0 0.0 0.0 0.0 0.0 0.0 0.0
0.0 0.0 0.0 0.0 0.0 0.0 0.0 0.0
0.0 0.0 0.0 0.0 0.0 0.0 0.0 0.0
0.0 0.0 0.0 0.0 0.0 0.0 0.0 0.0
0.0 0.0 0.0 0.0 0.0 0.0 0.0 0.0
0.0 0.0 0.0 0.0 0.0 0.0 0.0 0.0
0.0 0.0 0.0 0.0 0.0 0.0 0.0 0.0
0.0 0.0 0.0 0.0 0.0 0.0 0.0 0.0
0.0 0.0 0.0 0.0 0.0 0.0 0.0 0.0
0.0 0.0 0.0 0.0 0.0 0.0 0.0 0.0
0.0 0.0 0.0 0.0 0.0 0.0 0.0 0.0
0.0 0.0 0.0 0.0 0.0 0.0 0.0 0.0
0.0 0.0 0.0 0.0 0.0 0.0 0.0 0.0
0.0 0.0 0.0 0.0 0.0 0.0 0.0 0.0
0.0 0.0 0.0 0.0 0.0 0.0 0.0 0.0
0.0 0.0 0.0 0.0 0.0 0.0 0.0 0.0
0.0 0.0 0.0 0.0 0.0 0.0 0.0 0.0
0.0 0.0 0.0 0.0 0.0 0.0 0.0 0.0
0.0 0.0 0.0 0.0 0.0 0.0 0.0 0.0
0.0 0.0 0.0 0.0 0.0 0.0 0.0 0.0
0.0 0.0 0.0 0.0 0.0 0.0 0.0 0.0
0.0 0.0 0.0 0.0 0.0 0.0 0.0 0.0
0.0 0.0 0.0 0.0 0.0 0.0 0.0 0.0
0.0 0.0 0.0 0.0 0.0 0.0 0.0 0.0
0.0 0.0 0.0 0.0 0.0 0.0 0.0 0.0
0.0 0.0 0.0 0.0 0.0 0.0 0.0 0.0
0.0 0.0 0.0 0.0 0.0 0.0 0.0 0.0
0.0 0.0 0.0 0.0 0.0 0.0 0.0 0.0
0.0 0.0 0.0 0.0 0.0 0.0 0.0 0.0
0.0 0.0 0.0 0.0 0.0 0.0 0.0 0.0
0.0 0.0 0.0 0.0 0.0 0.0 0.0 0.0

tfl.pseudo_qconst25 i1 [1, 36, 1, 80] scale=0.034946125 zero_point=-128
00000000: 8080 8080 8080 8080 8080 8080 8080 8080
00000010: 8080 8080 8080 8080 8080 8080 8080 8080
00000020: 8080 8080 8080 8080 8080 8080 8080 8080
00000030: 8080 8080 8080 8080 8080 8080 8080 8080
00000040: 8080 8080 8080 8080 8080 8080 8080 8080
00000050: 8080 8080 8080 8080 8080 8080 8080 8080
00000060: 8080 8080 8080 8080 8080 8080 8080 8080
00000070: 8080 8080 8080 8080 8080 8080 8080 8080
00000080: 8080 8080 8080 8080 8080 8080 8080 8080
00000090: 8080 8080 8080 8080 8080 8080 8080 8080
000000a0: 8080 8080 8080 8080 8080 8080 8080 8080
000000b0: 8080 8080 8080 8080 8080 8080 8080 8080
000000c0: 8080 8080 8080 8080 8080 8080 8080 8080
000000d0: 8080 8080 8080 8080 8080 8080 8080 8080
000000e0: 8080 8080 8080 8080 8080 8080 8080 8080
000000f0: 8080 8080 8080 8080 8080 8080 8080 8080
0.0 0.0 0.0 0.0 0.0 0.0 0.0 0.0
0.0 0.0 0.0 0.0 0.0 0.0 0.0 0.0
0.0 0.0 0.0 0.0 0.0 0.0 0.0 0.0
0.0 0.0 0.0 0.0 0.0 0.0 0.0 0.0
0.0 0.0 0.0 0.0 0.0 0.0 0.0 0.0
0.0 0.0 0.0 0.0 0.0 0.0 0.0 0.0
0.0 0.0 0.0 0.0 0.0 0.0 0.0 0.0
0.0 0.0 0.0 0.0 0.0 0.0 0.0 0.0
0.0 0.0 0.0 0.0 0.0 0.0 0.0 0.0
0.0 0.0 0.0 0.0 0.0 0.0 0.0 0.0
0.0 0.0 0.0 0.0 0.0 0.0 0.0 0.0
0.0 0.0 0.0 0.0 0.0 0.0 0.0 0.0
0.0 0.0 0.0 0.0 0.0 0.0 0.0 0.0
0.0 0.0 0.0 0.0 0.0 0.0 0.0 0.0
0.0 0.0 0.0 0.0 0.0 0.0 0.0 0.0
0.0 0.0 0.0 0.0 0.0 0.0 0.0 0.0
0.0 0.0 0.0 0.0 0.0 0.0 0.0 0.0
0.0 0.0 0.0 0.0 0.0 0.0 0.0 0.0
0.0 0.0 0.0 0.0 0.0 0.0 0.0 0.0
0.0 0.0 0.0 0.0 0.0 0.0 0.0 0.0
0.0 0.0 0.0 0.0 0.0 0.0 0.0 0.0
0.0 0.0 0.0 0.0 0.0 0.0 0.0 0.0
0.0 0.0 0.0 0.0 0.0 0.0 0.0 0.0
0.0 0.0 0.0 0.0 0.0 0.0 0.0 0.0
0.0 0.0 0.0 0.0 0.0 0.0 0.0 0.0
0.0 0.0 0.0 0.0 0.0 0.0 0.0 0.0
0.0 0.0 0.0 0.0 0.0 0.0 0.0 0.0
0.0 0.0 0.0 0.0 0.0 0.0 0.0 0.0
0.0 0.0 0.0 0.0 0.0 0.0 0.0 0.0
0.0 0.0 0.0 0.0 0.0 0.0 0.0 0.0
0.0 0.0 0.0 0.0 0.0 0.0 0.0 0.0
0.0 0.0 0.0 0.0 0.0 0.0 0.0 0.0

tfl.pseudo_qconst26 i1 [1, 3, 1, 40] scale=0.101960786 zero_point=-128
00000000: 8080 8080 8080 8080 8080 8080 8080 8080
00000010: 8080 8080 8080 8080 8080 8080 8080 8080
00000020: 8080 8080 8080 8080 8080 8080 8080 8080
00000030: 8080 8080 8080 8080 8080 8080 8080 8080
00000040: 8080 8080 8080 8080 8080 8080 8080 8080
00000050: 8080 8080 8080 8080 8080 8080 8080 8080
00000060: 8080 8080 8080 8080 8080 8080 8080 8080
00000070: 8080 8080 8080 8080
0.0 0.0 0.0 0.0 0.0 0.0 0.0 0.0
0.0 0.0 0.0 0.0 0.0 0.0 0.0 0.0
0.0 0.0 0.0 0.0 0.0 0.0 0.0 0.0
0.0 0.0 0.0 0.0 0.0 0.0 0.0 0.0
0.0 0.0 0.0 0.0 0.0 0.0 0.0 0.0
0.0 0.0 0.0 0.0 0.0 0.0 0.0 0.0
0.0 0.0 0.0 0.0 0.0 0.0 0.0 0.0
0.0 0.0 0.0 0.0 0.0 0.0 0.0 0.0
0.0 0.0 0.0 0.0 0.0 0.0 0.0 0.0
0.0 0.0 0.0 0.0 0.0 0.0 0.0 0.0
0.0 0.0 0.0 0.0 0.0 0.0 0.0 0.0
0.0 0.0 0.0 0.0 0.0 0.0 0.0 0.0
0.0 0.0 0.0 0.0 0.0 0.0 0.0 0.0
0.0 0.0 0.0 0.0 0.0 0.0 0.0 0.0
0.0 0.0 0.0 0.0 0.0 0.0 0.0 0.0

tfl.pseudo_qconst27 i1 [1, 6, 1, 32] scale=1.2144548 zero_point=-128
00000000: 8080 8080 8080 8080 8080 8080 8080 8080
00000010: 8080 8080 8080 8080 8080 8080 8080 8080
00000020: 8080 8080 8080 8080 8080 8080 8080 8080
00000030: 8080 8080 8080 8080 8080 8080 8080 8080
00000040: 8080 8080 8080 8080 8080 8080 8080 8080
00000050: 8080 8080 8080 8080 8080 8080 8080 8080
00000060: 8080 8080 8080 8080 8080 8080 8080 8080
00000070: 8080 8080 8080 8080 8080 8080 8080 8080
00000080: 8080 8080 8080 8080 8080 8080 8080 8080
00000090: 8080 8080 8080 8080 8080 8080 8080 8080
000000a0: 8080 8080 8080 8080 8080 8080 8080 8080
000000b0: 8080 8080 8080 8080 8080 8080 8080 8080
0.0 0.0 0.0 0.0 0.0 0.0 0.0 0.0
0.0 0.0 0.0 0.0 0.0 0.0 0.0 0.0
0.0 0.0 0.0 0.0 0.0 0.0 0.0 0.0
0.0 0.0 0.0 0.0 0.0 0.0 0.0 0.0
0.0 0.0 0.0 0.0 0.0 0.0 0.0 0.0
0.0 0.0 0.0 0.0 0.0 0.0 0.0 0.0
0.0 0.0 0.0 0.0 0.0 0.0 0.0 0.0
0.0 0.0 0.0 0.0 0.0 0.0 0.0 0.0
0.0 0.0 0.0 0.0 0.0 0.0 0.0 0.0
0.0 0.0 0.0 0.0 0.0 0.0 0.0 0.0
0.0 0.0 0.0 0.0 0.0 0.0 0.0 0.0
0.0 0.0 0.0 0.0 0.0 0.0 0.0 0.0
0.0 0.0 0.0 0.0 0.0 0.0 0.0 0.0
0.0 0.0 0.0 0.0 0.0 0.0 0.0 0.0
0.0 0.0 0.0 0.0 0.0 0.0 0.0 0.0
0.0 0.0 0.0 0.0 0.0 0.0 0.0 0.0
0.0 0.0 0.0 0.0 0.0 0.0 0.0 0.0
0.0 0.0 0.0 0.0 0.0 0.0 0.0 0.0
0.0 0.0 0.0 0.0 0.0 0.0 0.0 0.0
0.0 0.0 0.0 0.0 0.0 0.0 0.0 0.0
0.0 0.0 0.0 0.0 0.0 0.0 0.0 0.0
0.0 0.0 0.0 0.0 0.0 0.0 0.0 0.0
0.0 0.0 0.0 0.0 0.0 0.0 0.0 0.0
0.0 0.0 0.0 0.0 0.0 0.0 0.0 0.0

tfl.pseudo_qconst28 i1 [1, 12, 1, 80] scale=0.036320765 zero_point=-128
00000000: 8080 8080 8080 8080 8080 8080 8080 8080
00000010: 8080 8080 8080 8080 8080 8080 8080 8080
00000020: 8080 8080 8080 8080 8080 8080 8080 8080
00000030: 8080 8080 8080 8080 8080 8080 8080 8080
00000040: 8080 8080 8080 8080 8080 8080 8080 8080
00000050: 8080 8080 8080 8080 8080 8080 8080 8080
00000060: 8080 8080 8080 8080 8080 8080 8080 8080
00000070: 8080 8080 8080 8080 8080 8080 8080 8080
00000080: 8080 8080 8080 8080 8080 8080 8080 8080
00000090: 8080 8080 8080 8080 8080 8080 8080 8080
000000a0: 8080 8080 8080 8080 8080 8080 8080 8080
000000b0: 8080 8080 8080 8080 8080 8080 8080 8080
000000c0: 8080 8080 8080 8080 8080 8080 8080 8080
000000d0: 8080 8080 8080 8080 8080 8080 8080 8080
000000e0: 8080 8080 8080 8080 8080 8080 8080 8080
000000f0: 8080 8080 8080 8080 8080 8080 8080 8080
0.0 0.0 0.0 0.0 0.0 0.0 0.0 0.0
0.0 0.0 0.0 0.0 0.0 0.0 0.0 0.0
0.0 0.0 0.0 0.0 0.0 0.0 0.0 0.0
0.0 0.0 0.0 0.0 0.0 0.0 0.0 0.0
0.0 0.0 0.0 0.0 0.0 0.0 0.0 0.0
0.0 0.0 0.0 0.0 0.0 0.0 0.0 0.0
0.0 0.0 0.0 0.0 0.0 0.0 0.0 0.0
0.0 0.0 0.0 0.0 0.0 0.0 0.0 0.0
0.0 0.0 0.0 0.0 0.0 0.0 0.0 0.0
0.0 0.0 0.0 0.0 0.0 0.0 0.0 0.0
0.0 0.0 0.0 0.0 0.0 0.0 0.0 0.0
0.0 0.0 0.0 0.0 0.0 0.0 0.0 0.0
0.0 0.0 0.0 0.0 0.0 0.0 0.0 0.0
0.0 0.0 0.0 0.0 0.0 0.0 0.0 0.0
0.0 0.0 0.0 0.0 0.0 0.0 0.0 0.0
0.0 0.0 0.0 0.0 0.0 0.0 0.0 0.0
0.0 0.0 0.0 0.0 0.0 0.0 0.0 0.0
0.0 0.0 0.0 0.0 0.0 0.0 0.0 0.0
0.0 0.0 0.0 0.0 0.0 0.0 0.0 0.0
0.0 0.0 0.0 0.0 0.0 0.0 0.0 0.0
0.0 0.0 0.0 0.0 0.0 0.0 0.0 0.0
0.0 0.0 0.0 0.0 0.0 0.0 0.0 0.0
0.0 0.0 0.0 0.0 0.0 0.0 0.0 0.0
0.0 0.0 0.0 0.0 0.0 0.0 0.0 0.0
0.0 0.0 0.0 0.0 0.0 0.0 0.0 0.0
0.0 0.0 0.0 0.0 0.0 0.0 0.0 0.0
0.0 0.0 0.0 0.0 0.0 0.0 0.0 0.0
0.0 0.0 0.0 0.0 0.0 0.0 0.0 0.0
0.0 0.0 0.0 0.0 0.0 0.0 0.0 0.0
0.0 0.0 0.0 0.0 0.0 0.0 0.0 0.0
0.0 0.0 0.0 0.0 0.0 0.0 0.0 0.0
0.0 0.0 0.0 0.0 0.0 0.0 0.0 0.0

tfl.pseudo_qconst29 i1 [1, 16, 1, 80] scale=0.04132522 zero_point=-128
00000000: 8080 8080 8080 8080 8080 8080 8080 8080
00000010: 8080 8080 8080 8080 8080 8080 8080 8080
00000020: 8080 8080 8080 8080 8080 8080 8080 8080
00000030: 8080 8080 8080 8080 8080 8080 8080 8080
00000040: 8080 8080 8080 8080 8080 8080 8080 8080
00000050: 8080 8080 8080 8080 8080 8080 8080 8080
00000060: 8080 8080 8080 8080 8080 8080 8080 8080
00000070: 8080 8080 8080 8080 8080 8080 8080 8080
00000080: 8080 8080 8080 8080 8080 8080 8080 8080
00000090: 8080 8080 8080 8080 8080 8080 8080 8080
000000a0: 8080 8080 8080 8080 8080 8080 8080 8080
000000b0: 8080 8080 8080 8080 8080 8080 8080 8080
000000c0: 8080 8080 8080 8080 8080 8080 8080 8080
000000d0: 8080 8080 8080 8080 8080 8080 8080 8080
000000e0: 8080 8080 8080 8080 8080 8080 8080 8080
000000f0: 8080 8080 8080 8080 8080 8080 8080 8080
0.0 0.0 0.0 0.0 0.0 0.0 0.0 0.0
0.0 0.0 0.0 0.0 0.0 0.0 0.0 0.0
0.0 0.0 0.0 0.0 0.0 0.0 0.0 0.0
0.0 0.0 0.0 0.0 0.0 0.0 0.0 0.0
0.0 0.0 0.0 0.0 0.0 0.0 0.0 0.0
0.0 0.0 0.0 0.0 0.0 0.0 0.0 0.0
0.0 0.0 0.0 0.0 0.0 0.0 0.0 0.0
0.0 0.0 0.0 0.0 0.0 0.0 0.0 0.0
0.0 0.0 0.0 0.0 0.0 0.0 0.0 0.0
0.0 0.0 0.0 0.0 0.0 0.0 0.0 0.0
0.0 0.0 0.0 0.0 0.0 0.0 0.0 0.0
0.0 0.0 0.0 0.0 0.0 0.0 0.0 0.0
0.0 0.0 0.0 0.0 0.0 0.0 0.0 0.0
0.0 0.0 0.0 0.0 0.0 0.0 0.0 0.0
0.0 0.0 0.0 0.0 0.0 0.0 0.0 0.0
0.0 0.0 0.0 0.0 0.0 0.0 0.0 0.0
0.0 0.0 0.0 0.0 0.0 0.0 0.0 0.0
0.0 0.0 0.0 0.0 0.0 0.0 0.0 0.0
0.0 0.0 0.0 0.0 0.0 0.0 0.0 0.0
0.0 0.0 0.0 0.0 0.0 0.0 0.0 0.0
0.0 0.0 0.0 0.0 0.0 0.0 0.0 0.0
0.0 0.0 0.0 0.0 0.0 0.0 0.0 0.0
0.0 0.0 0.0 0.0 0.0 0.0 0.0 0.0
0.0 0.0 0.0 0.0 0.0 0.0 0.0 0.0
0.0 0.0 0.0 0.0 0.0 0.0 0.0 0.0
0.0 0.0 0.0 0.0 0.0 0.0 0.0 0.0
0.0 0.0 0.0 0.0 0.0 0.0 0.0 0.0
0.0 0.0 0.0 0.0 0.0 0.0 0.0 0.0
0.0 0.0 0.0 0.0 0.0 0.0 0.0 0.0
0.0 0.0 0.0 0.0 0.0 0.0 0.0 0.0
0.0 0.0 0.0 0.0 0.0 0.0 0.0 0.0
0.0 0.0 0.0 0.0 0.0 0.0 0.0 0.0
