microWakeWord/hey_tater.tflite (tflite, 63544 bytes, 18 tensors)

tfl.pseudo_qconst1 i1 [1, 2368] scale=0.005034429 zero_point=0
000000 fa 0b 16 e1 fc f5 08 ee dd e2 07 f9 b5 42 b1 ee
       -0.030206574 0.05537872 0.11075744 -0.1560673 -0.020137716 -0.05537872 0.040275432 -0.09061972 -0.17620501 -0.15103287 0.035241004 -0.035241004 -0.37758216 0.33227232 -0.3977199 -0.09061972
000010 1b f5 e6 f5 fa 04 bb fb f1 e7 e5 0f ca 0b 02 f7
       0.13592958 -0.05537872 -0.13089515 -0.05537872 -0.030206574 0.020137716 -0.3473756 -0.025172144 -0.07551643 -0.12586072 -0.13592958 0.07551643 -0.27185917 0.05537872 0.010068858 -0.04530986
000020 ed eb 0f d4 03 0f 0e e8 d6 f6 0e d3 10 ee f0 1d
       -0.09565415 -0.10572301 0.07551643 -0.22151488 0.015103287 0.07551643 0.07048201 -0.1208263 -0.21144602 -0.05034429 0.07048201 -0.22654931 0.080550864 -0.09061972 -0.080550864 0.14599845
000030 de fb 10 ee 0c fe 08 ed d3 cf cf d8 0b dc f9 f9
       -0.17117059 -0.025172144 0.080550864 -0.09061972 0.06041315 -0.010068858 0.040275432 -0.09565415 -0.22654931 -0.24668702 -0.24668702 -0.20137715 0.05537872 -0.18123944 -0.035241004 -0.035241004
000040 e7 07 13 f0 01 00 fa f8 ed f0 1a 00 dd 24 d5 f3
       -0.12586072 0.035241004 0.09565415 -0.080550864 0.005034429 0.0 -0.030206574 -0.040275432 -0.09565415 -0.080550864 0.13089515 0.0 -0.17620501 0.18123944 -0.21648045 -0.06544758
000050 16 ff e5 0f 06 02 e5 f9 11 1b 06 1e da 01 f7 0b
       0.11075744 -0.005034429 -0.13592958 0.07551643 0.030206574 0.010068858 -0.13592958 -0.035241004 0.085585296 0.13592958 0.030206574 0.15103287 -0.1913083 0.005034429 -0.04530986 0.05537872
000060 f5 fb 03 e2 0c 0c 06 fd f0 f5 1a f9 11 f2 f1 16
       -0.05537872 -0.025172144 0.015103287 -0.15103287 0.06041315 0.06041315 0.030206574 -0.015103287 -0.080550864 -0.05537872 0.13089515 -0.035241004 0.085585296 -0.07048201 -0.07551643 0.11075744
000070 e6 1c ff f0 03 03 12 eb e6 e0 e8 fa f4 de fe ee
       -0.13089515 0.14096402 -0.005034429 -0.080550864 0.015103287 0.015103287 0.09061972 -0.10572301 -0.13089515 -0.16110173 -0.1208263 -0.030206574 -0.06041315 -0.17117059 -0.010068858 -0.09061972
000080 f7 17 1a f5 fc 0d f2 ff f5 f1 1c fb f2 23 f2 f0
       -0.04530986 0.115791865 0.13089515 -0.05537872 -0.020137716 0.06544758 -0.07048201 -0.005034429 -0.05537872 -0.07551643 0.14096402 -0.025172144 -0.07048201 0.17620501 -0.07048201 -0.080550864
000090 0a fa f0 03 0f 05 f7 fe 0b 09 f6 23 f1 06 f4 09
       0.05034429 -0.030206574 -0.080550864 0.015103287 0.07551643 0.025172144 -0.04530986 -0.010068858 0.05537872 0.04530986 -0.05034429 0.17620501 -0.07551643 0.030206574 -0.06041315 0.04530986
0000a0 0d fa 02 fd 02 1a 0a ff fc 03 12 04 1b f2 04 18
       0.06544758 -0.030206574 0.010068858 -0.015103287 0.010068858 0.13089515 0.05034429 -0.005034429 -0.020137716 0.015103287 0.09061972 0.020137716 0.13592958 -0.07048201 0.020137716 0.1208263
0000b0 f7 1e ea f7 0c 04 1e f4 e8 e6 f8 fa f5 f2 fb 08
       -0.04530986 0.15103287 -0.11075744 -0.04530986 0.06041315 0.020137716 0.15103287 -0.06041315 -0.1208263 -0.13089515 -0.040275432 -0.030206574 -0.05537872 -0.07048201 -0.025172144 0.040275432
0000c0 f1 0b 0c f8 fb fc ed f7 fd f5 0d fd f4 16 f5 d9
       -0.07551643 0.05537872 0.06041315 -0.040275432 -0.025172144 -0.020137716 -0.09565415 -0.04530986 -0.015103287 -0.05537872 0.06544758 -0.015103287 -0.06041315 0.11075744 -0.05537872 -0.19634274
0000d0 f9 f1 f1 1d 0a f7 fc f9 01 07 02 20 e9 16 00 0a
       -0.035241004 -0.07551643 -0.07551643 0.14599845 0.05034429 -0.04530986 -0.020137716 -0.035241004 0.005034429 0.035241004 0.010068858 0.16110173 -0.115791865 0.11075744 0.0 0.05034429
0000e0 f2 de 06 fd fa 14 fc f1 f2 07 23 09 14 ee 16 0c
       -0.07048201 -0.17117059 0.030206574 -0.015103287 -0.030206574 0.10068858 -0.020137716 -0.07551643 -0.07048201 0.035241004 0.17620501 0.04530986 0.10068858 -0.09061972 0.11075744 0.06041315
0000f0 f5 f6 f6 ff 04 04 1a 01 ea f0 ef f6 03 f1 03 15
       -0.05537872 -0.05034429 -0.05034429 -0.005034429 0.020137716 0.020137716 0.13089515 0.005034429 -0.11075744 -0.080550864 -0.085585296 -0.05034429 0.015103287 -0.07551643 0.015103287 0.10572301

tfl.pseudo_qconst3 i1 [64, 1, 1, 64]
000000 d5 f2 c7 2b 14 30 db 12 9c f8 16 23 23 2a e2 e4
       -43 -14 -57 43 20 48 -37 18 -100 -8 22 35 35 42 -30 -28
000010 f0 38 3f e6 08 f8 24 dc f5 bd e8 07 30 2e d9 4a
       -16 56 63 -26 8 -8 36 -36 -11 -67 -24 7 48 46 -39 74
000020 11 0f ea 2f c6 bc 4c da 17 56 7f f3 f5 9a f9 29
       17 15 -22 47 -58 -68 76 -38 23 86 127 -13 -11 -102 -7 41
000030 54 09 22 0f e2 02 01 fd 28 1c fc 6f 52 e9 4b d1
       84 9 34 15 -30 2 1 -3 40 28 -4 111 82 -23 75 -47
000040 f7 db fa d9 07 16 f4 cf e3 dd 2e d9 52 12 fe 9a
       -9 -37 -6 -39 7 22 -12 -49 -29 -35 46 -39 82 18 -2 -102
000050 ee 26 e3 ec bc f8 07 29 eb ea 1c df d0 08 7f fa
       -18 38 -29 -20 -68 -8 7 41 -21 -22 28 -33 -48 8 127 -6
000060 03 d6 ff f9 ea d7 04 31 f6 e7 0e 89 11 c4 f2 1f
       3 -42 -1 -7 -22 -41 4 49 -10 -25 14 -119 17 -60 -14 31
000070 29 ec d5 fe 13 10 ff 41 fa d8 37 1e 0e fd e5 e0
       41 -20 -43 -2 19 16 -1 65 -6 -40 55 30 14 -3 -27 -32
000080 32 3a ac ee 30 16 d1 1e d7 7f d7 a7 31 50 1d 16
       50 58 -84 -18 48 22 -47 30 -41 127 -41 -89 49 80 29 22
000090 a6 a7 12 d9 34 1a fc fb 2e 15 f0 15 6c 33 cd 23
       -90 -89 18 -39 52 26 -4 -5 46 21 -16 21 108 51 -51 35
0000a0 64 ee 00 e9 c2 52 5c 17 85 1e d3 d4 dc 11 b7 21
       100 -18 0 -23 -62 82 92 23 -123 30 -45 -44 -36 17 -73 33
0000b0 d6 ac 2b cf f1 5a e6 b9 31 41 15 ba d8 e6 28 9c
       -42 -84 43 -49 -15 90 -26 -71 49 65 21 -70 -40 -26 40 -100
0000c0 ee e5 e0 7f 01 12 c8 d8 1b fd 04 bc 0d 1f ee ee
       -18 -27 -32 127 1 18 -56 -40 27 -3 4 -68 13 31 -18 -18
0000d0 f7 1e e0 0a dc ea 1c f0 08 d5 0e 07 ec e6 ec df
       -9 30 -32 10 -36 -22 28 -16 8 -43 14 7 -20 -26 -20 -33
0000e0 db 10 19 00 07 ed e8 fc 02 18 0e c1 18 ee ef 0a
       -37 16 25 0 7 -19 -24 -4 2 24 14 -63 24 -18 -17 10
0000f0 30 1c ff 09 f6 fa 1b 2d 1d ce 20 23 27 06 39 09
       48 28 -1 9 -10 -6 27 45 29 -50 32 35 39 6 57 9

tfl.pseudo_qconst5 i1 [1, 23, 1, 64]
000000 81 30 81 11 a2 57 dd 46 4f c5 ef 2e 41 c9 7f 28
       -127 48 -127 17 -94 87 -35 70 79 -59 -17 46 65 -55 127 40
000010 89 dc 81 1b 60 81 81 7f 37 26 d3 4a 81 99 88 81
       -119 -36 -127 27 96 -127 -127 127 55 38 -45 74 -127 -103 -120 -127
000020 7a 5f 7f a7 7a 56 2e 7f 4d e4 d4 0e 03 52 be 81
       122 95 127 -89 122 86 46 127 77 -28 -44 14 3 82 -66 -127
000030 92 19 67 16 b3 81 7f 82 de da 81 46 a9 96 ca 2a
       -110 25 103 22 -77 -127 127 -126 -34 -38 -127 70 -87 -106 -54 42
000040 a0 16 a6 15 b0 52 30 39 31 c7 e5 1c 15 b8 6d 10
       -96 22 -90 21 -80 82 48 57 49 -57 -27 28 21 -72 109 16
000050 b8 b9 94 5e 4e 83 a7 6b 0a 2b bc e7 99 81 97 dd
       -72 -71 -108 94 78 -125 -89 107 10 43 -68 -25 -103 -127 -105 -35
000060 7f 31 5f bf 6b 61 23 59 43 dd ed 14 dc 5b d4 8d
       127 49 95 -65 107 97 35 89 67 -35 -19 20 -36 91 -44 -115
000070 88 23 4b 6c cf a8 61 81 e5 e2 c9 e0 a5 83 d7 29
       -120 35 75 108 -49 -88 97 -127 -27 -30 -55 -32 -91 -125 -41 41
000080 ca 26 9a 3b d3 4a 11 38 19 c7 e2 1d 2f e0 67 01
       -54 38 -102 59 -45 74 17 56 25 -57 -30 29 47 -32 103 1
000090 e3 d0 ad 34 46 97 ae 31 0f 18 18 3c c4 a4 c0 fa
       -29 -48 -83 52 70 -105 -82 49 15 24 24 60 -60 -92 -64 -6
0000a0 79 0e 42 dc 5b 40 0f 5a 32 cf 38 1d 94 42 1f a3
       121 14 66 -36 91 64 15 90 50 -49 56 29 -108 66 31 -93
0000b0 81 21 4b 70 f8 cc 51 ba cf bb d9 f5 a5 e2 de 13
       -127 33 75 112 -8 -52 81 -70 -49 -69 -39 -11 -91 -30 -34 19
0000c0 d2 10 c0 61 d3 9d 18 19 11 e5 e0 32 11 86 64 e6
       -46 16 -64 97 -45 -99 24 25 17 -27 -32 50 17 -122 100 -26
0000d0 e4 d9 a6 56 4b e6 e0 1f cf 03 96 08 e6 b2 b1 e2
       -28 -39 -90 86 75 -26 -32 31 -49 3 -106 8 -26 -78 -79 -30
0000e0 26 1e 40 3b 37 2e f9 5b 17 cc 4e 0c af f5 eb c1
       38 30 64 59 55 46 -7 91 23 -52 78 12 -81 -11 -21 -63
0000f0 a2 4e 22 34 0c e9 59 b9 db ca f5 b2 90 0c 01 03
       -94 78 34 52 12 -23 89 -71 -37 -54 -11 -78 -112 12 1 3

tfl.pseudo_qconst7 i1 [64, 1, 1, 64]
000000 5e 30 f5 d3 19 f4 e6 49 06 4b 1d f7 28 1d 46 95
       94 48 -11 -45 25 -12 -26 73 6 75 29 -9 40 29 70 -107
000010 29 0d 02 27 fb 2a 2e f7 f2 38 f9 e6 c7 ff 2a 59
       41 13 2 39 -5 42 46 -9 -14 56 -7 -26 -57 -1 42 89
000020 c0 cd ce 75 d1 3b 17 2d 2e 32 c5 fd d3 f0 97 ea
       -64 -51 -50 117 -47 59 23 45 46 50 -59 -3 -45 -16 -105 -22
000030 21 d2 11 b6 5d 45 d8 1c 78 16 01 7f da e6 d7 e2
       33 -46 17 -74 93 69 -40 28 120 22 1 127 -38 -26 -41 -30
000040 bf 12 2e ac 44 fa fa 4f df f3 49 c6 04 aa b0 9a
       -65 18 46 -84 68 -6 -6 79 -33 -13 73 -58 4 -86 -80 -102
000050 cd c1 ba 0a 28 e1 1f 0a 2e fd d4 1e 08 e0 21 dd
       -51 -63 -70 10 40 -31 31 10 46 -3 -44 30 8 -32 33 -35
000060 34 e6 20 c2 da c5 09 81 fd e6 0d 0d 99 f8 12 fe
       52 -26 32 -62 -38 -59 9 -127 -3 -26 13 13 -103 -8 18 -2
000070 ee c9 71 30 d8 46 0c d2 0f 14 e5 ef fe a8 3a 15
       -18 -55 113 48 -40 70 12 -46 15 20 -27 -17 -2 -88 58 21
000080 08 0f 29 0a 36 55 f5 c6 e8 d2 cf 1d 16 40 43 e9
       8 15 41 10 54 85 -11 -58 -24 -46 -49 29 22 64 67 -23
000090 32 ea e8 2f 06 e2 b8 07 cf fa ff 13 d1 e7 42 fe
       50 -22 -24 47 6 -30 -72 7 -49 -6 -1 19 -47 -25 66 -2
0000a0 12 e7 dd 0f 2a d8 e2 13 14 2c 48 eb 26 74 fd 45
       18 -25 -35 15 42 -40 -30 19 20 44 72 -21 38 116 -3 69
0000b0 e3 0e be 32 81 e9 7d 38 ee 0c e7 f7 25 3e 63 0c
       -29 14 -66 50 -127 -23 125 56 -18 12 -25 -9 37 62 99 12
0000c0 25 f3 f1 3a f2 1c 04 2d 07 19 f5 ea 07 c5 f0 0d
       37 -13 -15 58 -14 28 4 45 7 25 -11 -22 7 -59 -16 13
0000d0 ed eb fc 59 f4 19 41 e7 1c 08 25 ef 0c d6 34 32
       -19 -21 -4 89 -12 25 65 -25 28 8 37 -17 12 -42 52 50
0000e0 34 02 38 06 f0 de 81 24 03 2b da ba ff 0c d2 43
       52 2 56 6 -16 -34 -127 36 3 43 -38 -70 -1 12 -46 67
0000f0 1a f4 27 04 03 ed 27 6b 13 fd 29 fa 06 bd ef 3e
       26 -12 39 4 3 -19 39 107 19 -3 41 -6 6 -67 -17 62

tfl.pseudo_qconst9 i1 [1, 15, 1, 32]
000000 c1 7a 81 a0 f1 7f b6 69 a4 a6 7f 0a e3 81 17 e2
       -63 122 -127 -96 -15 127 -74 105 -92 -90 127 10 -29 -127 23 -30
000010 22 f2 d0 b2 7f 81 98 7f 81 45 0f ad 7f e9 7f 18
       34 -14 -48 -78 127 -127 -104 127 -127 69 15 -83 127 -23 127 24
000020 d5 7f 88 ad f4 4c e5 1b d0 8e 58 0a ff a6 fe c7
       -43 127 -120 -83 -12 76 -27 27 -48 -114 88 10 -1 -90 -2 -57
000030 33 f9 d8 9f 54 91 81 3b b7 5e fd c9 40 fb 3f 66
       51 -7 -40 -97 84 -111 -127 59 -73 94 -3 -55 64 -5 63 102
000040 b3 53 bd 81 d9 fd f7 66 b4 a2 3d ef da bf 0f f2
       -77 83 -67 -127 -39 -3 -9 102 -76 -94 61 -17 -38 -65 15 -14
000050 aa f8 3a 52 45 aa 85 33 12 36 1a c3 2f e4 31 3d
       -86 -8 58 82 69 -86 -123 51 18 54 26 -61 47 -28 49 61
000060 9b 1d a5 d1 0d d4 f2 32 95 d1 33 d1 e9 ca 16 f8
       -101 29 -91 -47 13 -44 -14 50 -107 -47 51 -47 -23 -54 22 -8
000070 cd 1e 47 4a 07 b3 b4 21 2f 81 0a c9 3b 06 1a 2a
       -51 30 71 74 7 -77 -76 33 47 -127 10 -55 59 6 26 42
000080 a5 fb e5 e7 f7 e9 94 32 a8 a6 36 aa 0d e3 e1 e8
       -91 -5 -27 -25 -9 -23 -108 50 -88 -90 54 -86 13 -29 -31 -24
000090 fc 33 29 30 13 ef 9b 23 1c 96 0d b7 50 1d 27 7f
       -4 51 41 48 19 -17 -101 35 28 -106 13 -73 80 29 39 127
0000a0 bb 02 9a e2 ef 9a 9f 4e db 8e 22 c3 27 05 bb 19
       -69 2 -102 -30 -17 -102 -97 78 -37 -114 34 -61 39 5 -69 25
0000b0 30 35 19 5c 17 fb 19 17 2b 96 2b 81 49 2b 16 38
       48 53 25 92 23 -5 25 23 43 -106 43 -127 73 43 22 56
0000c0 e2 0d d8 fd 53 a8 cd 26 e2 d1 21 0a db fd d6 01
       -30 13 -40 -3 83 -88 -51 38 -30 -47 33 10 -37 -3 -42 1
0000d0 59 26 ec 01 0e 09 64 28 e1 dd fd a0 58 07 09 43
       89 38 -20 1 14 9 100 40 -31 -35 -3 -96 88 7 9 67
0000e0 fa 2c b2 f8 5d 93 c5 36 97 fb 0b 0b c6 fc d9 11
       -6 44 -78 -8 93 -109 -59 54 -105 -5 11 11 -58 -4 -39 17
0000f0 46 06 ef 81 f9 d9 df 23 24 26 f9 a5 56 20 fb 27
       70 6 -17 -127 -7 -39 -33 35 36 38 -7 -91 86 32 -5 39

tfl.pseudo_qconst11 i1 [1, 9, 1, 32]
000000 b0 0f 5f 3f 96 81 58 7f 16 12 d9 14 fd c5 15 f1
       -80 15 95 63 -106 -127 88 127 22 18 -39 20 -3 -59 21 -15
000010 37 81 6b 7f f6 99 fb 19 0e c5 15 d7 aa c3 f6 b0
       55 -127 107 127 -10 -103 -5 25 14 -59 21 -41 -86 -61 -10 -80
000020 b4 18 30 a2 e2 2f 42 47 19 e0 ed 2b 79 e2 e3 e8
       -76 24 48 -94 -30 47 66 71 25 -32 -19 43 121 -30 -29 -24
000030 14 9d 57 6d 23 d7 29 c8 1e 22 f5 bc f8 e7 06 81
       20 -99 87 109 35 -41 41 -56 30 34 -11 -68 -8 -25 6 -127
000040 c0 14 53 81 db 32 4c 59 08 a6 fa e1 7f 13 2d c3
       -64 20 83 -127 -37 50 76 89 8 -90 -6 -31 127 19 45 -61
000050 f2 d3 7f 48 e9 c2 32 ae 91 1c 7f 30 26 c2 ef bd
       -14 -45 127 72 -23 -62 50 -82 -111 28 127 48 38 -62 -17 -67
000060 81 f2 2b 0f 7f 3c 35 18 dc bc 1a d3 17 0b 0c b0
       -127 -14 43 15 127 60 53 24 -36 -68 26 -45 23 11 12 -80
000070 ca 24 4f 3e 97 da 3f cd 81 1d 15 31 67 b7 bf e4
       -54 36 79 62 -105 -38 63 -51 -127 29 21 49 103 -73 -65 -28
000080 93 f1 b0 4d 78 75 c4 ef 0a ad 3e b4 17 08 d4 f8
       -109 -15 -80 77 120 117 -60 -17 10 -83 62 -76 23 8 -44 -8
000090 c6 d2 53 04 81 db 6a d9 a0 14 b4 f5 25 db 9f 21
       -58 -46 83 4 -127 -37 106 -39 -96 20 -76 -11 37 -37 -97 33
0000a0 32 06 81 fd 2d 78 4e 25 30 96 07 e2 3f 08 a8 13
       50 6 -127 -3 45 120 78 37 48 -106 7 -30 63 8 -88 19
0000b0 c9 37 2d 37 bc ab 7f 6e 17 e7 db 28 c9 d4 81 dd
       -55 55 45 55 -68 -85 127 110 23 -25 -37 40 -55 -44 -127 -35
0000c0 07 1c ca 0f 49 5d 48 1c 32 d8 b6 ec 59 72 d2 11
       7 28 -54 15 73 93 72 28 50 -40 -74 -20 89 114 -46 17
0000d0 00 34 1f 65 33 81 10 5a 74 cd 01 2d b4 a8 a7 d8
       0 52 31 101 51 -127 16 90 116 -51 1 45 -76 -88 -89 -40
0000e0 f0 5c a4 28 a1 2d 81 c5 c8 99 8f 93 34 7f 86 7f
       -16 92 -92 40 -95 45 -127 -59 -56 -103 -113 -109 52 127 -122 127
0000f0 57 10 3a 63 12 8e ab 70 22 e1 e3 c6 81 9d e0 1e
       87 16 58 99 18 -114 -85 112 34 -31 -29 -58 -127 -99 -32 30

tfl.pseudo_qconst13 i1 [64, 1, 1, 64]
000000 2d 15 57 24 1e e7 0f 4f f0 b7 a6 4c ec 97 d8 15
       45 21 87 36 30 -25 15 79 -16 -73 -90 76 -20 -105 -40 21
000010 ca 00 fa f9 f1 de 1a 1b d4 18 81 19 0f ba af be
       -54 0 -6 -7 -15 -34 26 27 -44 24 -127 25 15 -70 -81 -66
000020 be 88 28 c2 6d f5 dc f1 16 d9 03 cf 39 01 fd 09
       -66 -120 40 -62 109 -11 -36 -15 22 -39 3 -49 57 1 -3 9
000030 0f 0a ff 74 c8 25 22 f7 1e 16 bb f8 f5 f6 f1 3d
       15 10 -1 116 -56 37 34 -9 30 22 -69 -8 -11 -10 -15 61
000040 f0 2b d8 65 e1 01 50 f9 c9 0c cc a6 a5 08 1a e3
       -16 43 -40 101 -31 1 80 -7 -55 12 -52 -90 -91 8 26 -29
000050 e3 e3 05 1d 2e 0c cc 19 aa 4e f8 3c 08 1e e7 81
       -29 -29 5 29 46 12 -52 25 -86 78 -8 60 8 30 -25 -127
000060 f0 01 ce d6 f9 a5 ff dc e8 2a 4d e4 cf 0e f4 ea
       -16 1 -50 -42 -7 -91 -1 -36 -24 42 77 -28 -49 14 -12 -22
000070 f9 ea d1 f5 0c 07 24 16 dd 4c 12 fe ba 1e 18 53
       -7 -22 -47 -11 12 7 36 22 -35 76 18 -2 -70 30 24 83
000080 11 e8 2b 00 10 1f c5 23 28 01 18 1d 14 e3 16 c1
       17 -24 43 0 16 31 -59 35 40 1 24 29 20 -29 22 -63
000090 bf c4 10 ab 15 e4 1f 0f 45 29 b7 0a 29 1f 10 31
       -65 -60 16 -85 21 -28 31 15 69 41 -73 10 41 31 16 49
0000a0 29 81 07 db 3e 05 28 cb fc 8f fd e9 1e d0 ce 23
       41 -127 7 -37 62 5 40 -53 -4 -113 -3 -23 30 -48 -50 35
0000b0 2b 41 10 fe 1a f9 1b e9 29 e3 b8 0e 26 0e 45 17
       43 65 16 -2 26 -7 27 -23 41 -29 -72 14 38 14 69 23
0000c0 24 cf 16 f1 d3 0b ff 16 f0 2f 4a 02 ca b4 07 bf
       36 -49 22 -15 -45 11 -1 22 -16 47 74 2 -54 -76 7 -65
0000d0 2e 21 ab df de 59 d2 3a e8 1d 02 02 fc f0 3d f0
       46 33 -85 -33 -34 89 -46 58 -24 29 2 2 -4 -16 61 -16
0000e0 47 f2 51 ac e9 0c e3 fd e0 b4 e2 06 a2 c8 0e de
       71 -14 81 -84 -23 12 -29 -3 -32 -76 -30 6 -94 -56 14 -34
0000f0 7f 0c 22 07 fa 0f 08 01 2c 1a 42 07 fa 34 22 13
       127 12 34 7 -6 15 8 1 44 26 66 7 -6 52 34 19

tfl.pseudo_qconst15 i1 [1, 11, 1, 32]
000000 ba f7 7f 32 2a 26 7f 77 1d 2d b8 77 b6 7b 7f e8
       -70 -9 127 50 42 38 127 119 29 45 -72 119 -74 123 127 -24
000010 81 29 cc 8a 7f 7f 81 20 22 07 7f b0 06 24 44 81
       -127 41 -52 -118 127 127 -127 32 34 7 127 -80 6 36 68 -127
000020 aa 16 37 19 c5 42 fb 0b 21 e7 8b 7f ba 7f 78 e0
       -86 22 55 25 -59 66 -5 11 33 -25 -117 127 -70 127 120 -32
000030 a1 2a da d7 4d 76 99 c1 d7 3e 67 a2 f7 54 09 bb
       -95 42 -38 -41 77 118 -103 -63 -41 62 103 -94 -9 84 9 -69
000040 8a 18 69 5f 9c 49 ae 00 33 3f 81 4c 46 49 3e 99
       -118 24 105 95 -100 73 -82 0 51 63 -127 76 70 73 62 -103
000050 ae 11 f2 29 22 2e e5 d4 da 44 42 89 e1 60 b9 c6
       -82 17 -14 41 34 46 -27 -44 -38 68 66 -119 -31 96 -71 -58
000060 a0 53 3b 7f 81 58 d1 02 49 5c a5 5b 7d 70 f3 2e
       -96 83 59 127 -127 88 -47 2 73 92 -91 91 125 112 -13 46
000070 ea ea 81 de 58 ca c6 ed d0 37 00 89 c9 ee e8 fc
       -22 -22 -127 -34 88 -54 -58 -19 -48 55 0 -119 -55 -18 -24 -4
000080 dc 49 e9 3f 13 55 fc 04 56 4d b7 40 7f 33 00 e0
       -36 73 -23 63 19 85 -4 4 86 77 -73 64 127 51 0 -32
000090 32 22 c6 9f 1a bf 36 06 e1 15 23 a5 e4 f2 ba 24
       50 34 -58 -97 26 -65 54 6 -31 21 35 -91 -28 -14 -70 36
0000a0 1c 5a b0 2c 00 03 02 e2 2b 42 a0 17 e8 37 fb a1
       28 90 -80 44 0 3 2 -30 43 66 -96 23 -24 55 -5 -95
0000b0 3d 0a e7 fc 1c b3 22 f5 b4 19 23 a3 93 7f e6 e2
       61 10 -25 -4 28 -77 34 -11 -76 25 35 -93 -109 127 -26 -30
0000c0 ff 30 d3 be 58 07 e6 0e f0 72 b5 15 0d 02 3d c3
       -1 48 -45 -66 88 7 -26 14 -16 114 -75 21 13 2 61 -61
0000d0 de cd bd 3b 02 d3 5a 07 bf 2f ee fe 16 c7 b9 39
       -34 -51 -67 59 2 -45 90 7 -65 47 -18 -2 22 -57 -71 57
0000e0 42 05 e9 f2 38 ee 07 43 c3 50 ba 1b 1b 02 24 7f
       66 5 -23 -14 56 -18 7 67 -61 80 -70 27 27 2 36 127
0000f0 e0 d6 f3 7f 42 b0 19 a8 30 fb ff 15 7f 1b d8 33
       -32 -42 -13 127 66 -80 25 -88 48 -5 -1 21 127 27 -40 51

tfl.pseudo_qconst17 i1 [1, 7, 1, 32]
000000 c0 30 b7 90 f9 ff d8 be 66 fb cf 04 10 6e 03 91
       -64 48 -73 -112 -7 -1 -40 -66 102 -5 -49 4 16 110 3 -111
000010 7f 45 08 bd 2c 81 f0 50 d8 7f 9f a3 76 cb e5 46
       127 69 8 -67 44 -127 -16 80 -40 127 -97 -93 118 -53 -27 70
000020 db 7f dd 2f fb fb 62 b0 24 6a 93 67 4d 7f 7f 81
       -37 127 -35 47 -5 -5 98 -80 36 106 -109 103 77 127 127 -127
000030 60 7f d8 bd d4 b7 e5 09 1e 68 be ff 4f b9 fc 07
       96 127 -40 -67 -44 -73 -27 9 30 104 -66 -1 79 -71 -4 7
000040 60 53 81 1e 07 09 52 0d ec 23 43 65 e0 42 56 ac
       96 83 -127 30 7 9 82 13 -20 35 67 101 -32 66 86 -84
000050 7e 74 7f 59 8f c8 bb 05 e9 6e 81 5e 7f 81 a9 e7
       126 116 127 89 -113 -56 -69 5 -23 110 -127 94 127 -127 -87 -25
000060 c3 ef a8 ee 81 00 37 7f 05 1d 24 64 3b 52 ad 1f
       -61 -17 -88 -18 -127 0 55 127 5 29 36 100 59 82 -83 31
000070 37 43 ab 35 fe 44 11 81 08 3f 44 7f 3d 93 59 d4
       55 67 -85 53 -2 68 17 -127 8 63 68 127 61 -109 89 -44
000080 28 db 85 d7 bc d2 1e 7d a4 7f e8 60 c9 2b b3 3c
       40 -37 -123 -41 -68 -46 30 125 -92 127 -24 96 -55 43 -77 60
000090 c5 0f d9 7f eb 52 81 ee fd 10 78 6b fc f7 2f 0b
       -59 15 -39 127 -21 82 -127 -18 -3 16 120 107 -4 -9 47 11
0000a0 7f dd e2 b4 e2 bd 0a fb b3 3b 7d 55 4a a8 82 0c
       127 -35 -30 -76 -30 -67 10 -5 -77 59 125 85 74 -88 -126 12
0000b0 9d 0b 0b 0f f0 51 ca 99 04 b6 75 df ee e8 22 4c
       -99 11 11 15 -16 81 -54 -103 4 -74 117 -33 -18 -24 34 76
0000c0 0f 70 d7 81 61 81 81 30 81 44 7f 7f 7f cb df 47
       15 112 -41 -127 97 -127 -127 48 -127 68 127 127 127 -53 -33 71
0000d0 59 1d 25 d6 81 68 81 0f 7f d1 f9 b3 c6 f4 81 7f
       89 29 37 -42 -127 104 -127 15 127 -47 -7 -77 -58 -12 -127 127

tfl.pseudo_qconst19 i1 [64, 1, 1, 32]
000000 20 ed 30 a5 f5 d8 0d df c0 de 1e e8 53 2f fa ef
       32 -19 48 -91 -11 -40 13 -33 -64 -34 30 -24 83 47 -6 -17
000010 cc d3 70 65 03 54 16 f5 7f 5d d0 df ce bd c7 00
       -52 -45 112 101 3 84 22 -11 127 93 -48 -33 -50 -67 -57 0
000020 81 e3 0a 4d d4 09 09 98 c6 31 04 27 02 05 27 f1
       -127 -29 10 77 -44 9 9 -104 -58 49 4 39 2 5 39 -15
000030 d5 9e 05 0e b1 45 46 30 10 02 0d d8 11 c7 31 ec
       -43 -98 5 14 -79 69 70 48 16 2 13 -40 17 -57 49 -20
000040 f2 75 4c f4 1e 41 ba b7 cb f9 03 d6 d4 c0 eb 34
       -14 117 76 -12 30 65 -70 -73 -53 -7 3 -42 -44 -64 -21 52
000050 81 de f3 26 4c 13 d3 e1 4a 03 f0 ba 18 4e e4 d2
       -127 -34 -13 38 76 19 -45 -31 74 3 -16 -70 24 78 -28 -46
000060 77 bf 96 18 3d e5 d4 d9 3c 19 bd 18 e4 59 e4 df
       119 -65 -106 24 61 -27 -44 -39 60 25 -67 24 -28 89 -28 -33
000070 0d bc 1e 81 ee 39 f4 14 02 3e f0 31 4d a3 e6 f9
       13 -68 30 -127 -18 57 -12 20 2 62 -16 49 77 -93 -26 -7
000080 fb 2a 0f b5 69 31 74 c1 b7 c2 1f b6 e3 86 e7 c1
       -5 42 15 -75 105 49 116 -63 -73 -62 31 -74 -29 -122 -25 -63
000090 d7 47 e5 f4 52 13 93 18 1b 4b 1b 9b 0a 82 7f d2
       -41 71 -27 -12 82 19 -109 24 27 75 27 -101 10 -126 127 -46
0000a0 28 fc 1d 19 de 7f fb fa d4 3e f9 f4 ec d8 ea fe
       40 -4 29 25 -34 127 -5 -6 -44 62 -7 -12 -20 -40 -22 -2
0000b0 e4 f3 0d fc 05 09 c0 f3 22 fe d8 d3 cd e9 17 e6
       -28 -13 13 -4 5 9 -64 -13 34 -2 -40 -45 -51 -23 23 -26
0000c0 0b d8 23 fb 45 d3 49 84 05 e4 ee c4 99 57 2e 92
       11 -40 35 -5 69 -45 73 -124 5 -28 -18 -60 -103 87 46 -110
0000d0 2b 63 d2 36 48 e3 16 05 f4 54 bf 17 0c 81 18 e2
       43 99 -46 54 72 -29 22 5 -12 84 -65 23 12 -127 24 -30
0000e0 44 16 bb d0 00 d6 6b 7f 4a e7 38 e3 50 ee ee 13
       68 22 -69 -48 0 -42 107 127 74 -25 56 -29 80 -18 -18 19
0000f0 eb b6 cc 86 3c 50 9e de 22 35 e1 0e 27 b7 d7 3a
       -21 -74 -52 -122 60 80 -98 -34 34 53 -31 14 39 -73 -41 58

tfl.pseudo_qconst21 i1 [1, 5, 1, 32]
000000 88 0f 8e 4c 81 40 d8 81 7f 7f 25 7f 46 fe de 81
       -120 15 -114 76 -127 64 -40 -127 127 127 37 127 70 -2 -34 -127
000010 04 81 a1 7f db 1e 51 c4 7f 8d 7f ea 6e 7f f4 26
       4 -127 -95 127 -37 30 81 -60 127 -115 127 -22 110 127 -12 38
000020 cf 7f b0 95 c6 4a 43 8c bb 58 f1 7f 35 f1 be bd
       -49 127 -80 -107 -58 74 67 -116 -69 88 -15 127 53 -15 -66 -67
000030 82 cd b2 4c 81 25 7f 7f 30 ae 28 ae 7f 72 81 26
       -126 -51 -78 76 -127 37 127 127 48 -82 40 -82 127 114 -127 38
000040 0d f9 81 81 13 17 7f e2 d1 d2 eb 3d cf 81 3b 17
       13 -7 -127 -127 19 23 127 -30 -47 -46 -21 61 -49 -127 59 23
000050 81 ec 1e 83 e8 7f 70 3a 7e 09 40 af 4e 33 27 1e
       -127 -20 30 -125 -24 127 112 58 126 9 64 -81 78 51 39 30
000060 51 aa 1c 7a 44 9b 9e 59 46 96 93 2c bc 13 d8 52
       81 -86 28 122 68 -101 -98 89 70 -106 -109 44 -68 19 -40 82
000070 f7 b3 8d a3 44 58 bb 9f 4f 06 90 81 01 2d de 7f
       -9 -77 -115 -93 68 88 -69 -97 79 6 -112 -127 1 45 -34 127
000080 7f ea 94 56 57 81 a0 2f 1e 81 81 fe 81 97 7f 5d
       127 -22 -108 86 87 -127 -96 47 30 -127 -127 -2 -127 -105 127 93
000090 dc 6d 81 0e 46 52 d1 b0 9d 7f 8c c1 a2 34 64 39
       -36 109 -127 14 70 82 -47 -80 -99 127 -116 -63 -94 52 100 57

tfl.pseudo_qconst23 i1 [32, 5, 1, 40]
000000 33 1a f0 ef 11 e4 f2 0c e8 ee f9 de f2 d3 d6 d4
       51 26 -16 -17 17 -28 -14 12 -24 -18 -7 -34 -14 -45 -42 -44
000010 f9 bf ee f1 fb fa fc 1c 1c 20 17 2e 10 03 07 23
       -7 -65 -18 -15 -5 -6 -4 28 28 32 23 46 16 3 7 35
000020 18 1e f9 2e f5 ff fe 7c 3d 0d 13 34 17 04 ed 26
       24 30 -7 46 -11 -1 -2 124 61 13 19 52 23 4 -19 38
000030 0a d7 fa c3 f9 c7 f1 cb e6 d5 f1 ff dd 13 f8 2b
       10 -41 -6 -61 -7 -57 -15 -53 -26 -43 -15 -1 -35 19 -8 43
000040 27 23 22 10 db e4 eb f9 0a 0e e1 1f fb 01 f5 7f
       39 35 34 16 -37 -28 -21 -7 10 14 -31 31 -5 1 -11 127
000050 3c 1e f8 15 07 1a 23 f9 f4 ef ff d7 f7 d4 e6 d6
       60 30 -8 21 7 26 35 -7 -12 -17 -1 -41 -9 -44 -26 -42
000060 ed d6 e9 06 08 1c 26 2d 11 26 11 23 ed f2 fe 2f
       -19 -42 -23 6 8 28 38 45 17 38 17 35 -19 -14 -2 47
000070 0e 15 07 0d fd 07 04 56 46 59 24 4a 2d 3a 08 f7
       14 21 7 13 -3 7 4 86 70 89 36 74 45 58 8 -9
000080 0c ef 07 d4 ce dc e0 fe e1 cb d4 01 fd 23 12 24
       12 -17 7 -44 -50 -36 -32 -2 -31 -53 -44 1 -3 35 18 36
000090 0b 16 f7 15 d7 df f8 29 19 19 00 14 f2 16 f0 58
       11 22 -9 21 -41 -33 -8 41 25 25 0 20 -14 22 -16 88
0000a0 5c 60 25 4c 33 2f 06 02 e8 18 f4 df f0 ed ec fc
       92 96 37 76 51 47 6 2 -24 24 -12 -33 -16 -19 -20 -4
0000b0 f0 ef fe 1b eb 21 ff 49 0e 2a 0f 27 dc f0 ea 36
       -16 -17 -2 27 -21 33 -1 73 14 42 15 39 -36 -16 -22 54
0000c0 1c f2 e7 21 1a 0e f5 4a c1 ef 9b d4 9f a0 92 a6
       28 -14 -25 33 26 14 -11 74 -63 -17 -101 -44 -97 -96 -110 -90
0000d0 a2 c4 d4 a2 f6 d5 f6 f9 e9 f4 e3 cb d5 d5 93 ac
       -94 -60 -44 -94 -10 -43 -10 -7 -23 -12 -29 -53 -43 -43 -109 -84
0000e0 81 8d a1 ab b2 c5 f2 00 57 2b 0a 36 04 5b 13 c8
       -127 -115 -95 -85 -78 -59 -14 0 87 43 10 54 4 91 19 -56
0000f0 9c ae cf dd a6 af b9 cc de c3 a1 01 da 12 21 3d
       -100 -82 -49 -35 -90 -81 -71 -52 -34 -61 -95 1 -38 18 33 61

tfl.pseudo_qconst24 i1 [1, 22, 1, 64] scale=0.0387299 zero_point=-128
000000 80 80 80 80 80 80 80 80 80 80 80 80 80 80 80 80
       0.0 0.0 0.0 0.0 0.0 0.0 0.0 0.0 0.0 0.0 0.0 0.0 0.0 0.0 0.0 0.0
000010 80 80 80 80 80 80 80 80 80 80 80 80 80 80 80 80
       0.0 0.0 0.0 0.0 0.0 0.0 0.0 0.0 0.0 0.0 0.0 0.0 0.0 0.0 0.0 0.0
000020 80 80 80 80 80 80 80 80 80 80 80 80 80 80 80 80
       0.0 0.0 0.0 0.0 0.0 0.0 0.0 0.0 0.0 0.0 0.0 0.0 0.0 0.0 0.0 0.0
000030 80 80 80 80 80 80 80 80 80 80 80 80 80 80 80 80
       0.0 0.0 0.0 0.0 0.0 0.0 0.0 0.0 0.0 0.0 0.0 0.0 0.0 0.0 0.0 0.0
000040 80 80 80 80 80 80 80 80 80 80 80 80 80 80 80 80
       0.0 0.0 0.0 0.0 0.0 0.0 0.0 0.0 0.0 0.0 0.0 0.0 0.0 0.0 0.0 0.0
000050 80 80 80 80 80 80 80 80 80 80 80 80 80 80 80 80
       0.0 0.0 0.0 0.0 0.0 0.0 0.0 0.0 0.0 0.0 0.0 0.0 0.0 0.0 0.0 0.0
000060 80 80 80 80 80 80 80 80 80 80 80 80 80 80 80 80
       0.0 0.0 0.0 0.0 0.0 0.0 0.0 0.0 0.0 0.0 0.0 0.0 0.0 0.0 0.0 0.0
000070 80 80 80 80 80 80 80 80 80 80 80 80 80 80 80 80
       0.0 0.0 0.0 0.0 0.0 0.0 0.0 0.0 0.0 0.0 0.0 0.0 0.0 0.0 0.0 0.0
000080 80 80 80 80 80 80 80 80 80 80 80 80 80 80 80 80
       0.0 0.0 0.0 0.0 0.0 0.0 0.0 0.0 0.0 0.0 0.0 0.0 0.0 0.0 0.0 0.0
000090 80 80 80 80 80 80 80 80 80 80 80 80 80 80 80 80
       0.0 0.0 0.0 0.0 0.0 0.0 0.0 0.0 0.0 0.0 0.0 0.0 0.0 0.0 0.0 0.0
0000a0 80 80 80 80 80 80 80 80 80 80 80 80 80 80 80 80
       0.0 0.0 0.0 0.0 0.0 0.0 0.0 0.0 0.0 0.0 0.0 0.0 0.0 0.0 0.0 0.0
0000b0 80 80 80 80 80 80 80 80 80 80 80 80 80 80 80 80
       0.0 0.0 0.0 0.0 0.0 0.0 0.0 0.0 0.0 0.0 0.0 0.0 0.0 0.0 0.0 0.0
0000c0 80 80 80 80 80 80 80 80 80 80 80 80 80 80 80 80
       0.0 0.0 0.0 0.0 0.0 0.0 0.0 0.0 0.0 0.0 0.0 0.0 0.0 0.0 0.0 0.0
0000d0 80 80 80 80 80 80 80 80 80 80 80 80 80 80 80 80
       0.0 0.0 0.0 0.0 0.0 0.0 0.0 0.0 0.0 0.0 0.0 0.0 0.0 0.0 0.0 0.0
0000e0 80 80 80 80 80 80 80 80 80 80 80 80 80 80 80 80
       0.0 0.0 0.0 0.0 0.0 0.0 0.0 0.0 0.0 0.0 0.0 0.0 0.0 0.0 0.0 0.0
0000f0 80 80 80 80 80 80 80 80 80 80 80 80 80 80 80 80
       0.0 0.0 0.0 0.0 0.0 0.0 0.0 0.0 0.0 0.0 0.0 0.0 0.0 0.0 0.0 0.0

tfl.pseudo_qconst25 i1 [1, 36, 1, 64] scale=0.02526509 zero_point=-128
000000 80 80 80 80 80 80 80 80 80 80 80 80 80 80 80 80
       0.0 0.0 0.0 0.0 0.0 0.0 0.0 0.0 0.0 0.0 0.0 0.0 0.0 0.0 0.0 0.0
000010 80 80 80 80 80 80 80 80 80 80 80 80 80 80 80 80
       0.0 0.0 0.0 0.0 0.0 0.0 0.0 0.0 0.0 0.0 0.0 0.0 0.0 0.0 0.0 0.0
000020 80 80 80 80 80 80 80 80 80 80 80 80 80 80 80 80
       0.0 0.0 0.0 0.0 0.0 0.0 0.0 0.0 0.0 0.0 0.0 0.0 0.0 0.0 0.0 0.0
000030 80 80 80 80 80 80 80 80 80 80 80 80 80 80 80 80
       0.0 0.0 0.0 0.0 0.0 0.0 0.0 0.0 0.0 0.0 0.0 0.0 0.0 0.0 0.0 0.0
000040 80 80 80 80 80 80 80 80 80 80 80 80 80 80 80 80
       0.0 0.0 0.0 0.0 0.0 0.0 0.0 0.0 0.0 0.0 0.0 0.0 0.0 0.0 0.0 0.0
000050 80 80 80 80 80 80 80 80 80 80 80 80 80 80 80 80
       0.0 0.0 0.0 0.0 0.0 0.0 0.0 0.0 0.0 0.0 0.0 0.0 0.0 0.0 0.0 0.0
000060 80 80 80 80 80 80 80 80 80 80 80 80 80 80 80 80
       0.0 0.0 0.0 0.0 0.0 0.0 0.0 0.0 0.0 0.0 0.0 0.0 0.0 0.0 0.0 0.0
000070 80 80 80 80 80 80 80 80 80 80 80 80 80 80 80 80
       0.0 0.0 0.0 0.0 0.0 0.0 0.0 0.0 0.0 0.0 0.0 0.0 0.0 0.0 0.0 0.0
000080 80 80 80 80 80 80 80 80 80 80 80 80 80 80 80 80
       0.0 0.0 0.0 0.0 0.0 0.0 0.0 0.0 0.0 0.0 0.0 0.0 0.0 0.0 0.0 0.0
000090 80 80 80 80 80 80 80 80 80 80 80 80 80 80 80 80
       0.0 0.0 0.0 0.0 0.0 0.0 0.0 0.0 0.0 0.0 0.0 0.0 0.0 0.0 0.0 0.0
0000a0 80 80 80 80 80 80 80 80 80 80 80 80 80 80 80 80
       0.0 0.0 0.0 0.0 0.0 0.0 0.0 0.0 0.0 0.0 0.0 0.0 0.0 0.0 0.0 0.0
0000b0 80 80 80 80 80 80 80 80 80 80 80 80 80 80 80 80
       0.0 0.0 0.0 0.0 0.0 0.0 0.0 0.0 0.0 0.0 0.0 0.0 0.0 0.0 0.0 0.0
0000c0 80 80 80 80 80 80 80 80 80 80 80 80 80 80 80 80
       0.0 0.0 0.0 0.0 0.0 0.0 0.0 0.0 0.0 0.0 0.0 0.0 0.0 0.0 0.0 0.0
0000d0 80 80 80 80 80 80 80 80 80 80 80 80 80 80 80 80
       0.0 0.0 0.0 0.0 0.0 0.0 0.0 0.0 0.0 0.0 0.0 0.0 0.0 0.0 0.0 0.0
0000e0 80 80 80 80 80 80 80 80 80 80 80 80 80 80 80 80
       0.0 0.0 0.0 0.0 0.0 0.0 0.0 0.0 0.0 0.0 0.0 0.0 0.0 0.0 0.0 0.0
0000f0 80 80 80 80 80 80 80 80 80 80 80 80 80 80 80 80
       0.0 0.0 0.0 0.0 0.0 0.0 0.0 0.0 0.0 0.0 0.0 0.0 0.0 0.0 0.0 0.0

tfl.pseudo_qconst26 i1 [1, 3, 1, 40] scale=0.101960786 zero_point=-128
000000 80 80 80 80 80 80 80 80 80 80 80 80 80 80 80 80
       0.0 0.0 0.0 0.0 0.0 0.0 0.0 0.0 0.0 0.0 0.0 0.0 0.0 0.0 0.0 0.0
000010 80 80 80 80 80 80 80 80 80 80 80 80 80 80 80 80
       0.0 0.0 0.0 0.0 0.0 0.0 0.0 0.0 0.0 0.0 0.0 0.0 0.0 0.0 0.0 0.0
000020 80 80 80 80 80 80 80 80 80 80 80 80 80 80 80 80
       0.0 0.0 0.0 0.0 0.0 0.0 0.0 0.0 0.0 0.0 0.0 0.0 0.0 0.0 0.0 0.0
000030 80 80 80 80 80 80 80 80 80 80 80 80 80 80 80 80
       0.0 0.0 0.0 0.0 0.0 0.0 0.0 0.0 0.0 0.0 0.0 0.0 0.0 0.0 0.0 0.0
000040 80 80 80 80 80 80 80 80 80 80 80 80 80 80 80 80
       0.0 0.0 0.0 0.0 0.0 0.0 0.0 0.0 0.0 0.0 0.0 0.0 0.0 0.0 0.0 0.0
000050 80 80 80 80 80 80 80 80 80 80 80 80 80 80 80 80
       0.0 0.0 0.0 0.0 0.0 0.0 0.0 0.0 0.0 0.0 0.0 0.0 0.0 0.0 0.0 0.0
000060 80 80 80 80 80 80 80 80 80 80 80 80 80 80 80 80
       0.0 0.0 0.0 0.0 0.0 0.0 0.0 0.0 0.0 0.0 0.0 0.0 0.0 0.0 0.0 0.0
000070 80 80 80 80 80 80 80 80
       0.0 0.0 0.0 0.0 0.0 0.0 0.0 0.0

tfl.pseudo_qconst27 i1 [1, 4, 1, 32] scale=1.4263546 zero_point=-128
000000 80 80 80 80 80 80 80 80 80 80 80 80 80 80 80 80
       0.0 0.0 0.0 0.0 0.0 0.0 0.0 0.0 0.0 0.0 0.0 0.0 0.0 0.0 0.0 0.0
000010 80 80 80 80 80 80 80 80 80 80 80 80 80 80 80 80
       0.0 0.0 0.0 0.0 0.0 0.0 0.0 0.0 0.0 0.0 0.0 0.0 0.0 0.0 0.0 0.0
000020 80 80 80 80 80 80 80 80 80 80 80 80 80 80 80 80
       0.0 0.0 0.0 0.0 0.0 0.0 0.0 0.0 0.0 0.0 0.0 0.0 0.0 0.0 0.0 0.0
000030 80 80 80 80 80 80 80 80 80 80 80 80 80 80 80 80
       0.0 0.0 0.0 0.0 0.0 0.0 0.0 0.0 0.0 0.0 0.0 0.0 0.0 0.0 0.0 0.0
000040 80 80 80 80 80 80 80 80 80 80 80 80 80 80 80 80
       0.0 0.0 0.0 0.0 0.0 0.0 0.0 0.0 0.0 0.0 0.0 0.0 0.0 0.0 0.0 0.0
000050 80 80 80 80 80 80 80 80 80 80 80 80 80 80 80 80
       0.0 0.0 0.0 0.0 0.0 0.0 0.0 0.0 0.0 0.0 0.0 0.0 0.0 0.0 0.0 0.0
000060 80 80 80 80 80 80 80 80 80 80 80 80 80 80 80 80
       0.0 0.0 0.0 0.0 0.0 0.0 0.0 0.0 0.0 0.0 0.0 0.0 0.0 0.0 0.0 0.0
000070 80 80 80 80 80 80 80 80 80 80 80 80 80 80 80 80
       0.0 0.0 0.0 0.0 0.0 0.0 0.0 0.0 0.0 0.0 0.0 0.0 0.0 0.0 0.0 0.0

tfl.pseudo_qconst28 i1 [1, 10, 1, 64] scale=0.04634411 zero_point=-128
000000 80 80 80 80 80 80 80 80 80 80 80 80 80 80 80 80
       0.0 0.0 0.0 0.0 0.0 0.0 0.0 0.0 0.0 0.0 0.0 0.0 0.0 0.0 0.0 0.0
000010 80 80 80 80 80 80 80 80 80 80 80 80 80 80 80 80
       0.0 0.0 0.0 0.0 0.0 0.0 0.0 0.0 0.0 0.0 0.0 0.0 0.0 0.0 0.0 0.0
000020 80 80 80 80 80 80 80 80 80 80 80 80 80 80 80 80
       0.0 0.0 0.0 0.0 0.0 0.0 0.0 0.0 0.0 0.0 0.0 0.0 0.0 0.0 0.0 0.0
000030 80 80 80 80 80 80 80 80 80 80 80 80 80 80 80 80
       0.0 0.0 0.0 0.0 0.0 0.0 0.0 0.0 0.0 0.0 0.0 0.0 0.0 0.0 0.0 0.0
000040 80 80 80 80 80 80 80 80 80 80 80 80 80 80 80 80
       0.0 0.0 0.0 0.0 0.0 0.0 0.0 0.0 0.0 0.0 0.0 0.0 0.0 0.0 0.0 0.0
000050 80 80 80 80 80 80 80 80 80 80 80 80 80 80 80 80
       0.0 0.0 0.0 0.0 0.0 0.0 0.0 0.0 0.0 0.0 0.0 0.0 0.0 0.0 0.0 0.0
000060 80 80 80 80 80 80 80 80 80 80 80 80 80 80 80 80
       0.0 0.0 0.0 0.0 0.0 0.0 0.0 0.0 0.0 0.0 0.0 0.0 0.0 0.0 0.0 0.0
000070 80 80 80 80 80 80 80 80 80 80 80 80 80 80 80 80
       0.0 0.0 0.0 0.0 0.0 0.0 0.0 0.0 0.0 0.0 0.0 0.0 0.0 0.0 0.0 0.0
000080 80 80 80 80 80 80 80 80 80 80 80 80 80 80 80 80
       0.0 0.0 0.0 0.0 0.0 0.0 0.0 0.0 0.0 0.0 0.0 0.0 0.0 0.0 0.0 0.0
000090 80 80 80 80 80 80 80 80 80 80 80 80 80 80 80 80
       0.0 0.0 0.0 0.0 0.0 0.0 0.0 0.0 0.0 0.0 0.0 0.0 0.0 0.0 0.0 0.0
0000a0 80 80 80 80 80 80 80 80 80 80 80 80 80 80 80 80
       0.0 0.0 0.0 0.0 0.0 0.0 0.0 0.0 0.0 0.0 0.0 0.0 0.0 0.0 0.0 0.0
0000b0 80 80 80 80 80 80 80 80 80 80 80 80 80 80 80 80
       0.0 0.0 0.0 0.0 0.0 0.0 0.0 0.0 0.0 0.0 0.0 0.0 0.0 0.0 0.0 0.0
0000c0 80 80 80 80 80 80 80 80 80 80 80 80 80 80 80 80
       0.0 0.0 0.0 0.0 0.0 0.0 0.0 0.0 0.0 0.0 0.0 0.0 0.0 0.0 0.0 0.0
0000d0 80 80 80 80 80 80 80 80 80 80 80 80 80 80 80 80
       0.0 0.0 0.0 0.0 0.0 0.0 0.0 0.0 0.0 0.0 0.0 0.0 0.0 0.0 0.0 0.0
0000e0 80 80 80 80 80 80 80 80 80 80 80 80 80 80 80 80
       0.0 0.0 0.0 0.0 0.0 0.0 0.0 0.0 0.0 0.0 0.0 0.0 0.0 0.0 0.0 0.0
0000f0 80 80 80 80 80 80 80 80 80 80 80 80 80 80 80 80
       0.0 0.0 0.0 0.0 0.0 0.0 0.0 0.0 0.0 0.0 0.0 0.0 0.0 0.0 0.0 0.0

tfl.pseudo_qconst29 i1 [1, 14, 1, 64] scale=0.053031072 zero_point=-128
000000 80 80 80 80 80 80 80 80 80 80 80 80 80 80 80 80
       0.0 0.0 0.0 0.0 0.0 0.0 0.0 0.0 0.0 0.0 0.0 0.0 0.0 0.0 0.0 0.0
000010 80 80 80 80 80 80 80 80 80 80 80 80 80 80 80 80
       0.0 0.0 0.0 0.0 0.0 0.0 0.0 0.0 0.0 0.0 0.0 0.0 0.0 0.0 0.0 0.0
000020 80 80 80 80 80 80 80 80 80 80 80 80 80 80 80 80
       0.0 0.0 0.0 0.0 0.0 0.0 0.0 0.0 0.0 0.0 0.0 0.0 0.0 0.0 0.0 0.0
000030 80 80 80 80 80 80 80 80 80 80 80 80 80 80 80 80
       0.0 0.0 0.0 0.0 0.0 0.0 0.0 0.0 0.0 0.0 0.0 0.0 0.0 0.0 0.0 0.0
000040 80 80 80 80 80 80 80 80 80 80 80 80 80 80 80 80
       0.0 0.0 0.0 0.0 0.0 0.0 0.0 0.0 0.0 0.0 0.0 0.0 0.0 0.0 0.0 0.0
000050 80 80 80 80 80 80 80 80 80 80 80 80 80 80 80 80
       0.0 0.0 0.0 0.0 0.0 0.0 0.0 0.0 0.0 0.0 0.0 0.0 0.0 0.0 0.0 0.0
000060 80 80 80 80 80 80 80 80 80 80 80 80 80 80 80 80
       0.0 0.0 0.0 0.0 0.0 0.0 0.0 0.0 0.0 0.0 0.0 0.0 0.0 0.0 0.0 0.0
000070 80 80 80 80 80 80 80 80 80 80 80 80 80 80 80 80
       0.0 0.0 0.0 0.0 0.0 0.0 0.0 0.0 0.0 0.0 0.0 0.0 0.0 0.0 0.0 0.0
000080 80 80 80 80 80 80 80 80 80 80 80 80 80 80 80 80
       0.0 0.0 0.0 0.0 0.0 0.0 0.0 0.0 0.0 0.0 0.0 0.0 0.0 0.0 0.0 0.0
000090 80 80 80 80 80 80 80 80 80 80 80 80 80 80 80 80
       0.0 0.0 0.0 0.0 0.0 0.0 0.0 0.0 0.0 0.0 0.0 0.0 0.0 0.0 0.0 0.0
0000a0 80 80 80 80 80 80 80 80 80 80 80 80 80 80 80 80
       0.0 0.0 0.0 0.0 0.0 0.0 0.0 0.0 0.0 0.0 0.0 0.0 0.0 0.0 0.0 0.0
0000b0 80 80 80 80 80 80 80 80 80 80 80 80 80 80 80 80
       0.0 0.0 0.0 0.0 0.0 0.0 0.0 0.0 0.0 0.0 0.0 0.0 0.0 0.0 0.0 0.0
0000c0 80 80 80 80 80 80 80 80 80 80 80 80 80 80 80 80
       0.0 0.0 0.0 0.0 0.0 0.0 0.0 0.0 0.0 0.0 0.0 0.0 0.0 0.0 0.0 0.0
0000d0 80 80 80 80 80 80 80 80 80 80 80 80 80 80 80 80
       0.0 0.0 0.0 0.0 0.0 0.0 0.0 0.0 0.0 0.0 0.0 0.0 0.0 0.0 0.0 0.0
0000e0 80 80 80 80 80 80 80 80 80 80 80 80 80 80 80 80
       0.0 0.0 0.0 0.0 0.0 0.0 0.0 0.0 0.0 0.0 0.0 0.0 0.0 0.0 0.0 0.0
0000f0 80 80 80 80 80 80 80 80 80 80 80 80 80 80 80 80
       0.0 0.0 0.0 0.0 0.0 0.0 0.0 0.0 0.0 0.0 0.0 0.0 0.0 0.0 0.0 0.0
