microWakeWord/hey_norman.tflite (tflite, 63544 bytes, 18 tensors)

tfl.pseudo_qconst1 i1 [1, 2368] scale=0.0039498443 zero_point=0
000000 3e fe ed 2b ff 17 e2 d0 df 03 f2 a6 1b 0f d5 dd
       0.24489035 -0.007899689 -0.07504704 0.1698433 -0.0039498443 0.09084642 -0.11849533 -0.18959253 -0.13034487 0.011849533 -0.05529782 -0.35548598 0.10664579 0.059247665 -0.1698433 -0.13824455
000010 c6 fb bc 14 04 e4 dd ec f4 e6 f4 0a 18 29 dd d9
       -0.22909097 -0.01974922 -0.2685894 0.07899688 0.015799377 -0.11059564 -0.13824455 -0.07899688 -0.04739813 -0.10269595 -0.04739813 0.03949844 0.09479626 0.16194361 -0.13824455 -0.15404393
000020 04 27 f2 29 e0 e4 f9 e6 f2 0e e3 02 ec 0e eb ed
       0.015799377 0.15404393 -0.05529782 0.16194361 -0.12639502 -0.11059564 -0.02764891 -0.10269595 -0.05529782 0.05529782 -0.11454549 0.007899689 -0.07899688 0.05529782 -0.08294673 -0.07504704
000030 16 ec e9 e5 f8 e8 fb f5 05 e2 f1 de f1 2a e3 10
       0.086896576 -0.07899688 -0.09084642 -0.10664579 -0.031598754 -0.09479626 -0.01974922 -0.043448288 0.01974922 -0.11849533 -0.059247665 -0.1342947 -0.059247665 0.16589347 -0.11454549 0.06319751
000040 18 00 e7 2b 05 09 ed f1 02 fe f8 b8 20 fe e8 e3
       0.09479626 0.0 -0.098746106 0.1698433 0.01974922 0.035548598 -0.07504704 -0.059247665 0.007899689 -0.007899689 -0.031598754 -0.28438878 0.12639502 -0.007899689 -0.09479626 -0.11454549
000050 e7 f3 be 12 07 f1 e6 e9 0e 06 fc 0f 17 0a 01 de
       -0.098746106 -0.051347975 -0.26068974 0.071097195 0.02764891 -0.059247665 -0.10269595 -0.09084642 0.05529782 0.023699066 -0.015799377 0.059247665 0.09084642 0.03949844 0.0039498443 -0.1342947
000060 f9 23 fe 28 fd 02 04 f1 04 04 e8 1a e6 08 05 0c
       -0.02764891 0.13824455 -0.007899689 0.15799376 -0.011849533 0.007899689 0.015799377 -0.059247665 0.015799377 0.015799377 -0.09479626 0.10269595 -0.10269595 0.031598754 0.01974922 0.04739813
000070 09 10 f3 f4 ff ef 09 16 10 e8 ff fa f1 18 db 0f
       0.035548598 0.06319751 -0.051347975 -0.04739813 -0.0039498443 -0.06714735 0.035548598 0.086896576 0.06319751 -0.09479626 -0.0039498443 -0.023699066 -0.059247665 0.09479626 -0.14614424 0.059247665
000080 1d fe eb 26 0e fe f6 f4 ff 0f e9 d4 1c ed ec f1
       0.11454549 -0.007899689 -0.08294673 0.15009408 0.05529782 -0.007899689 -0.03949844 -0.04739813 -0.0039498443 0.059247665 -0.09084642 -0.17379315 0.11059564 -0.07504704 -0.07899688 -0.059247665
000090 e3 04 c5 10 09 fd ed f1 15 01 00 05 18 f9 ff ed
       -0.11454549 0.015799377 -0.23304081 0.06319751 0.035548598 -0.011849533 -0.07504704 -0.059247665 0.08294673 0.0039498443 0.0 0.01974922 0.09479626 -0.02764891 -0.0039498443 -0.07504704
0000a0 0e 17 e8 1e f2 12 f6 e7 09 06 e2 0a ec 0b fb 11
       0.05529782 0.09084642 -0.09479626 0.11849533 -0.05529782 0.071097195 -0.03949844 -0.098746106 0.035548598 0.023699066 -0.11849533 0.03949844 -0.07899688 0.043448288 -0.01974922 0.06714735
0000b0 01 0b f0 e7 08 ec 0e 19 0d 03 ff 04 fe 08 fc 07
       0.0039498443 0.043448288 -0.06319751 -0.098746106 0.031598754 -0.07899688 0.05529782 0.098746106 0.051347975 0.011849533 -0.0039498443 0.015799377 -0.007899689 0.031598754 -0.015799377 0.02764891
0000c0 15 fc e9 25 12 04 ff f6 03 fa f0 ea 10 e9 fb fb
       0.08294673 -0.015799377 -0.09084642 0.14614424 0.071097195 0.015799377 -0.0039498443 -0.03949844 0.011849533 -0.023699066 -0.06319751 -0.086896576 0.06319751 -0.09084642 -0.01974922 -0.01974922
0000d0 e0 ee e6 1c ff 0f ec f9 03 08 00 00 21 f8 e6 eb
       -0.12639502 -0.071097195 -0.10269595 0.11059564 -0.0039498443 0.059247665 -0.07899688 -0.02764891 0.011849533 0.031598754 0.0 0.0 0.13034487 -0.031598754 -0.10269595 -0.08294673
0000e0 10 0b e1 14 08 0c 0b f0 00 fa e2 06 06 00 0b 05
       0.06319751 0.043448288 -0.12244517 0.07899688 0.031598754 0.04739813 0.043448288 -0.06319751 0.0 -0.023699066 -0.11849533 0.023699066 0.023699066 0.0 0.043448288 0.01974922
0000f0 fc 16 f6 ee fc e1 10 10 05 00 ef fd fd fe f7 ee
       -0.015799377 0.086896576 -0.03949844 -0.071097195 -0.015799377 -0.12244517 0.06319751 0.06319751 0.01974922 0.0 -0.06714735 -0.011849533 -0.011849533 -0.007899689 -0.035548598 -0.071097195

tfl.pseudo_qconst3 i1 [64, 1, 1, 64]
000000 f6 b1 fd 16 df 57 04 07 81 45 36 c2 08 36 5d 04
       -10 -79 -3 22 -33 87 4 7 -127 69 54 -62 8 54 93 4
000010 0a ea bf af ad 2b 0b 18 28 36 1c e0 08 43 f9 d2
       10 -22 -65 -81 -83 43 11 24 40 54 28 -32 8 67 -7 -46
000020 10 56 b3 d0 05 f9 50 b8 dc 0a d9 5f 38 cc 46 04
       16 86 -77 -48 5 -7 80 -72 -36 10 -39 95 56 -52 70 4
000030 2e b3 65 8c 9b e3 87 33 0e ee da 98 9f 13 46 05
       46 -77 101 -116 -101 -29 -121 51 14 -18 -38 -104 -97 19 70 5
000040 31 ed 4f 67 15 22 20 f4 3b 02 48 0f d4 ea f4 2d
       49 -19 79 103 21 34 32 -12 59 2 72 15 -44 -22 -12 45
000050 93 98 13 1f ee ca c8 72 62 2e d7 eb 62 2b 1b 07
       -109 -104 19 31 -18 -54 -56 114 98 46 -41 -21 98 43 27 7
000060 11 3f 4a 10 fb 38 a1 8f f6 4f 18 a5 ae 48 53 fb
       17 63 74 16 -5 56 -95 -113 -10 79 24 -91 -82 72 83 -5
000070 20 d0 10 0a 53 54 af 7b d6 08 b7 8a 46 f5 81 ff
       32 -48 16 10 83 84 -81 123 -42 8 -73 -118 70 -11 -127 -1
000080 18 15 21 52 20 d2 f9 b0 1b ff ea 2d ec cd bd 1a
       24 21 33 82 32 -46 -7 -80 27 -1 -22 45 -20 -51 -67 26
000090 58 41 45 b8 3a be e0 4c 66 1d f0 2e cd c8 eb 87
       88 65 69 -72 58 -66 -32 76 102 29 -16 46 -51 -56 -21 -121
0000a0 c1 b6 7f ec 2f cb 20 1b 37 19 eb cf a8 ff 33 e8
       -63 -74 127 -20 47 -53 32 27 55 25 -21 -49 -88 -1 51 -24
0000b0 a5 41 e5 3c 39 2e fc 0c d5 59 f1 43 e7 d3 4f 0a
       -91 65 -27 60 57 46 -4 12 -43 89 -15 67 -25 -45 79 10
0000c0 35 38 3f 0e 27 07 d9 12 fa ec 0a e4 f0 fd 09 e2
       53 56 63 14 39 7 -39 18 -6 -20 10 -28 -16 -3 9 -30
0000d0 17 ca 03 21 41 7f 2d 0c 06 60 03 04 09 f5 df cb
       23 -54 3 33 65 127 45 12 6 96 3 4 9 -11 -33 -53
0000e0 06 00 0a de 1b 14 0a fc fa 01 04 de 13 f1 1a 0f
       6 0 10 -34 27 20 10 -4 -6 1 4 -34 19 -15 26 15
0000f0 a7 d2 0e f8 37 e4 d2 f2 ef ef 08 24 dc 0b 08 1f
       -89 -46 14 -8 55 -28 -46 -14 -17 -17 8 36 -36 11 8 31

tfl.pseudo_qconst5 i1 [1, 23, 1, 64]
000000 c6 10 9a da 55 dc 81 a2 c5 1a ad 81 ed 21 bc 6e
       -58 16 -102 -38 85 -36 -127 -94 -59 26 -83 -127 -19 33 -68 110
000010 7f 7f 7f 34 0a 35 64 2c ea 21 25 6e a1 65 d4 a7
       127 127 127 52 10 53 100 44 -22 33 37 110 -95 101 -44 -89
000020 56 81 7f 2e eb 93 7f 81 d0 4a 2c e9 81 a2 81 8e
       86 -127 127 46 -21 -109 127 -127 -48 74 44 -23 -127 -94 -127 -114
000030 c3 7f a6 7f 7f 30 6d 91 78 18 ba d6 81 fc d0 ec
       -61 127 -90 127 127 48 109 -111 120 24 -70 -42 -127 -4 -48 -20
000040 e1 10 ab f4 7f b2 91 ac ac e5 d6 90 27 33 9e 66
       -31 16 -85 -12 127 -78 -111 -84 -84 -27 -42 -112 39 51 -98 102
000050 57 5c 38 7f 09 48 4f f5 c5 1f 06 7f e1 56 90 8b
       87 92 56 127 9 72 79 -11 -59 31 6 127 -31 86 -112 -117
000060 53 86 74 fd e0 d7 77 b8 d9 4a 0f fe a4 90 9a 81
       83 -122 116 -3 -32 -41 119 -72 -39 74 15 -2 -92 -112 -102 -127
000070 c8 57 fd 73 6b 3e 63 89 3f 20 d7 c1 a4 d7 93 ea
       -56 87 -3 115 107 62 99 -119 63 32 -41 -63 -92 -41 -109 -22
000080 e6 cb 98 df 4d a1 a4 da ac 26 bc d2 1c 0c 81 4c
       -26 -53 -104 -33 77 -95 -92 -38 -84 38 -68 -46 28 12 -127 76
000090 0b 69 53 2f 0d 5c 15 1f 27 2b 30 48 bf 6b 81 b5
       11 105 83 47 13 92 21 31 39 43 48 72 -65 107 -127 -75
0000a0 d0 ce 78 ec f3 a5 6d fd df 25 dd 4e be d6 82 8c
       -48 -50 120 -20 -13 -91 109 -3 -33 37 -35 78 -66 -42 -126 -116
0000b0 ca 46 f6 53 49 6d 7f 95 34 3c fe b0 b8 c5 91 30
       -54 70 -10 83 73 109 127 -107 52 60 -2 -80 -72 -59 -111 48
0000c0 07 c1 c6 34 0d 93 9d f4 9f 20 e4 0e 48 24 9b 2b
       7 -63 -58 52 13 -109 -99 -12 -97 32 -28 14 72 36 -101 43
0000d0 05 7a 23 13 0b 41 38 ee 66 23 0b 11 ce 47 8d f4
       5 122 35 19 11 65 56 -18 102 35 11 17 -50 71 -115 -12
0000e0 c6 d0 4f f6 0b a6 47 f9 f6 1b 06 ee 95 e4 c1 8a
       -58 -48 79 -10 11 -90 71 -7 -10 27 6 -18 -107 -28 -63 -118
0000f0 e2 21 e4 2e 2f 33 44 ca 6f c3 d5 d8 e0 21 81 4e
       -30 33 -28 46 47 51 68 -54 111 -61 -43 -40 -32 33 -127 78

tfl.pseudo_qconst7 i1 [64, 1, 1, 64]
000000 f1 ba cf e9 ad 1c 24 e3 fd 5c 5d e6 1a 4c 0d bd
       -15 -70 -49 -23 -83 28 36 -29 -3 92 93 -26 26 76 13 -67
000010 56 09 00 72 32 e3 05 1a f0 1c 26 d4 c1 85 45 20
       86 9 0 114 50 -29 5 26 -16 28 38 -44 -63 -123 69 32
000020 f3 e9 29 a3 7f 10 3e 1d 66 d9 d9 08 10 e6 9c 21
       -13 -23 41 -93 127 16 62 29 102 -39 -39 8 16 -26 -100 33
000030 49 11 0a cb e6 f0 e7 ea 70 1e 27 16 0d d6 bf 37
       73 17 10 -53 -26 -16 -25 -22 112 30 39 22 13 -42 -65 55
000040 e8 a2 dd f6 30 ff 14 b6 09 d5 e9 81 23 c9 f9 0e
       -24 -94 -35 -10 48 -1 20 -74 9 -43 -23 -127 35 -55 -7 14
000050 2d 22 01 dd fe 39 03 4b fc e2 02 c4 e4 93 fa f1
       45 34 1 -35 -2 57 3 75 -4 -30 2 -60 -28 -109 -6 -15
000060 b5 04 26 a2 3c 67 c7 c6 18 49 c2 01 be 25 fe c1
       -75 4 38 -94 60 103 -57 -58 24 73 -62 1 -66 37 -2 -63
000070 e3 2b e9 96 d1 b6 f5 15 f9 30 f8 c8 fc 25 ab 3b
       -29 43 -23 -106 -47 -74 -11 21 -7 48 -8 -56 -4 37 -85 59
000080 0c f4 d8 09 2c 22 20 e9 c5 13 4c b9 09 88 c9 ef
       12 -12 -40 9 44 34 32 -23 -59 19 76 -71 9 -120 -55 -17
000090 d3 0c e0 a3 da 51 d2 3e 16 3d dc 13 fa ad 26 81
       -45 12 -32 -93 -38 81 -46 62 22 61 -36 19 -6 -83 38 -127
0000a0 f4 11 2e e7 1e f3 d4 13 01 3b c1 c4 dd 1e 08 9a
       -12 17 46 -25 30 -13 -44 19 1 59 -63 -60 -35 30 8 -102
0000b0 e1 1e d1 8e db 33 d4 ef ea 20 2f 51 3d 2f c3 cc
       -31 30 -47 -114 -37 51 -44 -17 -22 32 47 81 61 47 -61 -52
0000c0 e9 cf 59 30 48 13 f5 0b 55 19 0f 1b ee f6 e5 3b
       -23 -49 89 48 72 19 -11 11 85 25 15 27 -18 -10 -27 59
0000d0 5d f3 f5 d8 3b d6 24 c6 9d ea cf 1a de cb ff 7f
       93 -13 -11 -40 59 -42 36 -58 -99 -22 -49 26 -34 -53 -1 127
0000e0 fc 2e 11 12 15 f8 d9 37 c1 1c f6 ef 5d 25 e7 f4
       -4 46 17 18 21 -8 -39 55 -63 28 -10 -17 93 37 -25 -12
0000f0 a8 ca 2b d8 d9 38 e0 f0 e6 df f4 3a f6 fe c7 d3
       -88 -54 43 -40 -39 56 -32 -16 -26 -33 -12 58 -10 -2 -57 -45

tfl.pseudo_qconst9 i1 [1, 15, 1, 32]
000000 a9 c7 7f cc 81 7f 81 91 7f 7f 07 ce de 9b fe eb
       -87 -57 127 -52 -127 127 -127 -111 127 127 7 -50 -34 -101 -2 -21
000010 75 7f d3 58 a9 65 81 3d f1 65 d5 c1 14 36 05 8c
       117 127 -45 88 -87 101 -127 61 -15 101 -43 -63 20 54 5 -116
000020 a7 57 57 18 be 3c a5 95 7f 40 ff cc 0d b4 1d 18
       -89 87 87 24 -66 60 -91 -107 127 64 -1 -52 13 -76 29 24
000030 79 51 99 7f f1 44 cc 43 1b 6c 0a 01 08 2b ea b6
       121 81 -103 127 -15 68 -52 67 27 108 10 1 8 43 -22 -74
000040 a2 5c 6a f3 d6 27 bd 8d 78 08 1c d1 01 bb 3a 04
       -94 92 106 -13 -42 39 -67 -115 120 8 28 -47 1 -69 58 4
000050 6d 46 ef 41 da 6c e4 5a 19 57 35 c5 f7 17 12 81
       109 70 -17 65 -38 108 -28 90 25 87 53 -59 -9 23 18 -127
000060 bc a4 2e 3d a8 3d e6 94 2c 34 1b 10 d8 a9 e7 2a
       -68 -92 46 61 -88 61 -26 -108 44 52 27 16 -40 -87 -25 42
000070 12 2a c3 3b f9 17 38 35 fa 5b 22 a9 0d 0c 67 93
       18 42 -61 59 -7 23 56 53 -6 91 34 -87 13 12 103 -109
000080 c1 9a 45 3c ab 59 df b4 ec 71 0f d2 b2 81 d3 04
       -63 -102 69 60 -85 89 -33 -76 -20 113 15 -46 -78 -127 -45 4
000090 fd 2c 16 04 2e 79 0b 1a ed 27 34 ce e7 e3 2d a6
       -3 44 22 4 46 121 11 26 -19 39 52 -50 -25 -29 45 -90
0000a0 ff 7f 44 30 c7 5c d1 81 ef 4e 02 2c ad a2 f1 03
       -1 127 68 48 -57 92 -47 -127 -17 78 2 44 -83 -94 -15 3
0000b0 d5 fc e8 fc 1e 4e 27 07 0c 12 ce 35 c6 1c dd 01
       -43 -4 -24 -4 30 78 39 7 12 18 -50 53 -58 28 -35 1
0000c0 4b 6a 0c 41 b3 17 07 ab ab 38 eb 49 a6 21 d3 fe
       75 106 12 65 -77 23 7 -85 -85 56 -21 73 -90 33 -45 -2
0000d0 d1 f5 f1 2e 17 3d 0f 3e 06 36 af e4 ec 31 ca d7
       -47 -11 -15 46 23 61 15 62 6 54 -81 -28 -20 49 -54 -41
0000e0 20 54 23 0d ae e6 11 b5 f4 dc f9 69 d2 53 d0 fd
       32 84 35 13 -82 -26 17 -75 -12 -36 -7 105 -46 83 -48 -3
0000f0 17 f6 48 26 7f 38 e6 0a db 1d c5 e8 e6 14 91 10
       23 -10 72 38 127 56 -26 10 -37 29 -59 -24 -26 20 -111 16

tfl.pseudo_qconst11 i1 [1, 9, 1, 32]
000000 c1 2f fb 49 83 81 54 62 37 5b f8 43 95 01 25 19
       -63 47 -5 73 -125 -127 84 98 55 91 -8 67 -107 1 37 25
000010 ac 2c 81 43 39 b6 19 e6 7f c5 0f 78 a8 6f c4 ed
       -84 44 -127 67 57 -74 25 -26 127 -59 15 120 -88 111 -60 -19
000020 95 5f 56 67 97 18 51 e4 c1 b3 e0 45 0f 1d 72 81
       -107 95 86 103 -105 24 81 -28 -63 -77 -32 69 15 29 114 -127
000030 ff e0 8d 47 da d8 13 a8 61 e9 4f 7f d0 79 cd 3a
       -1 -32 -115 71 -38 -40 19 -88 97 -23 79 127 -48 121 -51 58
000040 9d 4e 6e 9d 81 2c 3a 06 eb f2 c3 1d c5 ee 42 a0
       -99 78 110 -99 -127 44 58 6 -21 -14 -61 29 -59 -18 66 -96
000050 26 dc 4d 7f 2b ad 19 08 b1 0d ef 74 2f 24 db 7f
       38 -36 77 127 43 -83 25 8 -79 13 -17 116 47 36 -37 127
000060 81 2c 7b bf 18 0b 24 09 a5 75 b7 5a 17 09 2c 2a
       -127 44 123 -65 24 11 36 9 -91 117 -73 90 23 9 44 42
000070 50 e1 1b 6a 3b e3 35 fa e6 5d 42 58 7f 7f db 4f
       80 -31 27 106 59 -29 53 -6 -26 93 66 88 127 127 -37 79
000080 f5 42 7f d3 2b 95 6d 50 8f 3e a7 10 63 1e af 36
       -11 66 127 -45 43 -107 109 80 -113 62 -89 16 99 30 -81 54
000090 63 81 43 62 28 b3 46 b9 98 65 c0 3a a7 1a 00 5b
       99 -127 67 98 40 -77 70 -71 -104 101 -64 58 -89 26 0 91
0000a0 9c f1 6c d3 fc f7 7f 1a fa bd 01 d7 d6 1f 81 13
       -100 -15 108 -45 -4 -9 127 26 -6 -67 1 -41 -42 31 -127 19
0000b0 7f 46 5e 13 2f 09 5c cc c2 7f f9 29 49 6f ec 38
       127 70 94 19 47 9 92 -52 -62 127 -7 41 73 111 -20 56
0000c0 a5 d5 31 47 49 28 52 97 1b f7 a0 b7 34 eb 98 1a
       -91 -43 49 71 73 40 82 -105 27 -9 -96 -73 52 -21 -104 26
0000d0 4b 0e 30 5d f2 e2 39 99 07 5e 64 1e 37 f7 0c ed
       75 14 48 93 -14 -30 57 -103 7 94 100 30 55 -9 12 -19
0000e0 98 c7 ec 99 2c 44 0a df 7f 73 88 81 53 d7 f0 4f
       -104 -57 -20 -103 44 68 10 -33 127 115 -120 -127 83 -41 -16 79
0000f0 51 7e 4b 27 49 7f 7f 9f fd ef 7f ec b1 5f 6c ac
       81 126 75 39 73 127 127 -97 -3 -17 127 -20 -79 95 108 -84

tfl.pseudo_qconst13 i1 [64, 1, 1, 64]
000000 1c 09 d3 d3 40 fa 68 3e 63 d4 b9 cc fc 04 10 41
       28 9 -45 -45 64 -6 104 62 99 -44 -71 -52 -4 4 16 65
000010 e7 bf ff 5e 46 94 7f 2d 67 bb 07 26 d3 fb 06 ea
       -25 -65 -1 94 70 -108 127 45 103 -69 7 38 -45 -5 6 -22
000020 09 0c 67 3f 21 d5 6b fe b8 a5 5e 10 ca dc 24 08
       9 12 103 63 33 -43 107 -2 -72 -91 94 16 -54 -36 36 8
000030 eb dd 98 1d b2 cd f6 10 f5 e5 23 8b 3c 37 2b d5
       -21 -35 -104 29 -78 -51 -10 16 -11 -27 35 -117 60 55 43 -43
000040 c6 76 83 40 06 7c ca df ee ea cd 2d ea 0f d9 24
       -58 118 -125 64 6 124 -54 -33 -18 -22 -51 45 -22 15 -39 36
000050 e8 1c ff fd f4 2b e2 3e 3a 85 e1 1e fd e1 81 f1
       -24 28 -1 -3 -12 43 -30 62 58 -123 -31 30 -3 -31 -127 -15
000060 03 f5 e1 eb b2 1e a6 fe d7 42 04 2c c2 2b 50 02
       3 -11 -31 -21 -78 30 -90 -2 -41 66 4 44 -62 43 80 2
000070 c6 10 d9 0b 28 08 06 21 d8 cd d5 0a f8 ea d0 f5
       -58 16 -39 11 40 8 6 33 -40 -51 -43 10 -8 -22 -48 -11
000080 16 cc 48 51 01 52 3c e3 05 ca a1 20 d4 e0 24 45
       22 -52 72 81 1 82 60 -29 5 -54 -95 32 -44 -32 36 69
000090 81 c4 11 60 c8 df 28 f9 0b fa 29 5d b2 e7 06 f4
       -127 -60 17 96 -56 -33 40 -7 11 -6 41 93 -78 -25 6 -12
0000a0 df 1e 20 ee d1 d6 31 ec ff f9 ff fb c4 e4 fd cd
       -33 30 32 -18 -47 -42 49 -20 -1 -7 -1 -5 -60 -28 -3 -51
0000b0 4e e9 fc 05 47 e8 ed 10 08 f9 cc b4 fb fe 4d 06
       78 -23 -4 5 71 -24 -19 16 8 -7 -52 -76 -5 -2 77 6
0000c0 42 aa 23 0f f4 6d 40 d0 57 d0 81 2e 35 0f 39 00
       66 -86 35 15 -12 109 64 -48 87 -48 -127 46 53 15 57 0
0000d0 20 6f 01 0c c7 f6 19 c3 be d5 f5 e0 1a ab c5 09
       32 111 1 12 -57 -10 25 -61 -66 -43 -11 -32 26 -85 -59 9
0000e0 a9 60 f8 e8 0f 01 0b 09 2d ca 32 30 dc ec 22 5b
       -87 96 -8 -24 15 1 11 9 45 -54 50 48 -36 -20 34 91
0000f0 f8 c4 3d 5d 0a e7 f9 0c 1a 19 a1 0e 40 ce b3 ea
       -8 -60 61 93 10 -25 -7 12 26 25 -95 14 64 -50 -77 -22

tfl.pseudo_qconst15 i1 [1, 11, 1, 32]
000000 63 00 02 78 55 b9 04 e6 b2 d4 a5 cb f4 81 d4 81
       99 0 2 120 85 -71 4 -26 -78 -44 -91 -53 -12 -127 -44 -127
000010 4a f3 d5 24 7f 08 7f b8 65 81 7f 3d 81 81 7f f6
       74 -13 -43 36 127 8 127 -72 101 -127 127 61 -127 -127 127 -10
000020 5e dc 0c 7f f6 95 d8 d7 81 2c aa eb ec c3 85 82
       94 -36 12 127 -10 -107 -40 -41 -127 44 -86 -21 -20 -61 -123 -126
000030 3a 23 17 db 25 3a 1f 9f fa 07 6b 74 bb a3 46 81
       58 35 23 -37 37 58 31 -97 -6 7 107 116 -69 -93 70 -127
000040 5f de b8 76 3e b2 81 01 a2 7f 81 81 09 b3 bf ef
       95 -34 -72 118 62 -78 -127 1 -94 127 -127 -127 9 -77 -65 -17
000050 e5 91 12 99 46 da 12 b6 38 d8 75 5f a9 9b 1d 9d
       -27 -111 18 -103 70 -38 18 -74 56 -40 117 95 -87 -101 29 -99
000060 16 d6 f1 6c f8 de b7 10 b3 5b ee a5 22 4b 50 b0
       22 -42 -15 108 -8 -34 -73 16 -77 91 -18 -91 34 75 80 -80
000070 dc b1 45 0b 6a 2f 2e 0e 4c 27 37 7f c4 df 6a a1
       -36 -79 69 11 106 47 46 14 76 39 55 127 -60 -33 106 -95
000080 4a 48 94 2d 46 81 8d 28 f9 55 e8 27 28 ff 65 d0
       74 72 -108 45 70 -127 -115 40 -7 85 -24 39 40 -1 101 -48
000090 e4 a0 19 4b 0e e7 fd e8 1f af 32 65 ea e4 2f e0
       -28 -96 25 75 14 -25 -3 -24 31 -81 50 101 -22 -28 47 -32
0000a0 e7 7f 81 12 10 f1 c6 39 b1 0c cd 2f cd 54 25 1f
       -25 127 -127 18 16 -15 -58 57 -79 12 -51 47 -51 84 37 31
0000b0 95 90 14 00 e2 79 c4 26 e8 2f d7 ef 9e cd 1d 9d
       -107 -112 20 0 -30 121 -60 38 -24 47 -41 -17 -98 -51 29 -99
0000c0 98 25 bd 22 f6 e2 26 62 ee 7e 3e 0a 23 cc 25 22
       -104 37 -67 34 -10 -30 38 98 -18 126 62 10 35 -52 37 34
0000d0 97 ac aa e2 9b 7f aa 7f f4 f3 fd b4 92 e1 15 13
       -105 -84 -86 -30 -101 127 -86 127 -12 -13 -3 -76 -110 -31 21 19
0000e0 c9 ff b6 ea 08 3b d8 73 d1 74 52 f7 2a 31 44 71
       -55 -1 -74 -22 8 59 -40 115 -47 116 82 -9 42 49 68 113
0000f0 e0 ff b7 81 dc 79 86 54 81 66 3c 85 cc 1e ec ac
       -32 -1 -73 -127 -36 121 -122 84 -127 102 60 -123 -52 30 -20 -84

tfl.pseudo_qconst17 i1 [1, 7, 1, 32]
000000 97 c6 53 e1 f6 06 60 4f f3 e9 79 c9 00 ff 7f 84
       -105 -58 83 -31 -10 6 96 79 -13 -23 121 -55 0 -1 127 -124
000010 7f f7 b8 fc 9b a8 04 7f e5 4e f3 19 ec e2 b9 7f
       127 -9 -72 -4 -101 -88 4 127 -27 78 -13 25 -20 -30 -71 127
000020 50 f4 3e c2 13 ae 52 29 81 d1 17 f2 3d e6 37 81
       80 -12 62 -62 19 -82 82 41 -127 -47 23 -14 61 -26 55 -127
000030 50 db 8f 92 d5 b3 f4 4f 11 7f 81 e2 42 81 b7 25
       80 -37 -113 -110 -43 -77 -12 79 17 127 -127 -30 66 -127 -73 37
000040 48 f6 19 81 4d b3 18 7f 9e 6e 45 37 db 2d 30 81
       72 -10 25 -127 77 -77 24 127 -98 110 69 55 -37 45 48 -127
000050 f7 cb ae 81 d7 f6 58 29 82 31 59 de 5b c8 f2 63
       -9 -53 -82 -127 -41 -10 88 41 -126 49 89 -34 91 -56 -14 99
000060 7f 41 19 10 00 f1 ac 10 18 fe 18 5c 81 7f fb f0
       127 65 25 16 0 -15 -84 16 24 -2 24 92 -127 127 -5 -16
000070 db a7 d0 b8 7f fe 7f a2 e2 16 3a 9d 7f 71 81 19
       -37 -89 -48 -72 127 -2 127 -94 -30 22 58 -99 127 113 -127 25
000080 6d 7b bc eb bd 1f cd 35 03 7f 9c 56 81 43 73 57
       109 123 -68 -21 -67 31 -51 53 3 127 -100 86 -127 67 115 87
000090 87 2c c4 f9 19 7f 70 fe 7f 8a 2b 97 1d dc bc 95
       -121 44 -60 -7 25 127 112 -2 127 -118 43 -105 29 -36 -68 -107
0000a0 16 4d 9b 7d 9e 54 81 12 c0 1d 81 7f 93 c7 55 45
       22 77 -101 125 -98 84 -127 18 -64 29 -127 127 -109 -57 85 69
0000b0 93 6f 5c ef 2a 57 4d e7 20 ba d9 ad 53 25 9e 8c
       -109 111 92 -17 42 87 77 -25 32 -70 -39 -83 83 37 -98 -116
0000c0 7a 7f 81 66 81 7f 82 d5 69 d5 c6 5c 8e b3 45 25
       122 127 -127 102 -127 127 -126 -43 105 -43 -58 92 -114 -77 69 37
0000d0 9e 7f 7f de 13 61 0b 52 f9 9f 74 81 9d f8 e3 f9
       -98 127 127 -34 19 97 11 82 -7 -97 116 -127 -99 -8 -29 -7

tfl.pseudo_qconst19 i1 [64, 1, 1, 32]
000000 81 2c 7a 0c c3 0e c0 0f 0b bb b7 50 ff 0e f9 00
       -127 44 122 12 -61 14 -64 15 11 -69 -73 80 -1 14 -7 0
000010 fe 1b 25 03 09 20 e0 cb 48 25 55 d2 3a 36 fd 2d
       -2 27 37 3 9 32 -32 -53 72 37 85 -46 58 54 -3 45
000020 fb 47 c2 1f 29 03 4c fa 27 02 d0 e8 e5 41 bc 46
       -5 71 -62 31 41 3 76 -6 39 2 -48 -24 -27 65 -68 70
000030 0d f5 06 d6 bd 1d b4 f6 25 db 81 02 07 ec 20 eb
       13 -11 6 -42 -67 29 -76 -10 37 -37 -127 2 7 -20 32 -21
000040 b3 03 12 f7 d1 04 16 b2 fb b1 eb 7f e7 bc 47 ce
       -77 3 18 -9 -47 4 22 -78 -5 -79 -21 127 -25 -68 71 -50
000050 f1 ce 44 05 98 0b e0 21 c3 0b 55 43 e4 47 54 17
       -15 -50 68 5 -104 11 -32 33 -61 11 85 67 -28 71 84 23
000060 46 e6 81 bc f0 2b b8 e8 ff df a3 e0 01 c0 df 45
       70 -26 -127 -68 -16 43 -72 -24 -1 -33 -93 -32 1 -64 -33 69
000070 3d 0f 98 2b f7 0f f7 76 1c e7 06 5f d0 d9 f8 00
       61 15 -104 43 -9 15 -9 118 28 -25 6 95 -48 -39 -8 0
000080 72 1d ec 25 3d a5 c6 06 fc 51 f8 0a db 46 03 9a
       114 29 -20 37 61 -91 -58 6 -4 81 -8 10 -37 70 3 -102
000090 f8 81 b7 e4 51 1e fd fa dc eb 4b 0b 63 3e d6 ef
       -8 -127 -73 -28 81 30 -3 -6 -36 -21 75 11 99 62 -42 -17
0000a0 20 60 99 da e9 d4 1f d8 ef ce f4 43 0b d2 35 15
       32 96 -103 -38 -23 -44 31 -40 -17 -50 -12 67 11 -46 53 21
0000b0 a0 f9 31 fe ab 10 ff 7f 0c e1 e1 21 a6 cb fb 01
       -96 -7 49 -2 -85 16 -1 127 12 -31 -31 33 -90 -53 -5 1
0000c0 fa 40 05 76 39 7f 1c ed e4 6f 38 46 f0 62 d4 05
       -6 64 5 118 57 127 28 -19 -28 111 56 70 -16 98 -44 5
0000d0 05 0a 51 fb b6 b5 f1 7a f4 fd fd e9 0e 04 db c6
       5 10 81 -5 -74 -75 -15 122 -12 -3 -3 -23 14 4 -37 -58
0000e0 f3 27 e7 81 eb 0c 12 02 22 ea 06 0c f6 e7 01 f3
       -13 39 -25 -127 -21 12 18 2 34 -22 6 12 -10 -25 1 -13
0000f0 00 05 e7 16 f8 e2 14 bb 03 e3 0d 01 06 2c ff d1
       0 5 -25 22 -8 -30 20 -69 3 -29 13 1 6 44 -1 -47

tfl.pseudo_qconst21 i1 [1, 5, 1, 32]
000000 9e 4e 72 d3 36 81 d9 7f 30 d7 2a 38 31 e3 7f f5
       -98 78 114 -45 54 -127 -39 127 48 -41 42 56 49 -29 127 -11
000010 f3 7f 3d 81 19 7f 9f 2b 81 7f b4 8e a1 05 7f 5a
       -13 127 61 -127 25 127 -97 43 -127 127 -76 -114 -95 5 127 90
000020 a4 7f 81 8b 39 9c 01 63 0d 9a 3b fd 6a 84 72 81
       -92 127 -127 -117 57 -100 1 99 13 -102 59 -3 106 -124 114 -127
000030 12 1a 7f 40 de 13 aa 51 85 0a 38 81 d4 69 bb b4
       18 26 127 64 -34 19 -86 81 -123 10 56 -127 -44 105 -69 -76
000040 ac 55 91 81 7f 97 81 78 6a e3 f0 3d 7f a9 52 ab
       -84 85 -111 -127 127 -105 -127 120 106 -29 -16 61 127 -87 82 -85
000050 d8 d8 47 78 ca e6 b5 7f e7 22 f9 bc 81 7f ad 7f
       -40 -40 71 120 -54 -26 -75 127 -25 34 -7 -68 -127 127 -83 127
000060 54 3b 86 9a 3d 16 8b 2f 7f 81 81 26 1a e0 08 82
       84 59 -122 -102 61 22 -117 47 127 -127 -127 38 26 -32 8 -126
000070 4c 97 22 e0 f9 a7 18 79 15 bf 7f a1 0d 7f bf 66
       76 -105 34 -32 -7 -89 24 121 21 -65 127 -95 13 127 -65 102
000080 7f 77 e8 fb 7c 19 d1 e1 f1 a0 6f 81 39 7f 6d 99
       127 119 -24 -5 124 25 -47 -31 -15 -96 111 -127 57 127 109 -103
000090 81 c7 de 96 7f 4e 81 3e d5 de 7f 46 f5 74 fc 0e
       -127 -57 -34 -106 127 78 -127 62 -43 -34 127 70 -11 116 -4 14

tfl.pseudo_qconst23 i1 [32, 5, 1, 40]
000000 f1 dc b7 e3 09 12 3e 1a 02 65 54 74 17 47 22 fa
       -15 -36 -73 -29 9 18 62 26 2 101 84 116 23 71 34 -6
000010 3c ea 01 f9 f5 d2 c1 c3 cc 8c 90 f4 a7 06 9f c1
       60 -22 1 -7 -11 -46 -63 -61 -52 -116 -112 -12 -89 6 -97 -63
000020 e6 d3 d1 bc 26 ef 03 04 f6 c2 e1 d7 08 0b 1b 2c
       -26 -45 -47 -68 38 -17 3 4 -10 -62 -31 -41 8 11 27 44
000030 52 6b 39 6e 22 28 19 eb 34 1e 28 16 eb 04 c8 d4
       82 107 57 110 34 40 25 -21 52 30 40 22 -21 4 -56 -44
000040 c1 d5 c1 b0 a7 e2 df 05 ca d6 e2 e0 09 fa 0e 12
       -63 -43 -63 -80 -89 -30 -33 5 -54 -42 -30 -32 9 -6 14 18
000050 f2 a0 c5 e8 22 34 39 3e 38 52 2f 73 29 72 07 03
       -14 -96 -59 -24 34 52 57 62 56 82 47 115 41 114 7 3
000060 ff 4d f3 13 06 12 f6 aa e5 08 d5 0b d3 16 0c e4
       -1 77 -13 19 6 18 -10 -86 -27 8 -43 11 -45 22 12 -28
000070 d1 07 e4 e1 0f fd 5d 13 13 ad a8 e1 f7 fd 5f 66
       -47 7 -28 -31 15 -3 93 19 19 -83 -88 -31 -9 -3 95 102
000080 1e 62 25 71 6e 57 3f ed 25 2c 36 20 0b 31 f3 e2
       30 98 37 113 110 87 63 -19 37 44 54 32 11 49 -13 -30
000090 be bc df ff d7 e4 f0 13 fd 04 0c 03 09 16 4a 2b
       -66 -68 -33 -1 -41 -28 -16 19 -3 4 12 3 9 22 74 43
0000a0 09 c4 db d9 09 05 50 52 45 4b 4e 61 67 7f 51 02
       9 -60 -37 -39 9 5 80 82 69 75 78 97 103 127 81 2
0000b0 51 6d 3c 46 1c 2c fb d6 c3 bb f9 c4 ea 05 e5 04
       81 109 60 70 28 44 -5 -42 -61 -69 -7 -60 -22 5 -27 4
0000c0 05 f4 cb 09 0e 0e 53 3e 32 d2 0d 68 d6 df 29 c4
       5 -12 -53 9 14 14 83 62 50 -46 13 104 -42 -33 41 -60
0000d0 d5 e1 05 0a ff f2 d9 08 17 d8 f1 0d 3b 6a ff fb
       -43 -31 5 10 -1 -14 -39 8 23 -40 -15 13 59 106 -1 -5
0000e0 fb fe b0 10 c0 c2 03 bc 00 31 ef f7 bb 0f b8 c7
       -5 -2 -80 16 -64 -62 3 -68 0 49 -17 -9 -69 15 -72 -57
0000f0 01 e2 14 38 e6 1b e5 c8 c0 ff 08 48 2a db 05 ee
       1 -30 20 56 -26 27 -27 -56 -64 -1 8 72 42 -37 5 -18

tfl.pseudo_qconst24 i1 [1, 22, 1, 64] scale=0.03566462 zero_point=-128
000000 80 80 80 80 80 80 80 80 80 80 80 80 80 80 80 80
       0.0 0.0 0.0 0.0 0.0 0.0 0.0 0.0 0.0 0.0 0.0 0.0 0.0 0.0 0.0 0.0
000010 80 80 80 80 80 80 80 80 80 80 80 80 80 80 80 80
       0.0 0.0 0.0 0.0 0.0 0.0 0.0 0.0 0.0 0.0 0.0 0.0 0.0 0.0 0.0 0.0
000020 80 80 80 80 80 80 80 80 80 80 80 80 80 80 80 80
       0.0 0.0 0.0 0.0 0.0 0.0 0.0 0.0 0.0 0.0 0.0 0.0 0.0 0.0 0.0 0.0
000030 80 80 80 80 80 80 80 80 80 80 80 80 80 80 80 80
       0.0 0.0 0.0 0.0 0.0 0.0 0.0 0.0 0.0 0.0 0.0 0.0 0.0 0.0 0.0 0.0
000040 80 80 80 80 80 80 80 80 80 80 80 80 80 80 80 80
       0.0 0.0 0.0 0.0 0.0 0.0 0.0 0.0 0.0 0.0 0.0 0.0 0.0 0.0 0.0 0.0
000050 80 80 80 80 80 80 80 80 80 80 80 80 80 80 80 80
       0.0 0.0 0.0 0.0 0.0 0.0 0.0 0.0 0.0 0.0 0.0 0.0 0.0 0.0 0.0 0.0
000060 80 80 80 80 80 80 80 80 80 80 80 80 80 80 80 80
       0.0 0.0 0.0 0.0 0.0 0.0 0.0 0.0 0.0 0.0 0.0 0.0 0.0 0.0 0.0 0.0
000070 80 80 80 80 80 80 80 80 80 80 80 80 80 80 80 80
       0.0 0.0 0.0 0.0 0.0 0.0 0.0 0.0 0.0 0.0 0.0 0.0 0.0 0.0 0.0 0.0
000080 80 80 80 80 80 80 80 80 80 80 80 80 80 80 80 80
       0.0 0.0 0.0 0.0 0.0 0.0 0.0 0.0 0.0 0.0 0.0 0.0 0.0 0.0 0.0 0.0
000090 80 80 80 80 80 80 80 80 80 80 80 80 80 80 80 80
       0.0 0.0 0.0 0.0 0.0 0.0 0.0 0.0 0.0 0.0 0.0 0.0 0.0 0.0 0.0 0.0
0000a0 80 80 80 80 80 80 80 80 80 80 80 80 80 80 80 80
       0.0 0.0 0.0 0.0 0.0 0.0 0.0 0.0 0.0 0.0 0.0 0.0 0.0 0.0 0.0 0.0
0000b0 80 80 80 80 80 80 80 80 80 80 80 80 80 80 80 80
       0.0 0.0 0.0 0.0 0.0 0.0 0.0 0.0 0.0 0.0 0.0 0.0 0.0 0.0 0.0 0.0
0000c0 80 80 80 80 80 80 80 80 80 80 80 80 80 80 80 80
       0.0 0.0 0.0 0.0 0.0 0.0 0.0 0.0 0.0 0.0 0.0 0.0 0.0 0.0 0.0 0.0
0000d0 80 80 80 80 80 80 80 80 80 80 80 80 80 80 80 80
       0.0 0.0 0.0 0.0 0.0 0.0 0.0 0.0 0.0 0.0 0.0 0.0 0.0 0.0 0.0 0.0
0000e0 80 80 80 80 80 80 80 80 80 80 80 80 80 80 80 80
       0.0 0.0 0.0 0.0 0.0 0.0 0.0 0.0 0.0 0.0 0.0 0.0 0.0 0.0 0.0 0.0
0000f0 80 80 80 80 80 80 80 80 80 80 80 80 80 80 80 80
       0.0 0.0 0.0 0.0 0.0 0.0 0.0 0.0 0.0 0.0 0.0 0.0 0.0 0.0 0.0 0.0

tfl.pseudo_qconst25 i1 [1, 36, 1, 64] scale=0.021313325 zero_point=-128
000000 80 80 80 80 80 80 80 80 80 80 80 80 80 80 80 80
       0.0 0.0 0.0 0.0 0.0 0.0 0.0 0.0 0.0 0.0 0.0 0.0 0.0 0.0 0.0 0.0
000010 80 80 80 80 80 80 80 80 80 80 80 80 80 80 80 80
       0.0 0.0 0.0 0.0 0.0 0.0 0.0 0.0 0.0 0.0 0.0 0.0 0.0 0.0 0.0 0.0
000020 80 80 80 80 80 80 80 80 80 80 80 80 80 80 80 80
       0.0 0.0 0.0 0.0 0.0 0.0 0.0 0.0 0.0 0.0 0.0 0.0 0.0 0.0 0.0 0.0
000030 80 80 80 80 80 80 80 80 80 80 80 80 80 80 80 80
       0.0 0.0 0.0 0.0 0.0 0.0 0.0 0.0 0.0 0.0 0.0 0.0 0.0 0.0 0.0 0.0
000040 80 80 80 80 80 80 80 80 80 80 80 80 80 80 80 80
       0.0 0.0 0.0 0.0 0.0 0.0 0.0 0.0 0.0 0.0 0.0 0.0 0.0 0.0 0.0 0.0
000050 80 80 80 80 80 80 80 80 80 80 80 80 80 80 80 80
       0.0 0.0 0.0 0.0 0.0 0.0 0.0 0.0 0.0 0.0 0.0 0.0 0.0 0.0 0.0 0.0
000060 80 80 80 80 80 80 80 80 80 80 80 80 80 80 80 80
       0.0 0.0 0.0 0.0 0.0 0.0 0.0 0.0 0.0 0.0 0.0 0.0 0.0 0.0 0.0 0.0
000070 80 80 80 80 80 80 80 80 80 80 80 80 80 80 80 80
       0.0 0.0 0.0 0.0 0.0 0.0 0.0 0.0 0.0 0.0 0.0 0.0 0.0 0.0 0.0 0.0
000080 80 80 80 80 80 80 80 80 80 80 80 80 80 80 80 80
       0.0 0.0 0.0 0.0 0.0 0.0 0.0 0.0 0.0 0.0 0.0 0.0 0.0 0.0 0.0 0.0
000090 80 80 80 80 80 80 80 80 80 80 80 80 80 80 80 80
       0.0 0.0 0.0 0.0 0.0 0.0 0.0 0.0 0.0 0.0 0.0 0.0 0.0 0.0 0.0 0.0
0000a0 80 80 80 80 80 80 80 80 80 80 80 80 80 80 80 80
       0.0 0.0 0.0 0.0 0.0 0.0 0.0 0.0 0.0 0.0 0.0 0.0 0.0 0.0 0.0 0.0
0000b0 80 80 80 80 80 80 80 80 80 80 80 80 80 80 80 80
       0.0 0.0 0.0 0.0 0.0 0.0 0.0 0.0 0.0 0.0 0.0 0.0 0.0 0.0 0.0 0.0
0000c0 80 80 80 80 80 80 80 80 80 80 80 80 80 80 80 80
       0.0 0.0 0.0 0.0 0.0 0.0 0.0 0.0 0.0 0.0 0.0 0.0 0.0 0.0 0.0 0.0
0000d0 80 80 80 80 80 80 80 80 80 80 80 80 80 80 80 80
       0.0 0.0 0.0 0.0 0.0 0.0 0.0 0.0 0.0 0.0 0.0 0.0 0.0 0.0 0.0 0.0
0000e0 80 80 80 80 80 80 80 80 80 80 80 80 80 80 80 80
       0.0 0.0 0.0 0.0 0.0 0.0 0.0 0.0 0.0 0.0 0.0 0.0 0.0 0.0 0.0 0.0
0000f0 80 80 80 80 80 80 80 80 80 80 80 80 80 80 80 80
       0.0 0.0 0.0 0.0 0.0 0.0 0.0 0.0 0.0 0.0 0.0 0.0 0.0 0.0 0.0 0.0

tfl.pseudo_qconst26 i1 [1, 3, 1, 40] scale=0.101960786 zero_point=-128
000000 80 80 80 80 80 80 80 80 80 80 80 80 80 80 80 80
       0.0 0.0 0.0 0.0 0.0 0.0 0.0 0.0 0.0 0.0 0.0 0.0 0.0 0.0 0.0 0.0
000010 80 80 80 80 80 80 80 80 80 80 80 80 80 80 80 80
       0.0 0.0 0.0 0.0 0.0 0.0 0.0 0.0 0.0 0.0 0.0 0.0 0.0 0.0 0.0 0.0
000020 80 80 80 80 80 80 80 80 80 80 80 80 80 80 80 80
       0.0 0.0 0.0 0.0 0.0 0.0 0.0 0.0 0.0 0.0 0.0 0.0 0.0 0.0 0.0 0.0
000030 80 80 80 80 80 80 80 80 80 80 80 80 80 80 80 80
       0.0 0.0 0.0 0.0 0.0 0.0 0.0 0.0 0.0 0.0 0.0 0.0 0.0 0.0 0.0 0.0
000040 80 80 80 80 80 80 80 80 80 80 80 80 80 80 80 80
       0.0 0.0 0.0 0.0 0.0 0.0 0.0 0.0 0.0 0.0 0.0 0.0 0.0 0.0 0.0 0.0
000050 80 80 80 80 80 80 80 80 80 80 80 80 80 80 80 80
       0.0 0.0 0.0 0.0 0.0 0.0 0.0 0.0 0.0 0.0 0.0 0.0 0.0 0.0 0.0 0.0
000060 80 80 80 80 80 80 80 80 80 80 80 80 80 80 80 80
       0.0 0.0 0.0 0.0 0.0 0.0 0.0 0.0 0.0 0.0 0.0 0.0 0.0 0.0 0.0 0.0
000070 80 80 80 80 80 80 80 80
       0.0 0.0 0.0 0.0 0.0 0.0 0.0 0.0

tfl.pseudo_qconst27 i1 [1, 4, 1, 32] scale=1.0715611 zero_point=-128
000000 80 80 80 80 80 80 80 80 80 80 80 80 80 80 80 80
       0.0 0.0 0.0 0.0 0.0 0.0 0.0 0.0 0.0 0.0 0.0 0.0 0.0 0.0 0.0 0.0
000010 80 80 80 80 80 80 80 80 80 80 80 80 80 80 80 80
       0.0 0.0 0.0 0.0 0.0 0.0 0.0 0.0 0.0 0.0 0.0 0.0 0.0 0.0 0.0 0.0
000020 80 80 80 80 80 80 80 80 80 80 80 80 80 80 80 80
       0.0 0.0 0.0 0.0 0.0 0.0 0.0 0.0 0.0 0.0 0.0 0.0 0.0 0.0 0.0 0.0
000030 80 80 80 80 80 80 80 80 80 80 80 80 80 80 80 80
       0.0 0.0 0.0 0.0 0.0 0.0 0.0 0.0 0.0 0.0 0.0 0.0 0.0 0.0 0.0 0.0
000040 80 80 80 80 80 80 80 80 80 80 80 80 80 80 80 80
       0.0 0.0 0.0 0.0 0.0 0.0 0.0 0.0 0.0 0.0 0.0 0.0 0.0 0.0 0.0 0.0
000050 80 80 80 80 80 80 80 80 80 80 80 80 80 80 80 80
       0.0 0.0 0.0 0.0 0.0 0.0 0.0 0.0 0.0 0.0 0.0 0.0 0.0 0.0 0.0 0.0
000060 80 80 80 80 80 80 80 80 80 80 80 80 80 80 80 80
       0.0 0.0 0.0 0.0 0.0 0.0 0.0 0.0 0.0 0.0 0.0 0.0 0.0 0.0 0.0 0.0
000070 80 80 80 80 80 80 80 80 80 80 80 80 80 80 80 80
       0.0 0.0 0.0 0.0 0.0 0.0 0.0 0.0 0.0 0.0 0.0 0.0 0.0 0.0 0.0 0.0

tfl.pseudo_qconst28 i1 [1, 10, 1, 64] scale=0.043669287 zero_point=-128
000000 80 80 80 80 80 80 80 80 80 80 80 80 80 80 80 80
       0.0 0.0 0.0 0.0 0.0 0.0 0.0 0.0 0.0 0.0 0.0 0.0 0.0 0.0 0.0 0.0
000010 80 80 80 80 80 80 80 80 80 80 80 80 80 80 80 80
       0.0 0.0 0.0 0.0 0.0 0.0 0.0 0.0 0.0 0.0 0.0 0.0 0.0 0.0 0.0 0.0
000020 80 80 80 80 80 80 80 80 80 80 80 80 80 80 80 80
       0.0 0.0 0.0 0.0 0.0 0.0 0.0 0.0 0.0 0.0 0.0 0.0 0.0 0.0 0.0 0.0
000030 80 80 80 80 80 80 80 80 80 80 80 80 80 80 80 80
       0.0 0.0 0.0 0.0 0.0 0.0 0.0 0.0 0.0 0.0 0.0 0.0 0.0 0.0 0.0 0.0
000040 80 80 80 80 80 80 80 80 80 80 80 80 80 80 80 80
       0.0 0.0 0.0 0.0 0.0 0.0 0.0 0.0 0.0 0.0 0.0 0.0 0.0 0.0 0.0 0.0
000050 80 80 80 80 80 80 80 80 80 80 80 80 80 80 80 80
       0.0 0.0 0.0 0.0 0.0 0.0 0.0 0.0 0.0 0.0 0.0 0.0 0.0 0.0 0.0 0.0
000060 80 80 80 80 80 80 80 80 80 80 80 80 80 80 80 80
       0.0 0.0 0.0 0.0 0.0 0.0 0.0 0.0 0.0 0.0 0.0 0.0 0.0 0.0 0.0 0.0
000070 80 80 80 80 80 80 80 80 80 80 80 80 80 80 80 80
       0.0 0.0 0.0 0.0 0.0 0.0 0.0 0.0 0.0 0.0 0.0 0.0 0.0 0.0 0.0 0.0
000080 80 80 80 80 80 80 80 80 80 80 80 80 80 80 80 80
       0.0 0.0 0.0 0.0 0.0 0.0 0.0 0.0 0.0 0.0 0.0 0.0 0.0 0.0 0.0 0.0
000090 80 80 80 80 80 80 80 80 80 80 80 80 80 80 80 80
       0.0 0.0 0.0 0.0 0.0 0.0 0.0 0.0 0.0 0.0 0.0 0.0 0.0 0.0 0.0 0.0
0000a0 80 80 80 80 80 80 80 80 80 80 80 80 80 80 80 80
       0.0 0.0 0.0 0.0 0.0 0.0 0.0 0.0 0.0 0.0 0.0 0.0 0.0 0.0 0.0 0.0
0000b0 80 80 80 80 80 80 80 80 80 80 80 80 80 80 80 80
       0.0 0.0 0.0 0.0 0.0 0.0 0.0 0.0 0.0 0.0 0.0 0.0 0.0 0.0 0.0 0.0
0000c0 80 80 80 80 80 80 80 80 80 80 80 80 80 80 80 80
       0.0 0.0 0.0 0.0 0.0 0.0 0.0 0.0 0.0 0.0 0.0 0.0 0.0 0.0 0.0 0.0
0000d0 80 80 80 80 80 80 80 80 80 80 80 80 80 80 80 80
       0.0 0.0 0.0 0.0 0.0 0.0 0.0 0.0 0.0 0.0 0.0 0.0 0.0 0.0 0.0 0.0
0000e0 80 80 80 80 80 80 80 80 80 80 80 80 80 80 80 80
       0.0 0.0 0.0 0.0 0.0 0.0 0.0 0.0 0.0 0.0 0.0 0.0 0.0 0.0 0.0 0.0
0000f0 80 80 80 80 80 80 80 80 80 80 80 80 80 80 80 80
       0.0 0.0 0.0 0.0 0.0 0.0 0.0 0.0 0.0 0.0 0.0 0.0 0.0 0.0 0.0 0.0

tfl.pseudo_qconst29 i1 [1, 14, 1, 64] scale=0.040579874 zero_point=-128
000000 80 80 80 80 80 80 80 80 80 80 80 80 80 80 80 80
       0.0 0.0 0.0 0.0 0.0 0.0 0.0 0.0 0.0 0.0 0.0 0.0 0.0 0.0 0.0 0.0
000010 80 80 80 80 80 80 80 80 80 80 80 80 80 80 80 80
       0.0 0.0 0.0 0.0 0.0 0.0 0.0 0.0 0.0 0.0 0.0 0.0 0.0 0.0 0.0 0.0
000020 80 80 80 80 80 80 80 80 80 80 80 80 80 80 80 80
       0.0 0.0 0.0 0.0 0.0 0.0 0.0 0.0 0.0 0.0 0.0 0.0 0.0 0.0 0.0 0.0
000030 80 80 80 80 80 80 80 80 80 80 80 80 80 80 80 80
       0.0 0.0 0.0 0.0 0.0 0.0 0.0 0.0 0.0 0.0 0.0 0.0 0.0 0.0 0.0 0.0
000040 80 80 80 80 80 80 80 80 80 80 80 80 80 80 80 80
       0.0 0.0 0.0 0.0 0.0 0.0 0.0 0.0 0.0 0.0 0.0 0.0 0.0 0.0 0.0 0.0
000050 80 80 80 80 80 80 80 80 80 80 80 80 80 80 80 80
       0.0 0.0 0.0 0.0 0.0 0.0 0.0 0.0 0.0 0.0 0.0 0.0 0.0 0.0 0.0 0.0
000060 80 80 80 80 80 80 80 80 80 80 80 80 80 80 80 80
       0.0 0.0 0.0 0.0 0.0 0.0 0.0 0.0 0.0 0.0 0.0 0.0 0.0 0.0 0.0 0.0
000070 80 80 80 80 80 80 80 80 80 80 80 80 80 80 80 80
       0.0 0.0 0.0 0.0 0.0 0.0 0.0 0.0 0.0 0.0 0.0 0.0 0.0 0.0 0.0 0.0
000080 80 80 80 80 80 80 80 80 80 80 80 80 80 80 80 80
       0.0 0.0 0.0 0.0 0.0 0.0 0.0 0.0 0.0 0.0 0.0 0.0 0.0 0.0 0.0 0.0
000090 80 80 80 80 80 80 80 80 80 80 80 80 80 80 80 80
       0.0 0.0 0.0 0.0 0.0 0.0 0.0 0.0 0.0 0.0 0.0 0.0 0.0 0.0 0.0 0.0
0000a0 80 80 80 80 80 80 80 80 80 80 80 80 80 80 80 80
       0.0 0.0 0.0 0.0 0.0 0.0 0.0 0.0 0.0 0.0 0.0 0.0 0.0 0.0 0.0 0.0
0000b0 80 80 80 80 80 80 80 80 80 80 80 80 80 80 80 80
       0.0 0.0 0.0 0.0 0.0 0.0 0.0 0.0 0.0 0.0 0.0 0.0 0.0 0.0 0.0 0.0
0000c0 80 80 80 80 80 80 80 80 80 80 80 80 80 80 80 80
       0.0 0.0 0.0 0.0 0.0 0.0 0.0 0.0 0.0 0.0 0.0 0.0 0.0 0.0 0.0 0.0
0000d0 80 80 80 80 80 80 80 80 80 80 80 80 80 80 80 80
       0.0 0.0 0.0 0.0 0.0 0.0 0.0 0.0 0.0 0.0 0.0 0.0 0.0 0.0 0.0 0.0
0000e0 80 80 80 80 80 80 80 80 80 80 80 80 80 80 80 80
       0.0 0.0 0.0 0.0 0.0 0.0 0.0 0.0 0.0 0.0 0.0 0.0 0.0 0.0 0.0 0.0
0000f0 80 80 80 80 80 80 80 80 80 80 80 80 80 80 80 80
       0.0 0.0 0.0 0.0 0.0 0.0 0.0 0.0 0.0 0.0 0.0 0.0 0.0 0.0 0.0 0.0
