microWakeWord/hey_norman.tflite (tflite, 127096 bytes, 18 tensors)

tfl.pseudo_qconst1 i1 [1, 4736] scale=0.0035469865 zero_point=0
000000 fc 0d 0c f6 f0 f1 ed ed 24 1a df ef f0 03 0d 02
       -0.014187946 0.046110824 0.042563837 -0.035469864 -0.056751784 -0.053204797 -0.067392744 -0.067392744 0.1276915 0.09222165 -0.11705055 -0.06029877 -0.056751784 0.010640959 0.046110824 0.007093973
000010 ff ef 0a f2 f5 f6 da f8 0e f2 d2 0e 06 f8 0d fc
       -0.0035469865 -0.06029877 0.035469864 -0.04965781 -0.03901685 -0.035469864 -0.13478549 -0.028375892 0.04965781 -0.04965781 -0.16316138 0.04965781 0.021281919 -0.028375892 0.046110824 -0.014187946
000020 e2 d7 e1 fd 0b 14 cf ee f3 11 ef c8 f7 d0 f8 ee
       -0.106409594 -0.14542645 -0.109956585 -0.010640959 0.03901685 0.07093973 -0.17380233 -0.06384575 -0.046110824 0.06029877 -0.06029877 -0.19863124 -0.031922877 -0.17025535 -0.028375892 -0.06384575
000030 f4 f9 f0 f4 fb da f0 fa ed fe f7 ed 04 e6 00 ca
       -0.042563837 -0.024828905 -0.056751784 -0.042563837 -0.017734932 -0.13478549 -0.056751784 -0.021281919 -0.067392744 -0.007093973 -0.031922877 -0.067392744 0.014187946 -0.09222165 0.0 -0.19153728
000040 d8 e7 eb d6 f4 f2 fd 02 f0 04 ec f6 10 ed 06 01
       -0.14187945 -0.088674664 -0.07448672 -0.14897344 -0.042563837 -0.04965781 -0.010640959 0.007093973 -0.056751784 0.014187946 -0.07093973 -0.035469864 0.056751784 -0.067392744 0.021281919 0.0035469865
000050 10 fb f9 fd fd ef ea 00 eb f9 fe e6 e3 01 08 e3
       0.056751784 -0.017734932 -0.024828905 -0.010640959 -0.010640959 -0.06029877 -0.0780337 0.0 -0.07448672 -0.024828905 -0.007093973 -0.09222165 -0.10286261 0.0035469865 0.028375892 -0.10286261
000060 fd dc dd b9 f1 f2 fb f4 fa 07 f0 01 fd 0b ec 0d
       -0.010640959 -0.1276915 -0.124144524 -0.25183603 -0.053204797 -0.04965781 -0.017734932 -0.042563837 -0.021281919 0.024828905 -0.056751784 0.0035469865 -0.010640959 0.03901685 -0.07093973 0.046110824
000070 d8 ee fe db f1 f0 fa ea e4 0e fb 03 f7 06 fc e1
       -0.14187945 -0.06384575 -0.007093973 -0.1312385 -0.053204797 -0.056751784 -0.021281919 -0.0780337 -0.09931562 0.04965781 -0.017734932 0.010640959 -0.031922877 0.021281919 -0.014187946 -0.109956585
000080 f4 0a 07 00 f8 fc df f3 1d 19 e2 fe fe 0e 0e 07
       -0.042563837 0.035469864 0.024828905 0.0 -0.028375892 -0.014187946 -0.11705055 -0.046110824 0.10286261 0.088674664 -0.106409594 -0.007093973 -0.007093973 0.04965781 0.04965781 0.024828905
000090 f8 f3 0a ee f6 f5 e9 04 05 f4 ee 04 fc 07 04 0a
       -0.028375892 -0.046110824 0.035469864 -0.06384575 -0.035469864 -0.03901685 -0.08158069 0.014187946 0.017734932 -0.042563837 -0.06384575 0.014187946 -0.014187946 0.024828905 0.014187946 0.035469864
0000a0 ee ea ea ff 06 0c d7 f0 02 15 f2 ec f7 f0 0d 05
       -0.06384575 -0.0780337 -0.0780337 -0.0035469865 0.021281919 0.042563837 -0.14542645 -0.056751784 0.007093973 0.07448672 -0.04965781 -0.07093973 -0.031922877 -0.056751784 0.046110824 0.017734932
0000b0 f8 fe fc f6 fd eb fb fa 08 fd fc fb fb e7 02 f1
       -0.028375892 -0.007093973 -0.014187946 -0.035469864 -0.010640959 -0.07448672 -0.017734932 -0.021281919 0.028375892 -0.010640959 -0.014187946 -0.017734932 -0.017734932 -0.088674664 0.007093973 -0.053204797
0000c0 ed f8 fb e8 f0 0d 06 09 f2 04 fa 02 1c ed 05 fe
       -0.067392744 -0.028375892 -0.017734932 -0.085127674 -0.056751784 0.046110824 0.021281919 0.031922877 -0.04965781 0.014187946 -0.021281919 0.007093973 0.09931562 -0.067392744 0.017734932 -0.007093973
0000d0 10 02 fe f4 06 00 ff fb 03 f3 01 f4 fa 09 0f f8
       0.056751784 0.007093973 -0.007093973 -0.042563837 0.021281919 0.0 -0.0035469865 -0.017734932 0.010640959 -0.046110824 0.0035469865 -0.042563837 -0.021281919 0.031922877 0.053204797 -0.028375892
0000e0 0d e4 ed d0 ff 00 0a ee 0a 02 ff 07 08 06 f7 06
       0.046110824 -0.09931562 -0.067392744 -0.17025535 -0.0035469865 0.0 0.035469864 -0.06384575 0.035469864 0.007093973 -0.0035469865 0.024828905 0.028375892 0.021281919 -0.031922877 0.021281919
0000f0 ee fd 09 f2 f6 03 fe fb ec 13 02 fa 05 0c fb f0
       -0.06384575 -0.010640959 0.031922877 -0.04965781 -0.035469864 0.010640959 -0.007093973 -0.017734932 -0.07093973 0.067392744 0.007093973 -0.021281919 0.017734932 0.042563837 -0.017734932 -0.056751784

tfl.pseudo_qconst3 i1 [128, 1, 1, 128]
000000 ad 48 0e 17 be fd ce a3 1d 3f b8 42 8b b4 b7 26
       -83 72 14 23 -66 -3 -50 -93 29 63 -72 66 -117 -76 -73 38
000010 07 1d b7 b8 ec 1d 31 e1 e7 9e f8 ff f4 b5 b3 0a
       7 29 -73 -72 -20 29 49 -31 -25 -98 -8 -1 -12 -75 -77 10
000020 f1 10 01 ed dc 7f 2a 99 fa f6 e1 02 be 16 d5 e7
       -15 16 1 -19 -36 127 42 -103 -6 -10 -31 2 -66 22 -43 -25
000030 e9 3a d5 45 9c d5 00 30 ba 46 90 ca b3 05 f0 39
       -23 58 -43 69 -100 -43 0 48 -70 70 -112 -54 -77 5 -16 57
000040 14 f4 12 1b 3c 07 19 ae dd b2 d0 12 d9 3f 03 30
       20 -12 18 27 60 7 25 -82 -35 -78 -48 18 -39 63 3 48
000050 ef 18 d4 0a be c8 59 44 b5 09 92 ed 22 f7 44 f9
       -17 24 -44 10 -66 -56 89 68 -75 9 -110 -19 34 -9 68 -7
000060 fa fe c2 4d 0e d7 9c 49 f4 15 27 7b 47 ca cf e6
       -6 -2 -62 77 14 -41 -100 73 -12 21 39 123 71 -54 -49 -26
000070 1b 25 b2 f8 a2 c0 d0 4a 4b cc e1 28 c1 17 f0 6f
       27 37 -78 -8 -94 -64 -48 74 75 -52 -31 40 -63 23 -16 111
000080 0f fa 3e 07 d5 e9 15 1a d2 ed f1 05 cb 30 f9 1f
       15 -6 62 7 -43 -23 21 26 -46 -19 -15 5 -53 48 -7 31
000090 e9 e5 c7 af d6 b9 f0 e6 d8 0d d1 00 12 14 9c 18
       -23 -27 -57 -81 -42 -71 -16 -26 -40 13 -47 0 18 20 -100 24
0000a0 f2 ee 01 25 04 34 f4 da f3 35 32 f9 fb 1c 05 e9
       -14 -18 1 37 4 52 -12 -38 -13 53 50 -7 -5 28 5 -23
0000b0 49 b1 c8 1a 26 1e b1 5c da 10 c0 01 f9 02 29 5e
       73 -79 -56 26 38 30 -79 92 -38 16 -64 1 -7 2 41 94
0000c0 15 ff eb eb f8 ed 1b 09 0f e6 2e 81 44 2a f9 f7
       21 -1 -21 -21 -8 -19 27 9 15 -26 46 -127 68 42 -7 -9
0000d0 f6 e4 2d 04 ea 0d f3 a8 0f e3 2b 0d 25 0e 30 ff
       -10 -28 45 4 -22 13 -13 -88 15 -29 43 13 37 14 48 -1
0000e0 da bc 22 b0 fa 03 1f 1b 1e dd f1 0d ee 36 cc ed
       -38 -68 34 -80 -6 3 31 27 30 -35 -15 13 -18 54 -52 -19
0000f0 1b c6 1a 0a 1c f3 ee fd f0 f8 2e 16 16 cd cd 30
       27 -58 26 10 28 -13 -18 -3 -16 -8 46 22 22 -51 -51 48

tfl.pseudo_qconst5 i1 [1, 25, 1, 128]
000000 52 ed 4c eb 5d c2 9a a4 24 7f 46 27 2c 81 45 55
       82 -19 76 -21 93 -62 -102 -92 36 127 70 39 44 -127 69 85
000010 15 eb 67 36 22 c7 13 7f ca 69 5b db 9b 22 7f b1
       21 -21 103 54 34 -57 19 127 -54 105 91 -37 -101 34 127 -79
000020 d1 ee 06 a4 06 4a 77 81 e8 e6 04 00 7f 7f f6 7a
       -47 -18 6 -92 6 74 119 -127 -24 -26 4 0 127 127 -10 122
000030 ad 7f 28 57 d3 af 07 81 02 d7 2e e1 4f 76 e3 83
       -83 127 40 87 -45 -81 7 -127 2 -41 46 -31 79 118 -29 -125
000040 81 a0 93 a6 81 86 0e 24 cc f8 3b dd 9d ae 48 fc
       -127 -96 -109 -90 -127 -122 14 36 -52 -8 59 -35 -99 -82 72 -4
000050 12 18 f8 2d 7f 70 26 7f f1 bd 81 1f 1b d3 91 f6
       18 24 -8 45 127 112 38 127 -15 -67 -127 31 27 -45 -111 -10
000060 76 2b 74 e9 cd 61 b7 81 41 81 97 59 8e e9 57 63
       118 43 116 -23 -51 97 -73 -127 65 -127 -105 89 -114 -23 87 99
000070 7f 3e c1 81 cc d8 81 7f b6 a6 0b f7 18 56 06 c2
       127 62 -63 -127 -52 -40 -127 127 -74 -90 11 -9 24 86 6 -62
000080 23 e9 70 ff 3a dd 96 81 fe 7b 4f 24 18 a1 37 26
       35 -23 112 -1 58 -35 -106 -127 -2 123 79 36 24 -95 55 38
000090 e6 eb 7f 26 ef ea 14 73 b8 51 5b 37 81 f9 4f c9
       -26 -21 127 38 -17 -22 20 115 -72 81 91 55 -127 -7 79 -55
0000a0 95 db 2f a9 1f 09 6c 95 1b ee d3 02 71 5c bb 7f
       -107 -37 47 -87 31 9 108 -107 27 -18 -45 2 113 92 -69 127
0000b0 a3 6e eb 7f c8 89 21 a2 11 a2 3f de 33 40 d9 81
       -93 110 -21 127 -56 -119 33 -94 17 -94 63 -34 51 64 -39 -127
0000c0 8f ac a9 90 dc 81 d3 34 bc a9 34 39 b6 ba 5f db
       -113 -84 -87 -112 -36 -127 -45 52 -68 -87 52 57 -74 -70 95 -37
0000d0 2d a9 ca 1d 3f 56 28 35 f6 fc a6 02 e4 07 81 bc
       45 -87 -54 29 63 86 40 53 -10 -4 -90 2 -28 7 -127 -68
0000e0 56 24 30 e6 11 1e f8 b3 14 cf 81 7f db 92 7f 6e
       86 36 48 -26 17 30 -8 -77 20 -49 -127 127 -37 -110 127 110
0000f0 66 2f ee a0 a7 cf b2 5c c0 1d fc f1 fa 40 15 cf
       102 47 -18 -96 -89 -49 -78 92 -64 29 -4 -15 -6 64 21 -49

tfl.pseudo_qconst7 i1 [128, 1, 1, 128]
000000 c9 c5 31 ff cb c1 b0 2f f0 ca e4 e7 e2 cd f7 9d
       -55 -59 49 -1 -53 -63 -80 47 -16 -54 -28 -25 -30 -51 -9 -99
000010 db 5c 38 38 39 a8 ec b4 f9 da 37 d5 fe 51 2a cd
       -37 92 56 56 57 -88 -20 -76 -7 -38 55 -43 -2 81 42 -51
000020 a6 f4 d0 37 70 ee 69 ca e7 be fe e7 e7 3c ab d2
       -90 -12 -48 55 112 -18 105 -54 -25 -66 -2 -25 -25 60 -85 -46
000030 1c 22 19 61 c5 2e b0 39 f0 9f a4 a3 f8 01 2e 02
       28 34 25 97 -59 46 -80 57 -16 -97 -92 -93 -8 1 46 2
000040 0f 16 f5 c4 3a d3 18 da 9c c2 73 27 46 a3 64 01
       15 22 -11 -60 58 -45 24 -38 -100 -62 115 39 70 -93 100 1
000050 1c 3f e6 5d 72 4a 37 44 08 1c e8 3c 17 24 c6 01
       28 63 -26 93 114 74 55 68 8 28 -24 60 23 36 -58 1
000060 c8 81 f9 32 ba 29 a5 13 45 b8 35 e9 d6 0e d0 10
       -56 -127 -7 50 -70 41 -91 19 69 -72 53 -23 -42 14 -48 16
000070 21 cb 18 43 fa cc ae 1e f1 b3 c5 e0 12 f0 f6 d3
       33 -53 24 67 -6 -52 -82 30 -15 -77 -59 -32 18 -16 -10 -45
000080 3a 27 f0 1b 11 e3 e1 03 da d9 18 04 c1 fa 29 10
       58 39 -16 27 17 -29 -31 3 -38 -39 24 4 -63 -6 41 16
000090 2e 15 46 20 1b f4 d7 ae 23 54 11 47 ce 39 f9 b4
       46 21 70 32 27 -12 -41 -82 35 84 17 71 -50 57 -7 -76
0000a0 e7 e7 a6 3c 55 38 3a c5 09 ec 20 d6 ec eb f8 03
       -25 -25 -90 60 85 56 58 -59 9 -20 32 -42 -20 -21 -8 3
0000b0 e7 f0 eb a6 f6 15 f7 f9 23 af 10 dc f1 dc f7 10
       -25 -16 -21 -90 -10 21 -9 -7 35 -81 16 -36 -15 -36 -9 16
0000c0 fb 4a 4d d0 24 17 c7 dc f2 f2 2f e8 49 19 48 d4
       -5 74 77 -48 36 23 -57 -36 -14 -14 47 -24 73 25 72 -44
0000d0 02 e8 13 f1 16 4e 0a a7 f8 f2 e3 d7 0a 21 ab e5
       2 -24 19 -15 22 78 10 -89 -8 -14 -29 -41 10 33 -85 -27
0000e0 04 c3 d7 15 ff e5 0f dd b4 b6 1f d1 fd cd 00 04
       4 -61 -41 21 -1 -27 15 -35 -76 -74 31 -47 -3 -51 0 4
0000f0 f7 0d fe 10 f9 e9 20 1f 1b d2 d3 d8 de 07 7f 08
       -9 13 -2 16 -7 -23 32 31 27 -46 -45 -40 -34 7 127 8

tfl.pseudo_qconst9 i1 [1, 17, 1, 64]
000000 e6 43 ea fb 81 81 16 23 94 3c 28 7f 9e a7 81 ef
       -26 67 -22 -5 -127 -127 22 35 -108 60 40 127 -98 -89 -127 -17
000010 45 89 8d b8 77 7f 62 81 50 9b f1 46 81 3e 14 32
       69 -119 -115 -72 119 127 98 -127 80 -101 -15 70 -127 62 20 50
000020 f6 1e 94 0d fd 7f 81 22 29 d4 ff e4 0e 40 35 99
       -10 30 -108 13 -3 127 -127 34 41 -44 -1 -28 14 64 53 -103
000030 9e c8 fc 34 7f 14 7f 81 7f 7f 91 2c c8 7f e7 6e
       -98 -56 -4 52 127 20 127 -127 127 127 -111 44 -56 127 -25 110
000040 b2 0c 39 ec 96 bc e6 fc 81 4f df 6a d1 c5 9c ff
       -78 12 57 -20 -106 -68 -26 -4 -127 79 -33 106 -47 -59 -100 -1
000050 31 87 81 ec 7f 4c 56 8d 58 81 73 74 95 47 cb 57
       49 -121 -127 -20 127 76 86 -115 88 -127 115 116 -107 71 -53 87
000060 10 d3 dd 8b 1e 50 9a 38 29 f2 e3 ec f3 4c 24 ca
       16 -45 -35 -117 30 80 -102 56 41 -14 -29 -20 -13 76 36 -54
000070 ff e5 bf 7f 47 ef 5e 20 64 23 85 35 03 68 cc 70
       -1 -27 -65 127 71 -17 94 32 100 35 -123 53 3 104 -52 112
000080 84 7f 49 20 e0 ab fa 35 ec 1c 46 52 f1 e9 bf 2f
       -124 127 73 32 -32 -85 -6 53 -20 28 70 82 -15 -23 -65 47
000090 59 ab 97 e8 25 29 50 95 10 8e 3d 73 02 41 f6 ac
       89 -85 -105 -24 37 41 80 -107 16 -114 61 115 2 65 -10 -84
0000a0 b0 2d a3 95 30 56 99 3e 25 66 e8 cd ee fe 7f a3
       -80 45 -93 -107 48 86 -103 62 37 102 -24 -51 -18 -2 127 -93
0000b0 d7 c4 1d 5d 61 c3 22 b5 f4 4e b6 00 e1 7c c0 25
       -41 -60 29 93 97 -61 34 -75 -12 78 -74 0 -31 124 -64 37
0000c0 c6 5e 4a 1a 02 bb f3 27 d0 35 17 6e d7 d2 da 0a
       -58 94 74 26 2 -69 -13 39 -48 53 23 110 -41 -46 -38 10
0000d0 f2 90 9a c3 41 08 e6 bf f9 ad 64 7f cf 46 2f 0f
       -14 -112 -102 -61 65 8 -26 -65 -7 -83 100 127 -49 70 47 15
0000e0 ea c7 a8 81 17 2f b2 2a ae 6d 12 f1 e8 1b 43 fa
       -22 -57 -88 -127 23 47 -78 42 -82 109 18 -15 -24 27 67 -6
0000f0 4e a0 9f 59 0f c9 f3 53 ea d8 81 e3 07 2f c4 ab
       78 -96 -97 89 15 -55 -13 83 -22 -40 -127 -29 7 47 -60 -85

tfl.pseudo_qconst11 i1 [1, 11, 1, 64]
000000 be 25 9f 10 e0 fd 81 81 b9 86 2e d3 c8 28 b9 38
       -66 37 -97 16 -32 -3 -127 -127 -71 -122 46 -45 -56 40 -71 56
000010 c4 a6 b4 55 62 e8 dd 48 f9 86 7f 2b 7f 07 1b 91
       -60 -90 -76 85 98 -24 -35 72 -7 -122 127 43 127 7 27 -111
000020 c0 f6 7f c5 c4 09 d9 05 a3 fa 7f 7f ad 1d cb 6c
       -64 -10 127 -59 -60 9 -39 5 -93 -6 127 127 -83 29 -53 108
000030 fd e6 05 f0 81 25 22 33 14 81 12 7f 31 3b 14 0b
       -3 -26 5 -16 -127 37 34 51 20 -127 18 127 49 59 20 11
000040 c9 9f bf ee d7 c7 c8 a9 73 11 42 fb 72 22 81 98
       -55 -97 -65 -18 -41 -57 -56 -87 115 17 66 -5 114 34 -127 -104
000050 92 b8 97 e1 55 ee ce a7 f9 f6 ef 13 5b e2 40 b7
       -110 -72 -105 -31 85 -18 -50 -89 -7 -10 -17 19 91 -30 64 -73
000060 12 55 6e 0e 40 cc d1 53 dd 97 44 a2 a6 ae 32 d9
       18 85 110 14 64 -52 -47 83 -35 -105 68 -94 -90 -82 50 -39
000070 ec 81 14 ca 94 47 13 0c 46 d9 36 27 17 7f e5 57
       -20 -127 20 -54 -108 71 19 12 70 -39 54 39 23 127 -27 87
000080 c6 81 e5 e2 d5 e6 09 21 19 7f 7e 7f 5e 1c c7 81
       -58 -127 -27 -30 -43 -26 9 33 25 127 126 127 94 28 -57 -127
000090 81 b0 c6 9e 7f fb 00 ca e4 c3 58 33 d1 20 26 b6
       -127 -80 -58 -98 127 -5 0 -54 -28 -61 88 51 -47 32 38 -74
0000a0 75 70 23 a2 c8 d5 04 e2 0a 47 0f ab 6e d1 21 e5
       117 112 35 -94 -56 -43 4 -30 10 71 15 -85 110 -47 33 -27
0000b0 03 1f ec a0 11 0b 27 b5 41 dc 4b b8 c4 dd 81 2b
       3 31 -20 -96 17 11 39 -75 65 -36 75 -72 -60 -35 -127 43
0000c0 fa a8 b2 ec 08 c0 f0 ea 24 47 57 d5 7f e9 9e 14
       -6 -88 -78 -20 8 -64 -16 -22 36 71 87 -43 127 -23 -98 20
0000d0 ff a0 b4 e4 30 9e be 36 07 ff 2a 05 bf b9 55 4d
       -1 -96 -76 -28 48 -98 -66 54 7 -1 42 5 -65 -71 85 77
0000e0 40 a0 bb 02 d1 bd f8 4a 7f c2 c6 1b 7f 81 ff b9
       64 -96 -69 2 -47 -67 -8 74 127 -62 -58 27 127 -127 -1 -71
0000f0 e1 14 c0 81 e1 3c f5 c5 45 dd 3f d3 d6 c3 e2 14
       -31 20 -64 -127 -31 60 -11 -59 69 -35 63 -45 -42 -61 -30 20

tfl.pseudo_qconst13 i1 [128, 1, 1, 128]
000000 04 02 ff 25 eb 38 d4 06 d3 48 00 e9 2d 19 f7 e0
       4 2 -1 37 -21 56 -44 6 -45 72 0 -23 45 25 -9 -32
000010 c5 27 ff e4 f1 e4 c8 f7 2f c8 0e 14 1d 7f 07 d9
       -59 39 -1 -28 -15 -28 -56 -9 47 -56 14 20 29 127 7 -39
000020 0c 2b f4 d1 f5 e8 21 07 ec f5 f1 36 ed fe 38 05
       12 43 -12 -47 -11 -24 33 7 -20 -11 -15 54 -19 -2 56 5
000030 a6 da 26 0f e8 31 f8 ec 0f fe db 41 46 0f 03 e5
       -90 -38 38 15 -24 49 -8 -20 15 -2 -37 65 70 15 3 -27
000040 00 06 03 7b 22 52 d7 c6 e5 cd 31 1f 1a 15 31 e4
       0 6 3 123 34 82 -41 -58 -27 -51 49 31 26 21 49 -28
000050 06 06 e0 f6 f0 e2 35 2f 35 ab e5 2c 2d 26 1a 20
       6 6 -32 -10 -16 -30 53 47 53 -85 -27 44 45 38 26 32
000060 00 0b f6 01 fa 09 22 e8 bf 1c f1 e5 43 f2 ec fc
       0 11 -10 1 -6 9 34 -24 -65 28 -15 -27 67 -14 -20 -4
000070 02 1b ea fa f3 e2 ef 11 24 4f cd fe e2 0b f0 20
       2 27 -22 -6 -13 -30 -17 17 36 79 -51 -2 -30 11 -16 32
000080 06 0f 2c f5 ed 27 02 d0 49 0f f5 e9 f5 f7 2f 25
       6 15 44 -11 -19 39 2 -48 73 15 -11 -23 -11 -9 47 37
000090 f8 28 0c eb c0 0e 23 0c 0d c6 18 2a 0f 07 06 20
       -8 40 12 -21 -64 14 35 12 13 -58 24 42 15 7 6 32
0000a0 9e f2 22 d5 d2 f1 0b 02 24 15 cf 1e c1 fe ff da
       -98 -14 34 -43 -46 -15 11 2 36 21 -49 30 -63 -2 -1 -38
0000b0 2f 4d fd c9 09 34 c8 f7 1b f7 ce 0a d4 cb 1f 07
       47 77 -3 -55 9 52 -56 -9 27 -9 -50 10 -44 -53 31 7
0000c0 e5 02 20 09 05 1f c3 f5 f1 c5 fa 3f 28 d2 17 aa
       -27 2 32 9 5 31 -61 -11 -15 -59 -6 63 40 -46 23 -86
0000d0 cc ea e3 c1 7f d7 38 19 2b 18 ed c8 92 d4 e7 03
       -52 -22 -29 -63 127 -41 56 25 43 24 -19 -56 -110 -44 -25 3
0000e0 15 e5 e8 30 bf 2d 08 42 e0 0c 23 eb 01 04 d6 0e
       21 -27 -24 48 -65 45 8 66 -32 12 35 -21 1 4 -42 14
0000f0 d0 07 17 f6 0d 24 46 ce 18 d2 00 10 08 1c 3c 1b
       -48 7 23 -10 13 36 70 -50 24 -46 0 16 8 28 60 27

tfl.pseudo_qconst15 i1 [1, 13, 1, 64]
000000 7f 81 2a b9 01 81 90 03 e7 47 c4 c3 03 2f f6 81
       127 -127 42 -71 1 -127 -112 3 -25 71 -60 -61 3 47 -10 -127
000010 f3 1d 4e 55 f3 81 37 98 df 81 a6 2c 04 71 e1 81
       -13 29 78 85 -13 -127 55 -104 -33 -127 -90 44 4 113 -31 -127
000020 fb 8a 29 1a dd 84 ac b3 69 33 fc a2 f7 3b 0b 65
       -5 -118 41 26 -35 -124 -84 -77 105 51 -4 -94 -9 59 11 101
000030 00 f4 bc 44 b1 81 7f 7f 7f 66 7a 7f ea f1 9d 05
       0 -12 -68 68 -79 -127 127 127 127 102 122 127 -22 -15 -99 5
000040 7f 9c 18 96 44 87 8d 14 f9 35 d1 2a d2 5e f9 99
       127 -100 24 -106 68 -121 -115 20 -7 53 -47 42 -46 94 -7 -103
000050 02 fe 34 1e f7 9c e3 36 c8 81 c1 f8 ce 03 81 cb
       2 -2 52 30 -9 -100 -29 54 -56 -127 -63 -8 -50 3 -127 -53
000060 20 81 5e 40 20 af c1 96 24 1a 2c 9c be fa ba 7f
       32 -127 94 64 32 -81 -63 -106 36 26 44 -100 -66 -6 -70 127
000070 50 bc 15 7f 18 96 70 6f 51 28 53 71 ea 66 81 02
       80 -68 21 127 24 -106 112 111 81 40 83 113 -22 102 -127 2
000080 07 e0 0d db 4f e1 c3 23 1d d4 ce d1 92 7f b2 be
       7 -32 13 -37 79 -31 -61 35 29 -44 -50 -47 -110 127 -78 -66
000090 f0 36 22 57 d5 a4 38 41 e6 af c5 42 81 2e 9e ec
       -16 54 34 87 -43 -92 56 65 -26 -81 -59 66 -127 46 -98 -20
0000a0 0f ba e7 2c 2b 0e ad aa 57 c5 c7 81 ad ce bc 4b
       15 -70 -25 44 43 14 -83 -86 87 -59 -57 -127 -83 -50 -68 75
0000b0 37 ac e9 3f c8 de 59 36 78 37 23 09 2e d4 9e 11
       55 -84 -23 63 -56 -34 89 54 120 55 35 9 46 -44 -98 17
0000c0 67 c3 36 e0 6f 09 b9 38 7f a8 56 51 d0 64 d7 e0
       103 -61 54 -32 111 9 -71 56 127 -88 86 81 -48 100 -41 -32
0000d0 4c 4d e3 5a 81 b2 0c a9 15 98 f7 3b c4 dc dd fc
       76 77 -29 90 -127 -78 12 -87 21 -104 -9 59 -60 -36 -35 -4
0000e0 2e 14 22 31 ed 73 d9 cb 14 f4 de 89 8e 81 e7 12
       46 20 34 49 -19 115 -39 -53 20 -12 -34 -119 -114 -127 -25 18
0000f0 fb bd 2a d7 0f da cf 20 5b 07 6a e6 22 fa a3 3b
       -5 -67 42 -41 15 -38 -49 32 91 7 106 -26 34 -6 -93 59

tfl.pseudo_qconst17 i1 [1, 9, 1, 64]
000000 38 49 81 93 f0 7a 7f ea 29 2b 26 c7 89 4f fe 04
       56 73 -127 -109 -16 122 127 -22 41 43 38 -57 -119 79 -2 4
000010 68 0f 28 de 26 0e 28 9d cd e7 af 79 e2 cb b2 30
       104 15 40 -34 38 14 40 -99 -51 -25 -81 121 -30 -53 -78 48
000020 94 35 da 4a b8 c9 2c 81 b4 b9 15 e7 d2 91 ea 5e
       -108 53 -38 74 -72 -55 44 -127 -76 -71 21 -25 -46 -111 -22 94
000030 7f 6b 1b 81 b1 1d 52 b9 34 d2 ee e1 60 aa 5c 06
       127 107 27 -127 -79 29 82 -71 52 -46 -18 -31 96 -86 92 6
000040 f0 38 fc ee 9f 79 db 79 c8 da 50 28 ae 92 06 d3
       -16 56 -4 -18 -97 121 -37 121 -56 -38 80 40 -82 -110 6 -45
000050 1e 16 0a 87 5c f0 12 81 83 81 84 67 7f d6 5c 36
       30 22 10 -121 92 -16 18 -127 -125 -127 -124 103 127 -42 92 54
000060 cc 12 fb 18 4b 17 fc c1 e9 e6 da 0b 98 b4 fa a8
       -52 18 -5 24 75 23 -4 -63 -23 -26 -38 11 -104 -76 -6 -88
000070 5b 30 29 91 84 6b 0d c8 7f ef 44 55 47 81 18 4f
       91 48 41 -111 -124 107 13 -56 127 -17 68 85 71 -127 24 79
000080 f2 bc 13 1b d7 f7 fd 4c f7 d9 62 3f 46 81 c4 19
       -14 -68 19 27 -41 -9 -3 76 -9 -39 98 63 70 -127 -60 25
000090 36 d6 8c 81 47 31 b6 97 ad 83 ad 70 37 11 46 32
       54 -42 -116 -127 71 49 -74 -105 -83 -125 -83 112 55 17 70 50
0000a0 7f 0d 2b 4b 2b 26 4c 9e b4 c3 aa f4 ce e7 70 94
       127 13 43 75 43 38 76 -98 -76 -61 -86 -12 -50 -25 112 -108
0000b0 19 8a 2b 85 1d be cb c6 33 75 69 42 16 ee e2 d0
       25 -118 43 -123 29 -66 -53 -58 51 117 105 66 22 -18 -30 -48
0000c0 43 42 84 e9 ee 4a d7 15 3c f1 a4 10 19 e1 31 d9
       67 66 -124 -23 -18 74 -41 21 60 -15 -92 16 25 -31 49 -39
0000d0 c8 ca 81 f5 40 3b 82 bf 81 93 02 38 7f 0e 7f 4d
       -56 -54 -127 -11 64 59 -126 -65 -127 -109 2 56 127 14 127 77
0000e0 6b 15 8c de 7f 01 21 af d8 25 af 2b 9a 79 5b 59
       107 21 -116 -34 127 1 33 -81 -40 37 -81 43 -102 121 91 89
0000f0 f4 81 45 20 d3 49 b2 ee 6e 7f 51 ed ca dd fe d9
       -12 -127 69 32 -45 73 -78 -18 110 127 81 -19 -54 -35 -2 -39

tfl.pseudo_qconst19 i1 [128, 1, 1, 32]
000000 3a 54 7b 51 38 7f 17 ce e4 6f ac d4 50 40 ec 43
       58 84 123 81 56 127 23 -50 -28 111 -84 -44 80 64 -20 67
000010 34 2e b3 ff ce 25 aa 30 e1 23 5f 59 dd 3f ec ad
       52 46 -77 -1 -50 37 -86 48 -31 35 95 89 -35 63 -20 -83
000020 04 04 87 09 a7 d9 7f c9 83 20 ff 4a e1 2b c4 fd
       4 4 -121 9 -89 -39 127 -55 -125 32 -1 74 -31 43 -60 -3
000030 c5 2c 9f 5c cf 1c b6 63 b8 fc af 35 d6 7c a1 02
       -59 44 -97 92 -49 28 -74 99 -72 -4 -81 53 -42 124 -95 2
000040 cc 92 63 7f 3c 0a c1 2a d5 78 3c a1 5b fa 15 4b
       -52 -110 99 127 60 10 -63 42 -43 120 60 -95 91 -6 21 75
000050 e2 df 50 aa 48 28 37 57 f6 d4 0d 9e c4 c5 a3 da
       -30 -33 80 -86 72 40 55 87 -10 -44 13 -98 -60 -59 -93 -38
000060 ee e9 c8 81 0f d8 cb 07 1a cd f0 0e 32 13 f1 e7
       -18 -23 -56 -127 15 -40 -53 7 26 -51 -16 14 50 19 -15 -25
000070 bf 1b 28 dd c4 e4 1b 2b 08 dc c8 c4 26 09 fc a8
       -65 27 40 -35 -60 -28 27 43 8 -36 -56 -60 38 9 -4 -88
000080 1c 2e 0d 29 a6 d6 53 36 de b9 ba cb e1 1d 5c 7f
       28 46 13 41 -90 -42 83 54 -34 -71 -70 -53 -31 29 92 127
000090 5d c9 cf bc f1 6f 61 68 40 74 29 cb c3 85 c1 6b
       93 -55 -49 -68 -15 111 97 104 64 116 41 -53 -61 -123 -63 107
0000a0 19 e1 95 59 13 bb fc bf 15 c3 19 16 90 cf 47 a6
       25 -31 -107 89 19 -69 -4 -65 21 -61 25 22 -112 -49 71 -90
0000b0 63 05 6d 02 e4 1a fb 62 dd e2 7f d8 54 9a eb cf
       99 5 109 2 -28 26 -5 98 -35 -30 127 -40 84 -102 -21 -49
0000c0 61 bc 2c e4 34 e6 15 0b ea 18 fb 1b 35 c3 47 db
       97 -68 44 -28 52 -26 21 11 -22 24 -5 27 53 -61 71 -37
0000d0 e3 b4 ca eb 13 11 cb 68 e9 34 2e 76 7f cb 54 f0
       -29 -76 -54 -21 19 17 -53 104 -23 52 46 118 127 -53 84 -16
0000e0 f4 cd 81 bf c1 b1 20 49 b7 08 30 fa fa fb e4 4f
       -12 -51 -127 -65 -63 -79 32 73 -73 8 48 -6 -6 -5 -28 79
0000f0 df 91 17 b7 e1 05 22 03 04 22 e4 9b fe e9 d3 d1
       -33 -111 23 -73 -31 5 34 3 4 34 -28 -101 -2 -23 -45 -47

tfl.pseudo_qconst21 i1 [1, 7, 1, 32]
000000 13 e9 c9 02 1b 9d af a9 c5 81 d3 3e 7f 53 de 46
       19 -23 -55 2 27 -99 -81 -87 -59 -127 -45 62 127 83 -34 70
000010 c5 5c 7f 3a af e2 81 05 7c 81 da 7f 42 68 91 0f
       -59 92 127 58 -81 -30 -127 5 124 -127 -38 127 66 104 -111 15
000020 7c 69 81 de 81 dc 21 f5 63 26 9b 5e 36 4a d4 3d
       124 105 -127 -34 -127 -36 33 -11 99 38 -101 94 54 74 -44 61
000030 af f5 09 8e 81 30 e9 dd 7f 93 d1 51 91 52 d1 90
       -81 -11 9 -114 -127 48 -23 -35 127 -109 -47 81 -111 82 -47 -112
000040 36 41 06 bd 45 b0 81 a5 6c 43 19 3f f6 41 1b f5
       54 65 6 -67 69 -80 -127 -91 108 67 25 63 -10 65 27 -11
000050 e5 b7 51 10 ab ab c3 df 3d c9 71 73 81 41 3f 81
       -27 -73 81 16 -85 -85 -61 -33 61 -55 113 115 -127 65 63 -127
000060 09 b5 59 09 b8 0c 92 00 48 eb 81 7f 12 cc 8a b9
       9 -75 89 9 -72 12 -110 0 72 -21 -127 127 18 -52 -118 -71
000070 e5 81 05 b9 92 f6 8b 1c 39 ae c0 4a 98 57 f6 bb
       -27 -127 5 -71 -110 -10 -117 28 57 -82 -64 74 -104 87 -10 -69
000080 50 79 3d 10 60 30 b6 0b 66 68 a5 07 2e 97 81 9d
       80 121 61 16 96 48 -74 11 102 104 -91 7 46 -105 -127 -99
000090 81 f4 6a ef 7f 09 b9 59 37 a7 7f fa f6 7f 42 cb
       -127 -12 106 -17 127 9 -71 89 55 -89 127 -6 -10 127 66 -53
0000a0 62 7f 15 83 6a 7f eb d0 7f 49 01 2d f5 04 9c 81
       98 127 21 -125 106 127 -21 -48 127 73 1 45 -11 4 -100 -127
0000b0 d8 26 c6 7f 34 91 39 f2 e5 ae 74 ec cb 0a 7f 1d
       -40 38 -58 127 52 -111 57 -14 -27 -82 116 -20 -53 10 127 29
0000c0 7f ec 37 81 30 18 a3 81 1b 0d 05 a9 44 81 0d b6
       127 -20 55 -127 48 24 -93 -127 27 13 5 -87 68 -127 13 -74
0000d0 dc 6a a9 69 78 81 2c 81 de bc de b1 9f 77 31 55
       -36 106 -87 105 120 -127 44 -127 -34 -68 -34 -79 -97 119 49 85

tfl.pseudo_qconst23 i1 [32, 5, 1, 40]
000000 0a 37 3a 22 3e 02 f8 ee ca bc 06 b9 dd 02 d9 f2
       10 55 58 34 62 2 -8 -18 -54 -68 6 -71 -35 2 -39 -14
000010 ba b0 05 34 3e 10 08 5d fe 3e d1 de ee 12 ea d7
       -70 -80 5 52 62 16 8 93 -2 62 -47 -34 -18 18 -22 -41
000020 e9 dd af c5 9b 25 de 59 4c 12 fe 12 4c 02 db 39
       -23 -35 -81 -59 -101 37 -34 89 76 18 -2 18 76 2 -37 57
000030 bc 17 ae c6 b6 d8 32 8e ba a6 d7 0e 35 57 4b 4b
       -68 23 -82 -58 -74 -40 50 -114 -70 -90 -41 14 53 87 75 75
000040 e8 09 fa 2a fa 0e d7 f8 e3 ce 8a 1b d8 e6 c3 fc
       -24 9 -6 42 -6 14 -41 -8 -29 -50 -118 27 -40 -26 -61 -4
000050 1b 2c 37 26 31 28 f8 19 8f 23 cb ba e3 c2 3f e6
       27 44 55 38 49 40 -8 25 -113 35 -53 -70 -29 -62 63 -26
000060 e2 b2 e1 02 0c 4e 1c 20 34 28 e5 e5 ef f5 d0 0a
       -30 -78 -31 2 12 78 28 32 52 40 -27 -27 -17 -11 -48 10
000070 ed 1c ba fd d3 42 ab 42 10 1a 0b 48 03 18 11 20
       -19 28 -70 -3 -45 66 -85 66 16 26 11 72 3 24 17 32
000080 a6 19 04 cc ba 05 ea 95 a1 90 e8 d1 11 22 32 2e
       -90 25 4 -52 -70 5 -22 -107 -95 -112 -24 -47 17 34 50 46
000090 fa f6 0a fc fa 20 ce e9 c3 25 b6 d3 cb 12 b1 11
       -6 -10 10 -4 -6 32 -50 -23 -61 37 -74 -45 -53 18 -79 17
0000a0 ea fd de eb dd 0e 00 f9 c9 ab 0c 9a f5 ce f0 c7
       -22 -3 -34 -21 -35 14 0 -7 -55 -85 12 -102 -11 -50 -16 -57
0000b0 ed cc fa d5 0b 0b 0f 24 19 ee da f0 f2 52 e8 f2
       -19 -52 -6 -43 11 11 15 36 25 -18 -38 -16 -14 82 -24 -14
0000c0 ba 42 b7 e6 c0 41 ed 7f d6 c7 a1 af e2 ab a9 15
       -70 66 -73 -26 -64 65 -19 127 -42 -57 -95 -81 -30 -85 -87 21
0000d0 be 91 10 0d a4 f6 c6 3e a3 d8 0c 12 03 ca 07 ad
       -66 -111 16 13 -92 -10 -58 62 -93 -40 12 18 3 -54 7 -83
0000e0 ae 18 be 95 cd ee f4 47 ce f1 b9 03 d6 f8 ba fe
       -82 24 -66 -107 -51 -18 -12 71 -50 -15 -71 3 -42 -8 -70 -2
0000f0 a8 98 90 d7 fd 41 ef 13 00 0a bd 2a dc 2f e0 10
       -88 -104 -112 -41 -3 65 -17 19 0 10 -67 42 -36 47 -32 16

tfl.pseudo_qconst24 i1 [1, 24, 1, 128] scale=0.03523969 zero_point=-128
000000 80 80 80 80 80 80 80 80 80 80 80 80 80 80 80 80
       0.0 0.0 0.0 0.0 0.0 0.0 0.0 0.0 0.0 0.0 0.0 0.0 0.0 0.0 0.0 0.0
000010 80 80 80 80 80 80 80 80 80 80 80 80 80 80 80 80
       0.0 0.0 0.0 0.0 0.0 0.0 0.0 0.0 0.0 0.0 0.0 0.0 0.0 0.0 0.0 0.0
000020 80 80 80 80 80 80 80 80 80 80 80 80 80 80 80 80
       0.0 0.0 0.0 0.0 0.0 0.0 0.0 0.0 0.0 0.0 0.0 0.0 0.0 0.0 0.0 0.0
000030 80 80 80 80 80 80 80 80 80 80 80 80 80 80 80 80
       0.0 0.0 0.0 0.0 0.0 0.0 0.0 0.0 0.0 0.0 0.0 0.0 0.0 0.0 0.0 0.0
000040 80 80 80 80 80 80 80 80 80 80 80 80 80 80 80 80
       0.0 0.0 0.0 0.0 0.0 0.0 0.0 0.0 0.0 0.0 0.0 0.0 0.0 0.0 0.0 0.0
000050 80 80 80 80 80 80 80 80 80 80 80 80 80 80 80 80
       0.0 0.0 0.0 0.0 0.0 0.0 0.0 0.0 0.0 0.0 0.0 0.0 0.0 0.0 0.0 0.0
000060 80 80 80 80 80 80 80 80 80 80 80 80 80 80 80 80
       0.0 0.0 0.0 0.0 0.0 0.0 0.0 0.0 0.0 0.0 0.0 0.0 0.0 0.0 0.0 0.0
000070 80 80 80 80 80 80 80 80 80 80 80 80 80 80 80 80
       0.0 0.0 0.0 0.0 0.0 0.0 0.0 0.0 0.0 0.0 0.0 0.0 0.0 0.0 0.0 0.0
000080 80 80 80 80 80 80 80 80 80 80 80 80 80 80 80 80
       0.0 0.0 0.0 0.0 0.0 0.0 0.0 0.0 0.0 0.0 0.0 0.0 0.0 0.0 0.0 0.0
000090 80 80 80 80 80 80 80 80 80 80 80 80 80 80 80 80
       0.0 0.0 0.0 0.0 0.0 0.0 0.0 0.0 0.0 0.0 0.0 0.0 0.0 0.0 0.0 0.0
0000a0 80 80 80 80 80 80 80 80 80 80 80 80 80 80 80 80
       0.0 0.0 0.0 0.0 0.0 0.0 0.0 0.0 0.0 0.0 0.0 0.0 0.0 0.0 0.0 0.0
0000b0 80 80 80 80 80 80 80 80 80 80 80 80 80 80 80 80
       0.0 0.0 0.0 0.0 0.0 0.0 0.0 0.0 0.0 0.0 0.0 0.0 0.0 0.0 0.0 0.0
0000c0 80 80 80 80 80 80 80 80 80 80 80 80 80 80 80 80
       0.0 0.0 0.0 0.0 0.0 0.0 0.0 0.0 0.0 0.0 0.0 0.0 0.0 0.0 0.0 0.0
0000d0 80 80 80 80 80 80 80 80 80 80 80 80 80 80 80 80
       0.0 0.0 0.0 0.0 0.0 0.0 0.0 0.0 0.0 0.0 0.0 0.0 0.0 0.0 0.0 0.0
0000e0 80 80 80 80 80 80 80 80 80 80 80 80 80 80 80 80
       0.0 0.0 0.0 0.0 0.0 0.0 0.0 0.0 0.0 0.0 0.0 0.0 0.0 0.0 0.0 0.0
0000f0 80 80 80 80 80 80 80 80 80 80 80 80 80 80 80 80
       0.0 0.0 0.0 0.0 0.0 0.0 0.0 0.0 0.0 0.0 0.0 0.0 0.0 0.0 0.0 0.0

tfl.pseudo_qconst25 i1 [1, 36, 1, 128] scale=0.027470132 zero_point=-128
000000 80 80 80 80 80 80 80 80 80 80 80 80 80 80 80 80
       0.0 0.0 0.0 0.0 0.0 0.0 0.0 0.0 0.0 0.0 0.0 0.0 0.0 0.0 0.0 0.0
000010 80 80 80 80 80 80 80 80 80 80 80 80 80 80 80 80
       0.0 0.0 0.0 0.0 0.0 0.0 0.0 0.0 0.0 0.0 0.0 0.0 0.0 0.0 0.0 0.0
000020 80 80 80 80 80 80 80 80 80 80 80 80 80 80 80 80
       0.0 0.0 0.0 0.0 0.0 0.0 0.0 0.0 0.0 0.0 0.0 0.0 0.0 0.0 0.0 0.0
000030 80 80 80 80 80 80 80 80 80 80 80 80 80 80 80 80
       0.0 0.0 0.0 0.0 0.0 0.0 0.0 0.0 0.0 0.0 0.0 0.0 0.0 0.0 0.0 0.0
000040 80 80 80 80 80 80 80 80 80 80 80 80 80 80 80 80
       0.0 0.0 0.0 0.0 0.0 0.0 0.0 0.0 0.0 0.0 0.0 0.0 0.0 0.0 0.0 0.0
000050 80 80 80 80 80 80 80 80 80 80 80 80 80 80 80 80
       0.0 0.0 0.0 0.0 0.0 0.0 0.0 0.0 0.0 0.0 0.0 0.0 0.0 0.0 0.0 0.0
000060 80 80 80 80 80 80 80 80 80 80 80 80 80 80 80 80
       0.0 0.0 0.0 0.0 0.0 0.0 0.0 0.0 0.0 0.0 0.0 0.0 0.0 0.0 0.0 0.0
000070 80 80 80 80 80 80 80 80 80 80 80 80 80 80 80 80
       0.0 0.0 0.0 0.0 0.0 0.0 0.0 0.0 0.0 0.0 0.0 0.0 0.0 0.0 0.0 0.0
000080 80 80 80 80 80 80 80 80 80 80 80 80 80 80 80 80
       0.0 0.0 0.0 0.0 0.0 0.0 0.0 0.0 0.0 0.0 0.0 0.0 0.0 0.0 0.0 0.0
000090 80 80 80 80 80 80 80 80 80 80 80 80 80 80 80 80
       0.0 0.0 0.0 0.0 0.0 0.0 0.0 0.0 0.0 0.0 0.0 0.0 0.0 0.0 0.0 0.0
0000a0 80 80 80 80 80 80 80 80 80 80 80 80 80 80 80 80
       0.0 0.0 0.0 0.0 0.0 0.0 0.0 0.0 0.0 0.0 0.0 0.0 0.0 0.0 0.0 0.0
0000b0 80 80 80 80 80 80 80 80 80 80 80 80 80 80 80 80
       0.0 0.0 0.0 0.0 0.0 0.0 0.0 0.0 0.0 0.0 0.0 0.0 0.0 0.0 0.0 0.0
0000c0 80 80 80 80 80 80 80 80 80 80 80 80 80 80 80 80
       0.0 0.0 0.0 0.0 0.0 0.0 0.0 0.0 0.0 0.0 0.0 0.0 0.0 0.0 0.0 0.0
0000d0 80 80 80 80 80 80 80 80 80 80 80 80 80 80 80 80
       0.0 0.0 0.0 0.0 0.0 0.0 0.0 0.0 0.0 0.0 0.0 0.0 0.0 0.0 0.0 0.0
0000e0 80 80 80 80 80 80 80 80 80 80 80 80 80 80 80 80
       0.0 0.0 0.0 0.0 0.0 0.0 0.0 0.0 0.0 0.0 0.0 0.0 0.0 0.0 0.0 0.0
0000f0 80 80 80 80 80 80 80 80 80 80 80 80 80 80 80 80
       0.0 0.0 0.0 0.0 0.0 0.0 0.0 0.0 0.0 0.0 0.0 0.0 0.0 0.0 0.0 0.0

tfl.pseudo_qconst26 i1 [1, 3, 1, 40] scale=0.101960786 zero_point=-128
000000 80 80 80 80 80 80 80 80 80 80 80 80 80 80 80 80
       0.0 0.0 0.0 0.0 0.0 0.0 0.0 0.0 0.0 0.0 0.0 0.0 0.0 0.0 0.0 0.0
000010 80 80 80 80 80 80 80 80 80 80 80 80 80 80 80 80
       0.0 0.0 0.0 0.0 0.0 0.0 0.0 0.0 0.0 0.0 0.0 0.0 0.0 0.0 0.0 0.0
000020 80 80 80 80 80 80 80 80 80 80 80 80 80 80 80 80
       0.0 0.0 0.0 0.0 0.0 0.0 0.0 0.0 0.0 0.0 0.0 0.0 0.0 0.0 0.0 0.0
000030 80 80 80 80 80 80 80 80 80 80 80 80 80 80 80 80
       0.0 0.0 0.0 0.0 0.0 0.0 0.0 0.0 0.0 0.0 0.0 0.0 0.0 0.0 0.0 0.0
000040 80 80 80 80 80 80 80 80 80 80 80 80 80 80 80 80
       0.0 0.0 0.0 0.0 0.0 0.0 0.0 0.0 0.0 0.0 0.0 0.0 0.0 0.0 0.0 0.0
000050 80 80 80 80 80 80 80 80 80 80 80 80 80 80 80 80
       0.0 0.0 0.0 0.0 0.0 0.0 0.0 0.0 0.0 0.0 0.0 0.0 0.0 0.0 0.0 0.0
000060 80 80 80 80 80 80 80 80 80 80 80 80 80 80 80 80
       0.0 0.0 0.0 0.0 0.0 0.0 0.0 0.0 0.0 0.0 0.0 0.0 0.0 0.0 0.0 0.0
000070 80 80 80 80 80 80 80 80
       0.0 0.0 0.0 0.0 0.0 0.0 0.0 0.0

tfl.pseudo_qconst27 i1 [1, 6, 1, 32] scale=0.99691343 zero_point=-128
000000 80 80 80 80 80 80 80 80 80 80 80 80 80 80 80 80
       0.0 0.0 0.0 0.0 0.0 0.0 0.0 0.0 0.0 0.0 0.0 0.0 0.0 0.0 0.0 0.0
000010 80 80 80 80 80 80 80 80 80 80 80 80 80 80 80 80
       0.0 0.0 0.0 0.0 0.0 0.0 0.0 0.0 0.0 0.0 0.0 0.0 0.0 0.0 0.0 0.0
000020 80 80 80 80 80 80 80 80 80 80 80 80 80 80 80 80
       0.0 0.0 0.0 0.0 0.0 0.0 0.0 0.0 0.0 0.0 0.0 0.0 0.0 0.0 0.0 0.0
000030 80 80 80 80 80 80 80 80 80 80 80 80 80 80 80 80
       0.0 0.0 0.0 0.0 0.0 0.0 0.0 0.0 0.0 0.0 0.0 0.0 0.0 0.0 0.0 0.0
000040 80 80 80 80 80 80 80 80 80 80 80 80 80 80 80 80
       0.0 0.0 0.0 0.0 0.0 0.0 0.0 0.0 0.0 0.0 0.0 0.0 0.0 0.0 0.0 0.0
000050 80 80 80 80 80 80 80 80 80 80 80 80 80 80 80 80
       0.0 0.0 0.0 0.0 0.0 0.0 0.0 0.0 0.0 0.0 0.0 0.0 0.0 0.0 0.0 0.0
000060 80 80 80 80 80 80 80 80 80 80 80 80 80 80 80 80
       0.0 0.0 0.0 0.0 0.0 0.0 0.0 0.0 0.0 0.0 0.0 0.0 0.0 0.0 0.0 0.0
000070 80 80 80 80 80 80 80 80 80 80 80 80 80 80 80 80
       0.0 0.0 0.0 0.0 0.0 0.0 0.0 0.0 0.0 0.0 0.0 0.0 0.0 0.0 0.0 0.0
000080 80 80 80 80 80 80 80 80 80 80 80 80 80 80 80 80
       0.0 0.0 0.0 0.0 0.0 0.0 0.0 0.0 0.0 0.0 0.0 0.0 0.0 0.0 0.0 0.0
000090 80 80 80 80 80 80 80 80 80 80 80 80 80 80 80 80
       0.0 0.0 0.0 0.0 0.0 0.0 0.0 0.0 0.0 0.0 0.0 0.0 0.0 0.0 0.0 0.0
0000a0 80 80 80 80 80 80 80 80 80 80 80 80 80 80 80 80
       0.0 0.0 0.0 0.0 0.0 0.0 0.0 0.0 0.0 0.0 0.0 0.0 0.0 0.0 0.0 0.0
0000b0 80 80 80 80 80 80 80 80 80 80 80 80 80 80 80 80
       0.0 0.0 0.0 0.0 0.0 0.0 0.0 0.0 0.0 0.0 0.0 0.0 0.0 0.0 0.0 0.0

tfl.pseudo_qconst28 i1 [1, 12, 1, 128] scale=0.04034066 zero_point=-128
000000 80 80 80 80 80 80 80 80 80 80 80 80 80 80 80 80
       0.0 0.0 0.0 0.0 0.0 0.0 0.0 0.0 0.0 0.0 0.0 0.0 0.0 0.0 0.0 0.0
000010 80 80 80 80 80 80 80 80 80 80 80 80 80 80 80 80
       0.0 0.0 0.0 0.0 0.0 0.0 0.0 0.0 0.0 0.0 0.0 0.0 0.0 0.0 0.0 0.0
000020 80 80 80 80 80 80 80 80 80 80 80 80 80 80 80 80
       0.0 0.0 0.0 0.0 0.0 0.0 0.0 0.0 0.0 0.0 0.0 0.0 0.0 0.0 0.0 0.0
000030 80 80 80 80 80 80 80 80 80 80 80 80 80 80 80 80
       0.0 0.0 0.0 0.0 0.0 0.0 0.0 0.0 0.0 0.0 0.0 0.0 0.0 0.0 0.0 0.0
000040 80 80 80 80 80 80 80 80 80 80 80 80 80 80 80 80
       0.0 0.0 0.0 0.0 0.0 0.0 0.0 0.0 0.0 0.0 0.0 0.0 0.0 0.0 0.0 0.0
000050 80 80 80 80 80 80 80 80 80 80 80 80 80 80 80 80
       0.0 0.0 0.0 0.0 0.0 0.0 0.0 0.0 0.0 0.0 0.0 0.0 0.0 0.0 0.0 0.0
000060 80 80 80 80 80 80 80 80 80 80 80 80 80 80 80 80
       0.0 0.0 0.0 0.0 0.0 0.0 0.0 0.0 0.0 0.0 0.0 0.0 0.0 0.0 0.0 0.0
000070 80 80 80 80 80 80 80 80 80 80 80 80 80 80 80 80
       0.0 0.0 0.0 0.0 0.0 0.0 0.0 0.0 0.0 0.0 0.0 0.0 0.0 0.0 0.0 0.0
000080 80 80 80 80 80 80 80 80 80 80 80 80 80 80 80 80
       0.0 0.0 0.0 0.0 0.0 0.0 0.0 0.0 0.0 0.0 0.0 0.0 0.0 0.0 0.0 0.0
000090 80 80 80 80 80 80 80 80 80 80 80 80 80 80 80 80
       0.0 0.0 0.0 0.0 0.0 0.0 0.0 0.0 0.0 0.0 0.0 0.0 0.0 0.0 0.0 0.0
0000a0 80 80 80 80 80 80 80 80 80 80 80 80 80 80 80 80
       0.0 0.0 0.0 0.0 0.0 0.0 0.0 0.0 0.0 0.0 0.0 0.0 0.0 0.0 0.0 0.0
0000b0 80 80 80 80 80 80 80 80 80 80 80 80 80 80 80 80
       0.0 0.0 0.0 0.0 0.0 0.0 0.0 0.0 0.0 0.0 0.0 0.0 0.0 0.0 0.0 0.0
0000c0 80 80 80 80 80 80 80 80 80 80 80 80 80 80 80 80
       0.0 0.0 0.0 0.0 0.0 0.0 0.0 0.0 0.0 0.0 0.0 0.0 0.0 0.0 0.0 0.0
0000d0 80 80 80 80 80 80 80 80 80 80 80 80 80 80 80 80
       0.0 0.0 0.0 0.0 0.0 0.0 0.0 0.0 0.0 0.0 0.0 0.0 0.0 0.0 0.0 0.0
0000e0 80 80 80 80 80 80 80 80 80 80 80 80 80 80 80 80
       0.0 0.0 0.0 0.0 0.0 0.0 0.0 0.0 0.0 0.0 0.0 0.0 0.0 0.0 0.0 0.0
0000f0 80 80 80 80 80 80 80 80 80 80 80 80 80 80 80 80
       0.0 0.0 0.0 0.0 0.0 0.0 0.0 0.0 0.0 0.0 0.0 0.0 0.0 0.0 0.0 0.0

tfl.pseudo_qconst29 i1 [1, 16, 1, 128] scale=0.047681525 zero_point=-128
000000 80 80 80 80 80 80 80 80 80 80 80 80 80 80 80 80
       0.0 0.0 0.0 0.0 0.0 0.0 0.0 0.0 0.0 0.0 0.0 0.0 0.0 0.0 0.0 0.0
000010 80 80 80 80 80 80 80 80 80 80 80 80 80 80 80 80
       0.0 0.0 0.0 0.0 0.0 0.0 0.0 0.0 0.0 0.0 0.0 0.0 0.0 0.0 0.0 0.0
000020 80 80 80 80 80 80 80 80 80 80 80 80 80 80 80 80
       0.0 0.0 0.0 0.0 0.0 0.0 0.0 0.0 0.0 0.0 0.0 0.0 0.0 0.0 0.0 0.0
000030 80 80 80 80 80 80 80 80 80 80 80 80 80 80 80 80
       0.0 0.0 0.0 0.0 0.0 0.0 0.0 0.0 0.0 0.0 0.0 0.0 0.0 0.0 0.0 0.0
000040 80 80 80 80 80 80 80 80 80 80 80 80 80 80 80 80
       0.0 0.0 0.0 0.0 0.0 0.0 0.0 0.0 0.0 0.0 0.0 0.0 0.0 0.0 0.0 0.0
000050 80 80 80 80 80 80 80 80 80 80 80 80 80 80 80 80
       0.0 0.0 0.0 0.0 0.0 0.0 0.0 0.0 0.0 0.0 0.0 0.0 0.0 0.0 0.0 0.0
000060 80 80 80 80 80 80 80 80 80 80 80 80 80 80 80 80
       0.0 0.0 0.0 0.0 0.0 0.0 0.0 0.0 0.0 0.0 0.0 0.0 0.0 0.0 0.0 0.0
000070 80 80 80 80 80 80 80 80 80 80 80 80 80 80 80 80
       0.0 0.0 0.0 0.0 0.0 0.0 0.0 0.0 0.0 0.0 0.0 0.0 0.0 0.0 0.0 0.0
000080 80 80 80 80 80 80 80 80 80 80 80 80 80 80 80 80
       0.0 0.0 0.0 0.0 0.0 0.0 0.0 0.0 0.0 0.0 0.0 0.0 0.0 0.0 0.0 0.0
000090 80 80 80 80 80 80 80 80 80 80 80 80 80 80 80 80
       0.0 0.0 0.0 0.0 0.0 0.0 0.0 0.0 0.0 0.0 0.0 0.0 0.0 0.0 0.0 0.0
0000a0 80 80 80 80 80 80 80 80 80 80 80 80 80 80 80 80
       0.0 0.0 0.0 0.0 0.0 0.0 0.0 0.0 0.0 0.0 0.0 0.0 0.0 0.0 0.0 0.0
0000b0 80 80 80 80 80 80 80 80 80 80 80 80 80 80 80 80
       0.0 0.0 0.0 0.0 0.0 0.0 0.0 0.0 0.0 0.0 0.0 0.0 0.0 0.0 0.0 0.0
0000c0 80 80 80 80 80 80 80 80 80 80 80 80 80 80 80 80
       0.0 0.0 0.0 0.0 0.0 0.0 0.0 0.0 0.0 0.0 0.0 0.0 0.0 0.0 0.0 0.0
0000d0 80 80 80 80 80 80 80 80 80 80 80 80 80 80 80 80
       0.0 0.0 0.0 0.0 0.0 0.0 0.0 0.0 0.0 0.0 0.0 0.0 0.0 0.0 0.0 0.0
0000e0 80 80 80 80 80 80 80 80 80 80 80 80 80 80 80 80
       0.0 0.0 0.0 0.0 0.0 0.0 0.0 0.0 0.0 0.0 0.0 0.0 0.0 0.0 0.0 0.0
0000f0 80 80 80 80 80 80 80 80 80 80 80 80 80 80 80 80
       0.0 0.0 0.0 0.0 0.0 0.0 0.0 0.0 0.0 0.0 0.0 0.0 0.0 0.0 0.0 0.0
