microWakeWord/hey_norman.tflite (tflite, 76712 bytes, 18 tensors)

tfl.pseudo_qconst1 i1 [1, 2960] scale=0.0070749675 zero_point=0
000000 03 e8 0f ef ed fa fb f2 fb f2 fd 0b d9 f4 fc 04
       0.021224903 -0.16979922 0.10612451 -0.12027445 -0.13442439 -0.042449806 -0.03537484 -0.099049546 -0.03537484 -0.099049546 -0.021224903 0.077824645 -0.27592373 -0.08489961 -0.02829987 0.02829987
000010 e4 f9 f4 2e f0 fc f6 1c ed 08 f7 04 ed 1f 1d 00
       -0.19809909 -0.049524773 -0.08489961 0.3254485 -0.11319948 -0.02829987 -0.07074968 0.19809909 -0.13442439 0.05659974 -0.06367471 0.02829987 -0.13442439 0.219324 0.20517406 0.0
000020 1d d0 04 ff 06 f7 e9 fd d8 f9 05 04 d8 f1 11 03
       0.20517406 -0.33959845 0.02829987 -0.0070749675 0.042449806 -0.06367471 -0.16272426 -0.021224903 -0.2829987 -0.049524773 0.03537484 0.02829987 -0.2829987 -0.10612451 0.12027445 0.021224903
000030 0c f4 e0 e0 e7 ec 12 fa ea da 0d 03 f2 f2 01 d3
       0.08489961 -0.08489961 -0.22639896 -0.22639896 -0.17687419 -0.14149936 0.12734942 -0.042449806 -0.15564929 -0.26884878 0.09197458 0.021224903 -0.099049546 -0.099049546 0.0070749675 -0.31837353
000040 0f f0 14 05 0b 04 15 f4 f7 fc 18 e8 09 01 03 f4
       0.10612451 -0.11319948 0.14149936 0.03537484 0.077824645 0.02829987 0.14857432 -0.08489961 -0.06367471 -0.02829987 0.16979922 -0.16979922 0.06367471 0.0070749675 0.021224903 -0.08489961
000050 0d f7 06 f9 fb 02 f7 f8 0b f8 03 07 f1 ee 02 04
       0.09197458 -0.06367471 0.042449806 -0.049524773 -0.03537484 0.014149935 -0.06367471 -0.05659974 0.077824645 -0.05659974 0.021224903 0.049524773 -0.10612451 -0.12734942 0.014149935 0.02829987
000060 f3 ff fe 16 fa 00 f5 08 ef 06 fa 10 f2 16 12 04
       -0.09197458 -0.0070749675 -0.014149935 0.15564929 -0.042449806 0.0 -0.077824645 0.05659974 -0.12027445 0.042449806 -0.042449806 0.11319948 -0.099049546 0.15564929 0.12734942 0.02829987
000070 20 d9 09 f9 00 06 f0 06 f1 f6 04 f5 fa f9 0c 07
       0.22639896 -0.27592373 0.06367471 -0.049524773 0.0 0.042449806 -0.11319948 0.042449806 -0.10612451 -0.07074968 0.02829987 -0.077824645 -0.042449806 -0.049524773 0.08489961 0.049524773
000080 09 05 fb ea fb f5 05 fd ed f3 06 00 09 f8 0a eb
       0.06367471 0.03537484 -0.03537484 -0.15564929 -0.03537484 -0.077824645 0.03537484 -0.021224903 -0.13442439 -0.09197458 0.042449806 0.0 0.06367471 -0.05659974 0.07074968 -0.14857432
000090 0a 04 07 fe 08 03 0b f7 ff f6 0a f1 0f 00 00 05
       0.07074968 0.02829987 0.049524773 -0.014149935 0.05659974 0.021224903 0.077824645 -0.06367471 -0.0070749675 -0.07074968 0.07074968 -0.10612451 0.10612451 0.0 0.0 0.03537484
0000a0 0f ed 0b f9 ea 01 f9 fc 0f ff fb 01 ff ec 06 0a
       0.10612451 -0.13442439 0.077824645 -0.049524773 -0.15564929 0.0070749675 -0.049524773 -0.02829987 0.10612451 -0.0070749675 -0.03537484 0.0070749675 -0.0070749675 -0.14149936 0.042449806 0.07074968
0000b0 03 fb 04 ff 01 04 f5 04 fe fe f5 10 02 10 0a 03
       0.021224903 -0.03537484 0.02829987 -0.0070749675 0.0070749675 0.02829987 -0.077824645 0.02829987 -0.014149935 -0.014149935 -0.077824645 0.11319948 0.014149935 0.11319948 0.07074968 0.021224903
0000c0 1f e5 0b 07 f8 f7 f3 09 fc 03 05 fd 04 f7 0a 01
       0.219324 -0.19102412 0.077824645 0.049524773 -0.05659974 -0.06367471 -0.09197458 0.06367471 -0.02829987 0.021224903 0.03537484 -0.021224903 0.02829987 -0.06367471 0.07074968 0.0070749675
0000d0 10 05 0e fa ff f1 08 f8 ed 02 0b fb 03 f8 0f f5
       0.11319948 0.03537484 0.099049546 -0.042449806 -0.0070749675 -0.10612451 0.05659974 -0.05659974 -0.13442439 0.014149935 0.077824645 -0.03537484 0.021224903 -0.05659974 0.10612451 -0.077824645
0000e0 01 f8 fd 01 fd 0c 12 fc f2 f9 0a f6 04 fb 04 00
       0.0070749675 -0.05659974 -0.021224903 0.0070749675 -0.021224903 0.08489961 0.12734942 -0.02829987 -0.099049546 -0.049524773 0.07074968 -0.07074968 0.02829987 -0.03537484 0.02829987 0.0
0000f0 05 f5 09 ed ec 07 ee 06 0f ec f3 f7 f9 ef 0b 03
       0.03537484 -0.077824645 0.06367471 -0.13442439 -0.14149936 0.049524773 -0.12734942 0.042449806 0.10612451 -0.14149936 -0.09197458 -0.06367471 -0.049524773 -0.12027445 0.077824645 0.021224903

tfl.pseudo_qconst3 i1 [80, 1, 1, 80]
000000 ff ed 47 05 24 f9 f8 1d 1b 20 0b c1 aa b1 17 81
       -1 -19 71 5 36 -7 -8 29 27 32 11 -63 -86 -79 23 -127
000010 f5 d1 a4 f7 e7 f7 b8 07 0d b2 48 d1 47 16 e1 34
       -11 -47 -92 -9 -25 -9 -72 7 13 -78 72 -47 71 22 -31 52
000020 fb f4 f3 0b 3f 44 0c 31 03 1a bf c3 f5 bf d8 fd
       -5 -12 -13 11 63 68 12 49 3 26 -65 -61 -11 -65 -40 -3
000030 ca 09 06 03 3c d3 0f bd ea f5 ed 4d eb 2d 17 13
       -54 9 6 3 60 -45 15 -67 -22 -11 -19 77 -21 45 23 19
000040 bb c2 fd f5 08 01 eb f8 3b 16 3e e5 d9 0a 02 05
       -69 -62 -3 -11 8 1 -21 -8 59 22 62 -27 -39 10 2 5
000050 01 b1 24 14 e7 b2 0f d0 b3 0c 2b 2f 95 23 87 e6
       1 -79 36 20 -25 -78 15 -48 -77 12 43 47 -107 35 -121 -26
000060 f9 10 db 81 16 e0 2e 10 17 14 ea 96 f3 ed 00 ef
       -7 16 -37 -127 22 -32 46 16 23 20 -22 -106 -13 -19 0 -17
000070 d9 dc e2 07 51 ed 06 f3 3f be a3 dd cf f9 16 41
       -39 -36 -30 7 81 -19 6 -13 63 -66 -93 -35 -49 -7 22 65
000080 d1 1b 9a f8 2e 0c 3f ed 0d 02 31 0d 19 d3 ef 07
       -47 27 -102 -8 46 12 63 -19 13 2 49 13 25 -45 -17 7
000090 e5 32 29 1a 10 f1 be 31 0d 14 eb 28 0b d7 e5 32
       -27 50 41 26 16 -15 -66 49 13 20 -21 40 11 -41 -27 50
0000a0 36 2a 7e e7 bf 1f f1 0a f1 55 15 14 e0 f3 4a b6
       54 42 126 -25 -65 31 -15 10 -15 85 21 20 -32 -13 74 -74
0000b0 1b 1d f5 e2 e9 7b ba 14 13 c3 68 40 14 cc 08 30
       27 29 -11 -30 -23 123 -70 20 19 -61 104 64 20 -52 8 48
0000c0 c6 03 19 d5 1d cc d0 37 28 09 ee c7 c3 bf ec a2
       -58 3 25 -43 29 -52 -48 55 40 9 -18 -57 -61 -65 -20 -94
0000d0 f3 0e 81 75 3f 16 ba c6 16 0b 03 0a 04 19 e9 e3
       -13 14 -127 117 63 22 -70 -58 22 11 3 10 4 25 -23 -29
0000e0 be e9 23 24 f9 04 ae 45 44 28 1e f4 d5 e1 2a d4
       -66 -23 35 36 -7 4 -82 69 68 40 30 -12 -43 -31 42 -44
0000f0 b2 f3 f0 e0 16 21 03 fd f3 da fb 40 f0 1e eb e6
       -78 -13 -16 -32 22 33 3 -3 -13 -38 -5 64 -16 30 -21 -26

tfl.pseudo_qconst5 i1 [1, 23, 1, 80]
000000 c8 81 df 0c 7f 37 35 ec ee ac 72 75 7f ac b9 04
       -56 -127 -33 12 127 55 53 -20 -18 -84 114 117 127 -84 -71 4
000010 e6 45 7f 27 75 e0 2e 0d e0 c6 a4 7f 52 68 59 13
       -26 69 127 39 117 -32 46 13 -32 -58 -92 127 82 104 89 19
000020 81 7f 81 5e 1f d9 48 81 8c 22 39 10 06 81 14 bb
       -127 127 -127 94 31 -39 72 -127 -116 34 57 16 6 -127 20 -69
000030 81 e1 30 cc c5 7f 49 a8 ca 5b bb be 21 87 2d a0
       -127 -31 48 -52 -59 127 73 -88 -54 91 -69 -66 33 -121 45 -96
000040 ee 81 29 00 1c 81 a4 c9 f1 81 7f 89 dc 31 15 eb
       -18 -127 41 0 28 -127 -92 -55 -15 -127 127 -119 -36 49 21 -21
000050 d6 a5 0a 04 64 21 f6 07 da 9e 67 5b 66 c5 d8 f2
       -42 -91 10 4 100 33 -10 7 -38 -98 103 91 102 -59 -40 -14
000060 e4 45 6b 1d 7f e2 26 24 ec b3 87 65 45 7f 1b 38
       -28 69 107 29 127 -30 38 36 -20 -77 -121 101 69 127 27 56
000070 a4 6c 93 41 27 f1 ff bd 81 1f 15 21 28 9b 1d ce
       -92 108 -109 65 39 -15 -1 -67 -127 31 21 33 40 -101 29 -50
000080 87 c3 0a b9 db 59 76 96 d1 2e d0 e3 fb 81 0b b4
       -121 -61 10 -71 -37 89 118 -106 -47 46 -48 -29 -5 -127 11 -76
000090 bc 97 25 4a 32 a9 cf dd cf 9e 60 81 03 fe 19 02
       -68 -105 37 74 50 -87 -49 -35 -49 -98 96 -127 3 -2 25 2
0000a0 bd d1 e0 37 32 e3 00 f2 e4 aa 2f 7f 3d c0 da c7
       -67 -47 -32 55 50 -29 0 -14 -28 -86 47 127 61 -64 -38 -57
0000b0 f6 1a 73 17 70 eb 20 32 e6 a9 e1 43 2e 37 11 0a
       -10 26 115 23 112 -21 32 50 -26 -87 -31 67 46 55 17 10
0000c0 ad 36 f0 0a 32 02 01 d2 8c 0f 16 df 2d d3 24 d5
       -83 54 -16 10 50 2 1 -46 -116 15 22 -33 45 -45 36 -43
0000d0 e5 97 0c ad c3 47 75 98 d7 27 d7 00 03 99 d9 af
       -27 -105 12 -83 -61 71 117 -104 -41 39 -41 0 3 -103 -39 -81
0000e0 e2 9c 1a 43 27 d5 b9 f8 20 f1 51 95 17 c3 e4 ea
       -30 -100 26 67 39 -43 -71 -8 32 -15 81 -107 23 -61 -28 -22
0000f0 d0 d8 f6 f7 db db 41 e2 c4 b3 3f 7b 38 e6 d1 cd
       -48 -40 -10 -9 -37 -37 65 -30 -60 -77 63 123 56 -26 -47 -51

tfl.pseudo_qconst7 i1 [80, 1, 1, 80]
000000 fc c7 d6 bb 71 79 fa ca 1a 07 0a 9b ef ca ef f5
       -4 -57 -42 -69 113 121 -6 -54 26 7 10 -101 -17 -54 -17 -11
000010 81 03 ba 3f 1a 99 17 25 d1 1c c8 37 db ef cc 37
       -127 3 -70 63 26 -103 23 37 -47 28 -56 55 -37 -17 -52 55
000020 ce ec cb fe 13 5a 24 11 2b af f8 11 df fd 37 c5
       -50 -20 -53 -2 19 90 36 17 43 -81 -8 17 -33 -3 55 -59
000030 f5 e1 fd 36 03 2a 0e 0b 1f 08 ef 36 3b 53 c1 17
       -11 -31 -3 54 3 42 14 11 31 8 -17 54 59 83 -63 23
000040 63 e7 35 c4 f8 0f 3a 05 f0 f7 0d d8 fe 3d f8 db
       99 -25 53 -60 -8 15 58 5 -16 -9 13 -40 -2 61 -8 -37
000050 16 e9 c4 c7 fb d9 f9 cd 38 f5 57 14 42 2b 04 0a
       22 -23 -60 -57 -5 -39 -7 -51 56 -11 87 20 66 43 4 10
000060 ed 48 0b 3f e5 c4 16 f8 1e 14 2b 2b 1b cd 22 39
       -19 72 11 63 -27 -60 22 -8 30 20 43 43 27 -51 34 57
000070 df f8 f9 f0 3f 0e 0a f6 ba f0 c8 9f 5a fb 7f 03
       -33 -8 -7 -16 63 14 10 -10 -70 -16 -56 -97 90 -5 127 3
000080 e8 f1 1f 01 40 dd 02 d1 04 17 10 fc f3 f4 eb cc
       -24 -15 31 1 64 -35 2 -47 4 23 16 -4 -13 -12 -21 -52
000090 e6 94 11 2a eb 27 14 ec 09 c0 d4 1b cb 02 eb d9
       -26 -108 17 42 -21 39 20 -20 9 -64 -44 27 -53 2 -21 -39
0000a0 28 3e 93 31 72 3b ef e9 41 e3 a5 83 ea d8 91 c2
       40 62 -109 49 114 59 -17 -23 65 -29 -91 -125 -22 -40 -111 -62
0000b0 3b 0f b1 28 6f ea 0c 8e 2f e1 16 f4 cd 5f 11 f1
       59 15 -79 40 111 -22 12 -114 47 -31 22 -12 -51 95 17 -15
0000c0 ed f6 0b af 10 c8 fe fd 18 bd 6a 97 b7 1c 81 27
       -19 -10 11 -81 16 -56 -2 -3 24 -67 106 -105 -73 28 -127 39
0000d0 de 41 44 50 d5 ef ab cc 72 1b 42 c1 f6 14 e3 3c
       -34 65 68 80 -43 -17 -85 -52 114 27 66 -63 -10 20 -29 60
0000e0 32 36 c7 1f f0 55 36 a9 ff bb 27 14 6c 60 ad ed
       50 54 -57 31 -16 85 54 -87 -1 -69 39 20 108 96 -83 -19
0000f0 51 11 bf 02 ec 76 e0 18 fc 2b 11 d4 17 d4 f6 79
       81 17 -65 2 -20 118 -32 24 -4 43 17 -44 23 -44 -10 121

tfl.pseudo_qconst9 i1 [1, 15, 1, 40]
000000 e0 7f 7f 2d 4b 1f 7f 7f 87 43 ef 37 0d 7f 7f 21
       -32 127 127 45 75 31 127 127 -121 67 -17 55 13 127 127 33
000010 7f 37 ee 72 5e 01 a3 81 05 81 0f 10 ff f1 dd 0d
       127 55 -18 114 94 1 -93 -127 5 -127 15 16 -1 -15 -35 13
000020 7f 1d 00 43 81 92 5e 81 db 55 64 0b 49 07 71 6d
       127 29 0 67 -127 -110 94 -127 -37 85 100 11 73 7 113 109
000030 28 22 31 54 ef 6d 4d 5f 68 3f 18 3b 7d 35 c5 ad
       40 34 49 84 -17 109 77 95 104 63 24 59 125 53 -59 -83
000040 1a 99 08 e0 0a e8 4d 06 4c e8 14 62 de 95 7f 88
       26 -103 8 -32 10 -24 77 6 76 -24 20 98 -34 -107 127 -120
000050 cc 73 47 09 de 62 5c 35 5f 23 1f 30 1c 2e 35 7d
       -52 115 71 9 -34 98 92 53 95 35 31 48 28 46 53 125
000060 40 1d 0c 1f 53 d5 b0 c9 35 a7 02 02 db 19 7f ef
       64 29 12 31 83 -43 -80 -55 53 -89 2 2 -37 25 127 -17
000070 2f f6 e1 7f bf 93 36 cc ea 56 1b c0 d4 5e 21 32
       47 -10 -31 127 -65 -109 54 -52 -22 86 27 -64 -44 94 33 50
000080 66 1b 6f 2f 32 28 28 60 42 eb 3c fc 08 21 9d d5
       102 27 111 47 50 40 40 96 66 -21 60 -4 8 33 -99 -43
000090 0f c4 fe 2b 9a f1 72 d9 1d 2d de 59 c5 81 27 fa
       15 -60 -2 43 -102 -15 114 -39 29 45 -34 89 -59 -127 39 -6
0000a0 d1 20 1c f2 81 2d 0f 21 e6 0f 6e 2f 4c 0d dd 7f
       -47 32 28 -14 -127 45 15 33 -26 15 110 47 76 13 -35 127
0000b0 f7 c6 3a b1 b8 03 da ec 36 d3 f0 1a 81 e6 7b c5
       -9 -58 58 -79 -72 3 -38 -20 54 -45 -16 26 -127 -26 123 -59
0000c0 1a 2a a1 28 a2 b5 68 cd c3 f3 24 ef 9b 0d 07 0f
       26 42 -95 40 -94 -75 104 -51 -61 -13 36 -17 -101 13 7 15
0000d0 eb f3 6c 44 41 e3 e5 51 b2 e5 5a b8 81 09 e8 f1
       -21 -13 108 68 65 -29 -27 81 -78 -27 90 -72 -127 9 -24 -15
0000e0 15 fe f5 67 81 eb 4e ed 10 29 85 42 99 84 51 0e
       21 -2 -11 103 -127 -21 78 -19 16 41 -123 66 -103 -124 81 14
0000f0 11 d3 04 37 85 c9 ec f7 82 08 d4 3f 78 d0 a0 22
       17 -45 4 55 -123 -55 -20 -9 -126 8 -44 63 120 -48 -96 34

tfl.pseudo_qconst11 i1 [1, 9, 1, 40]
000000 b4 e6 78 0e 11 36 7f 2a 7f 81 48 ae d1 0d b8 fd
       -76 -26 120 14 17 54 127 42 127 -127 72 -82 -47 13 -72 -3
000010 46 7f 2f cd b2 c0 dc b4 05 d7 17 eb b8 f6 99 2f
       70 127 47 -51 -78 -64 -36 -76 5 -41 23 -21 -72 -10 -103 47
000020 7f 6b 03 9d 02 0a 1c d4 b0 e8 53 fc 1e 37 3f 05
       127 107 3 -99 2 10 28 -44 -80 -24 83 -4 30 55 63 5
000030 66 15 66 81 d2 0c bf 77 1a 69 50 21 99 b3 ee bb
       102 21 102 -127 -46 12 -65 119 26 105 80 33 -103 -77 -18 -69
000040 31 bc e7 45 f0 cf c5 c7 00 59 e7 8d d7 18 34 08
       49 -68 -25 69 -16 -49 -59 -57 0 89 -25 -115 -41 24 52 8
000050 ef e5 3c db 2d e2 a7 c5 ff 5f 7f 94 99 02 aa 09
       -17 -27 60 -37 45 -30 -89 -59 -1 95 127 -108 -103 2 -86 9
000060 02 bb 7a 5a 98 92 57 c3 ef c6 3a 15 b7 bc d2 81
       2 -69 122 90 -104 -110 87 -61 -17 -58 58 21 -73 -68 -46 -127
000070 c0 f2 d1 d2 d7 4d 36 4d be 1b 7f 18 22 db ac c9
       -64 -14 -47 -46 -41 77 54 77 -66 27 127 24 34 -37 -84 -55
000080 bd 74 45 ad 14 2c 9d 7f 1d 8a 7f 1d a1 b1 d9 06
       -67 116 69 -83 20 44 -99 127 29 -118 127 29 -95 -79 -39 6
000090 50 d8 f3 78 4d 06 81 e9 a1 e3 39 b3 8f 54 2d 60
       80 -40 -13 120 77 6 -127 -23 -95 -29 57 -77 -113 84 45 96
0000a0 9c 1e 15 16 19 9c 4c dd f0 7a 2d 24 5e 74 fe 47
       -100 30 21 22 25 -100 76 -35 -16 122 45 36 94 116 -2 71
0000b0 27 a3 50 3c a0 c1 ea 23 d9 d4 35 21 7f f9 9b bf
       39 -93 80 60 -96 -63 -22 35 -39 -44 53 33 127 -7 -101 -65
0000c0 c6 a0 ec b8 91 1a 66 7f e8 00 61 1e 17 9d be db
       -58 -96 -20 -72 -111 26 102 127 -24 0 97 30 23 -99 -66 -37
0000d0 8a 73 4d 42 0b 5d 11 2c 40 26 d8 19 1d b8 91 5d
       -118 115 77 66 11 93 17 44 64 38 -40 25 29 -72 -111 93
0000e0 2c 25 f4 7f f1 69 c6 c9 fe 81 23 e2 c8 e0 3c 27
       44 37 -12 127 -15 105 -58 -55 -2 -127 35 -30 -56 -32 60 39
0000f0 81 2e 3a 27 31 81 32 31 c4 34 50 45 7f 7f 31 f1
       -127 46 58 39 49 -127 50 49 -60 52 80 69 127 127 49 -15

tfl.pseudo_qconst13 i1 [80, 1, 1, 80]
000000 f2 f7 22 e0 ca 4a 43 dd 10 27 ee cb 1c 0d 06 01
       -14 -9 34 -32 -54 74 67 -35 16 39 -18 -53 28 13 6 1
000010 fe 1f 0e dc f3 4e c0 5b e1 36 eb 0e f5 fc 48 01
       -2 31 14 -36 -13 78 -64 91 -31 54 -21 14 -11 -4 72 1
000020 2f e7 dd 25 7f 15 1b f9 fb 18 ed 20 16 cf f6 2d
       47 -25 -35 37 127 21 27 -7 -5 24 -19 32 22 -49 -10 45
000030 f6 e4 ee 00 22 eb d2 f9 d1 fd 14 21 fe 23 08 48
       -10 -28 -18 0 34 -21 -46 -7 -47 -3 20 33 -2 35 8 72
000040 41 1f e9 17 0a 2d 0b ee e7 1a 04 e2 b9 c4 ee 13
       65 31 -23 23 10 45 11 -18 -25 26 4 -30 -71 -60 -18 19
000050 41 1d 15 20 cf 0b 93 da e3 e6 02 f1 d3 e5 07 28
       65 29 21 32 -49 11 -109 -38 -29 -26 2 -15 -45 -27 7 40
000060 36 1d 0b 27 21 b7 a3 58 2e 2b f5 02 1c f3 1d d0
       54 29 11 39 33 -73 -93 88 46 43 -11 2 28 -13 29 -48
000070 70 e4 e4 eb 1d e7 20 55 19 23 dc 07 ad 30 08 12
       112 -28 -28 -21 29 -25 32 85 25 35 -36 7 -83 48 8 18
000080 fa de 00 46 9b 41 cf 46 11 d5 0e 2b d6 22 0a 23
       -6 -34 0 70 -101 65 -49 70 17 -43 14 43 -42 34 10 35
000090 bc 23 10 be f9 81 84 4a 1f d6 03 11 c9 32 b8 43
       -68 35 16 -66 -7 -127 -124 74 31 -42 3 17 -55 50 -72 67
0000a0 13 d8 e3 cf d9 e5 0d 35 e8 32 c4 f0 08 2e 2a ed
       19 -40 -29 -49 -39 -27 13 53 -24 50 -60 -16 8 46 42 -19
0000b0 d0 ed 22 fc 49 1c cb de ec df f9 ed c3 f9 ea 24
       -48 -19 34 -4 73 28 -53 -34 -20 -33 -7 -19 -61 -7 -22 36
0000c0 cd ed c2 37 eb 2a f3 c0 0f 0e e2 2d 18 23 fd 09
       -51 -19 -62 55 -21 42 -13 -64 15 14 -30 45 24 35 -3 9
0000d0 24 f4 c1 ca fa 3f ce da e9 fa 0c b2 25 f8 81 fe
       36 -12 -63 -54 -6 63 -50 -38 -23 -6 12 -78 37 -8 -127 -2
0000e0 e9 09 4f 14 cd 60 31 0a c3 ee ff df 29 9e 47 d7
       -23 9 79 20 -51 96 49 10 -61 -18 -1 -33 41 -98 71 -41
0000f0 32 ce 0f 2f b4 c0 21 1d be ed 13 b9 e5 dc 10 4d
       50 -50 15 47 -76 -64 33 29 -66 -19 19 -71 -27 -36 16 77

tfl.pseudo_qconst15 i1 [1, 11, 1, 40]
000000 b9 26 c2 dc 7f 08 fd 81 23 7f 3e 61 2f 21 99 3f
       -71 38 -62 -36 127 8 -3 -127 35 127 62 97 47 33 -103 63
000010 7f 42 b3 25 76 9e eb dc 73 d4 74 81 b2 8a 1c e4
       127 66 -77 37 118 -98 -21 -36 115 -44 116 -127 -78 -118 28 -28
000020 0a d9 ca 33 81 c7 f2 8d cc 74 ab e1 79 17 23 82
       10 -39 -54 51 -127 -57 -14 -115 -52 116 -85 -31 121 23 35 -126
000030 64 69 61 7f 09 10 20 3e 3b 0c bd 35 53 8f d1 dc
       100 105 97 127 9 16 32 62 59 12 -67 53 83 -113 -47 -36
000040 58 dc 65 c9 f3 c2 25 f4 1c 81 c9 25 8c 9e 2f 81
       88 -36 101 -55 -13 -62 37 -12 28 -127 -55 37 -116 -98 47 -127
000050 40 4d 82 ef 6c fe c7 a8 24 3d 6f 2e 7f 22 32 de
       64 77 -126 -17 108 -2 -57 -88 36 61 111 46 127 34 50 -34
000060 21 31 bf 23 6a dd ab 20 d9 cc 26 97 ba f2 be c7
       33 49 -65 35 106 -35 -85 32 -39 -52 38 -105 -70 -14 -66 -57
000070 2b fc 15 0f 97 81 e1 a5 fb 42 81 db 32 2f 81 d8
       43 -4 21 15 -105 -127 -31 -91 -5 66 -127 -37 50 47 -127 -40
000080 b4 45 7f 16 4d 25 00 f5 f1 22 d4 1f 3b f9 91 14
       -76 69 127 22 77 37 0 -11 -15 34 -44 31 59 -7 -111 20
000090 fb 81 e0 c0 b2 0d b4 e0 0b f4 d4 14 ce d8 d9 b7
       -5 -127 -32 -64 -78 13 -76 -32 11 -12 -44 20 -50 -40 -39 -73
0000a0 b5 b7 c8 ec 0d 47 8d d7 81 29 59 f2 4a 57 5f dc
       -75 -73 -56 -20 13 71 -115 -41 -127 41 89 -14 74 87 95 -36
0000b0 b9 0b f7 ff 0b 14 d6 3d 81 eb b1 e3 02 59 97 ae
       -71 11 -9 -1 11 20 -42 61 -127 -21 -79 -29 2 89 -105 -82
0000c0 ee 0e 0a c7 c1 ca 39 37 f3 0c c7 f1 fa 55 f4 c6
       -18 14 10 -57 -63 -54 57 55 -13 12 -57 -15 -6 85 -12 -58
0000d0 af e0 4b b3 f0 7f 5e e0 88 0b d7 0e 07 81 29 12
       -81 -32 75 -77 -16 127 94 -32 -120 11 -41 14 7 -127 41 18
0000e0 c4 d9 90 34 17 6f c5 a8 ad e4 0d cb 29 26 4a 51
       -60 -39 -112 52 23 111 -59 -88 -83 -28 13 -53 41 38 74 81
0000f0 ad 26 34 0d fc 64 5b 41 ab d6 1a eb 99 61 25 d7
       -83 38 52 13 -4 100 91 65 -85 -42 26 -21 -103 97 37 -41

tfl.pseudo_qconst17 i1 [1, 7, 1, 40]
000000 bf 81 c1 d6 81 6a 3a 7f ef 95 e2 3a e7 93 ec 7f
       -65 -127 -63 -42 -127 106 58 127 -17 -107 -30 58 -25 -109 -20 127
000010 fb 6e 7f 00 bf fd 81 b8 f4 b7 2b c1 bc c5 79 e2
       -5 110 127 0 -65 -3 -127 -72 -12 -73 43 -63 -68 -59 121 -30
000020 e8 19 2a e9 01 7f b3 31 49 b5 ef 12 db 7f e8 47
       -24 25 42 -23 1 127 -77 49 73 -75 -17 18 -37 127 -24 71
000030 dc f1 5a f8 3a d2 35 28 2f 41 30 1e a5 35 e5 81
       -36 -15 90 -8 58 -46 53 40 47 65 48 30 -91 53 -27 -127
000040 81 38 eb 81 e3 b9 fd 48 cf bc 01 34 ac 47 81 20
       -127 56 -21 -127 -29 -71 -3 72 -49 -68 1 52 -84 71 -127 32
000050 26 e5 1b ec dc 66 48 42 1a 3d 7f d3 7f 7f ab ad
       38 -27 27 -20 -36 102 72 66 26 61 127 -45 127 127 -85 -83
000060 02 ff df 81 44 0d 89 99 cc 22 2f 12 7f 1d f4 0e
       2 -1 -33 -127 68 13 -119 -103 -52 34 47 18 127 29 -12 14
000070 83 71 a0 17 bd a7 99 45 b5 e8 6c d7 4e 25 24 f0
       -125 113 -96 23 -67 -89 -103 69 -75 -24 108 -41 78 37 36 -16
000080 0c 7f 20 81 29 66 81 a0 b2 c8 df 9e ba 7f c3 a8
       12 127 32 -127 41 102 -127 -96 -78 -56 -33 -98 -70 127 -61 -88
000090 e4 08 2b 16 59 9f 3e 6d 9a a7 81 e2 9d be 1c 7f
       -28 8 43 22 89 -97 62 109 -102 -89 -127 -30 -99 -66 28 127
0000a0 13 3f 45 e2 5f d6 29 e2 2f 37 df b6 33 2a 91 f9
       19 63 69 -30 95 -42 41 -30 47 55 -33 -74 51 42 -111 -7
0000b0 89 81 d8 92 df 7b df c2 40 43 0f f7 82 81 18 3e
       -119 -127 -40 -110 -33 123 -33 -62 64 67 15 -9 -126 -127 24 62
0000c0 25 e0 a2 64 81 eb 3a 22 7f 7e 1a a0 7a c5 5b ef
       37 -32 -94 100 -127 -21 58 34 127 126 26 -96 122 -59 91 -17
0000d0 22 43 9c c6 45 f8 c1 3d 31 a9 0e bf 7f 52 a5 07
       34 67 -100 -58 69 -8 -63 61 49 -87 14 -65 127 82 -91 7
0000e0 5a 5a d7 55 9f d3 7f 7c 20 7f 0e 53 b0 35 5b 38
       90 90 -41 85 -97 -45 127 124 32 127 14 83 -80 53 91 56
0000f0 61 6d 7f 81 5a 17 7f 0e 81 ee d8 d1 06 d1 ab 4e
       97 109 127 -127 90 23 127 14 -127 -18 -40 -47 6 -47 -85 78

tfl.pseudo_qconst19 i1 [80, 1, 1, 32]
000000 d9 1e 02 95 14 1f f8 28 81 02 d5 1b 3b c9 20 03
       -39 30 2 -107 20 31 -8 40 -127 2 -43 27 59 -55 32 3
000010 f7 c6 12 a8 1c 96 f6 42 f8 05 26 2b c4 02 26 e8
       -9 -58 18 -88 28 -106 -10 66 -8 5 38 43 -60 2 38 -24
000020 0b 16 10 1b 3c 38 d9 2c 1b 31 0c 38 d1 fd fe ea
       11 22 16 27 60 56 -39 44 27 49 12 56 -47 -3 -2 -22
000030 ef f3 3c 0f c3 02 e3 bf c3 1a 19 81 b6 ef d3 63
       -17 -13 60 15 -61 2 -29 -65 -61 26 25 -127 -74 -17 -45 99
000040 d6 76 cb 9d 49 d8 c2 81 d7 12 ba e3 26 8e 2e e1
       -42 118 -53 -99 73 -40 -62 -127 -41 18 -70 -29 38 -114 46 -31
000050 15 1f f6 42 11 e8 f7 31 0d 27 75 b1 f6 9c bd 37
       21 31 -10 66 17 -24 -9 49 13 39 117 -79 -10 -100 -67 55
000060 51 9b f5 09 f3 0b 04 2c 2b c3 3a 40 0b 10 01 17
       81 -101 -11 9 -13 11 4 44 43 -61 58 64 11 16 1 23
000070 03 5b 8c d5 8b 34 fd f0 7f 0b 9d df ed cd 0c e2
       3 91 -116 -43 -117 52 -3 -16 127 11 -99 -33 -19 -51 12 -30
000080 09 e5 99 15 53 bf 04 9e fc d0 47 31 1d fc 97 be
       9 -27 -103 21 83 -65 4 -98 -4 -48 71 49 29 -4 -105 -66
000090 41 e7 0d 12 b5 1f 47 6e c7 eb fb a1 f7 81 47 bf
       65 -25 13 18 -75 31 71 110 -57 -21 -5 -95 -9 -127 71 -65
0000a0 00 dc 23 10 b4 e6 ee d8 4b f4 10 16 f5 f0 10 14
       0 -36 35 16 -76 -26 -18 -40 75 -12 16 22 -11 -16 16 20
0000b0 cd 05 f8 2a 19 18 81 ba d5 dd c8 57 16 0b 19 21
       -51 5 -8 42 25 24 -127 -70 -43 -35 -56 87 22 11 25 33
0000c0 cb 03 c5 eb b0 dc 23 f9 39 e9 ea bc e2 29 09 69
       -53 3 -59 -21 -80 -36 35 -7 57 -23 -22 -68 -30 41 9 105
0000d0 ad 03 11 d8 eb f0 03 81 e7 e5 bb b3 5b 6d 25 20
       -83 3 17 -40 -21 -16 3 -127 -25 -27 -69 -77 91 109 37 32
0000e0 1b 28 a5 c5 75 4d 31 e2 e5 1b 27 68 9c 36 41 f9
       27 40 -91 -59 117 77 49 -30 -27 27 39 104 -100 54 65 -7
0000f0 7f bd 67 aa 0c c6 20 67 9f 20 09 06 06 fd 3b fa
       127 -67 103 -86 12 -58 32 103 -97 32 9 6 6 -3 59 -6

tfl.pseudo_qconst21 i1 [1, 5, 1, 32]
000000 81 57 bc 60 52 7f d9 81 1b d3 4c c6 c8 81 ef 24
       -127 87 -68 96 82 127 -39 -127 27 -45 76 -58 -56 -127 -17 36
000010 9f e2 22 a9 11 90 14 81 d9 56 25 cf f8 b4 97 57
       -97 -30 34 -87 17 -112 20 -127 -39 86 37 -49 -8 -76 -105 87
000020 e0 3f e9 3e 4e 10 81 ea 70 d2 42 8d 81 ce b9 65
       -32 63 -23 62 78 16 -127 -22 112 -46 66 -115 -127 -50 -71 101
000030 da d8 0f 81 51 a8 8f ae b8 4e 7f a5 69 4a 2e 7f
       -38 -40 15 -127 81 -88 -113 -82 -72 78 127 -91 105 74 46 127
000040 aa 39 82 19 7f 3b b9 25 4d e6 37 e4 d2 ce 81 3d
       -86 57 -126 25 127 59 -71 37 77 -26 55 -28 -46 -50 -127 61
000050 c0 0d b5 bc 4d 58 aa 01 cd 7f 59 1e 65 e5 59 5e
       -64 13 -75 -68 77 88 -86 1 -51 127 89 30 101 -27 89 94
000060 d9 55 81 fc 3d 11 49 5b af 20 08 ed 2f 77 b4 81
       -39 85 -127 -4 61 17 73 91 -81 32 8 -19 47 119 -76 -127
000070 81 31 a5 d4 30 63 81 ee 81 46 42 7f 7f 7f 7f 41
       -127 49 -91 -44 48 99 -127 -18 -127 70 66 127 127 127 127 65
000080 81 7f f8 81 52 fe 1d 24 81 7f 81 7f c8 4a ad a8
       -127 127 -8 -127 82 -2 29 36 -127 127 -127 127 -56 74 -83 -88
000090 99 7f 81 67 7f 7f cb a6 ca 20 38 61 09 37 02 2d
       -103 127 -127 103 127 127 -53 -90 -54 32 56 97 9 55 2 45

tfl.pseudo_qconst23 i1 [32, 5, 1, 40]
000000 f2 36 2b 16 d8 04 e3 0f 08 f1 f8 0f f1 ee ec f9
       -14 54 43 22 -40 4 -29 15 8 -15 -8 15 -15 -18 -20 -7
000010 ec 1d 03 21 0e 37 20 02 03 e2 f0 f0 e7 fc d0 fc
       -20 29 3 33 14 55 32 2 3 -30 -16 -16 -25 -4 -48 -4
000020 e8 13 a7 f3 81 1d 91 09 ea 1f 06 0a df 22 da fd
       -24 19 -89 -13 -127 29 -111 9 -22 31 6 10 -33 34 -38 -3
000030 eb f7 09 0f ef 13 ee ea e4 0b e2 18 0c 3d f7 1e
       -21 -9 9 15 -17 19 -18 -22 -28 11 -30 24 12 61 -9 30
000040 f0 ea dc f9 f9 06 df 0d f5 18 cd 1e 9c 50 b7 03
       -16 -22 -36 -7 -7 6 -33 13 -11 24 -51 30 -100 80 -73 3
000050 fc 1f f9 1f fa 07 fa fd d5 0b f4 22 0c fb ff ee
       -4 31 -7 31 -6 7 -6 -3 -43 11 -12 34 12 -5 -1 -18
000060 d8 ff ea 21 f8 4c 0a 23 e4 0c fe e5 e5 0c 02 16
       -40 -1 -22 33 -8 76 10 35 -28 12 -2 -27 -27 12 2 22
000070 05 1d e1 16 b6 42 ad 2f f2 02 fb 1a d9 1a 03 12
       5 29 -31 22 -74 66 -83 47 -14 2 -5 26 -39 26 3 18
000080 d9 ee fb 01 ea ef d1 f6 d3 ee e1 0b 10 2a 1b 10
       -39 -18 -5 1 -22 -17 -47 -10 -45 -18 -31 11 16 42 27 16
000090 e9 f1 de f9 ff f4 0c 42 16 23 e3 31 c7 62 cc 43
       -23 -15 -34 -7 -1 -12 12 66 22 35 -29 49 -57 98 -52 67
0000a0 df 2e de 1a f3 19 e8 15 e9 f7 f2 ed f8 f8 dd e3
       -33 46 -34 26 -13 25 -24 21 -23 -9 -14 -19 -8 -8 -35 -29
0000b0 c3 0a d5 02 0e 2d fd 06 fe f8 e3 16 fb 22 fb 30
       -61 10 -43 2 14 45 -3 6 -2 -8 -29 22 -5 34 -5 48
0000c0 0b 22 e3 37 d2 4f dd 33 e4 f1 ef 4a f1 08 c8 f9
       11 34 -29 55 -46 79 -35 51 -28 -15 -17 74 -15 8 -56 -7
0000d0 05 f3 3a e5 3f 23 29 25 d9 fb ab 94 94 e1 0a 27
       5 -13 58 -27 63 35 41 37 -39 -5 -85 -108 -108 -31 10 39
0000e0 10 f5 3e 2f 3f 1f ef e9 f2 f1 e2 e5 b5 48 b8 d8
       16 -11 62 47 63 31 -17 -23 -14 -15 -30 -27 -75 72 -72 -40
0000f0 f1 31 06 1d fd 11 c6 f3 f7 00 22 f1 2b 3f 35 1f
       -15 49 6 29 -3 17 -58 -13 -9 0 34 -15 43 63 53 31

tfl.pseudo_qconst24 i1 [1, 22, 1, 80] scale=0.04010093 zero_point=-128
000000 80 80 80 80 80 80 80 80 80 80 80 80 80 80 80 80
       0.0 0.0 0.0 0.0 0.0 0.0 0.0 0.0 0.0 0.0 0.0 0.0 0.0 0.0 0.0 0.0
000010 80 80 80 80 80 80 80 80 80 80 80 80 80 80 80 80
       0.0 0.0 0.0 0.0 0.0 0.0 0.0 0.0 0.0 0.0 0.0 0.0 0.0 0.0 0.0 0.0
000020 80 80 80 80 80 80 80 80 80 80 80 80 80 80 80 80
       0.0 0.0 0.0 0.0 0.0 0.0 0.0 0.0 0.0 0.0 0.0 0.0 0.0 0.0 0.0 0.0
000030 80 80 80 80 80 80 80 80 80 80 80 80 80 80 80 80
       0.0 0.0 0.0 0.0 0.0 0.0 0.0 0.0 0.0 0.0 0.0 0.0 0.0 0.0 0.0 0.0
000040 80 80 80 80 80 80 80 80 80 80 80 80 80 80 80 80
       0.0 0.0 0.0 0.0 0.0 0.0 0.0 0.0 0.0 0.0 0.0 0.0 0.0 0.0 0.0 0.0
000050 80 80 80 80 80 80 80 80 80 80 80 80 80 80 80 80
       0.0 0.0 0.0 0.0 0.0 0.0 0.0 0.0 0.0 0.0 0.0 0.0 0.0 0.0 0.0 0.0
000060 80 80 80 80 80 80 80 80 80 80 80 80 80 80 80 80
       0.0 0.0 0.0 0.0 0.0 0.0 0.0 0.0 0.0 0.0 0.0 0.0 0.0 0.0 0.0 0.0
000070 80 80 80 80 80 80 80 80 80 80 80 80 80 80 80 80
       0.0 0.0 0.0 0.0 0.0 0.0 0.0 0.0 0.0 0.0 0.0 0.0 0.0 0.0 0.0 0.0
000080 80 80 80 80 80 80 80 80 80 80 80 80 80 80 80 80
       0.0 0.0 0.0 0.0 0.0 0.0 0.0 0.0 0.0 0.0 0.0 0.0 0.0 0.0 0.0 0.0
000090 80 80 80 80 80 80 80 80 80 80 80 80 80 80 80 80
       0.0 0.0 0.0 0.0 0.0 0.0 0.0 0.0 0.0 0.0 0.0 0.0 0.0 0.0 0.0 0.0
0000a0 80 80 80 80 80 80 80 80 80 80 80 80 80 80 80 80
       0.0 0.0 0.0 0.0 0.0 0.0 0.0 0.0 0.0 0.0 0.0 0.0 0.0 0.0 0.0 0.0
0000b0 80 80 80 80 80 80 80 80 80 80 80 80 80 80 80 80
       0.0 0.0 0.0 0.0 0.0 0.0 0.0 0.0 0.0 0.0 0.0 0.0 0.0 0.0 0.0 0.0
0000c0 80 80 80 80 80 80 80 80 80 80 80 80 80 80 80 80
       0.0 0.0 0.0 0.0 0.0 0.0 0.0 0.0 0.0 0.0 0.0 0.0 0.0 0.0 0.0 0.0
0000d0 80 80 80 80 80 80 80 80 80 80 80 80 80 80 80 80
       0.0 0.0 0.0 0.0 0.0 0.0 0.0 0.0 0.0 0.0 0.0 0.0 0.0 0.0 0.0 0.0
0000e0 80 80 80 80 80 80 80 80 80 80 80 80 80 80 80 80
       0.0 0.0 0.0 0.0 0.0 0.0 0.0 0.0 0.0 0.0 0.0 0.0 0.0 0.0 0.0 0.0
0000f0 80 80 80 80 80 80 80 80 80 80 80 80 80 80 80 80
       0.0 0.0 0.0 0.0 0.0 0.0 0.0 0.0 0.0 0.0 0.0 0.0 0.0 0.0 0.0 0.0

tfl.pseudo_qconst25 i1 [1, 36, 1, 80] scale=0.022739783 zero_point=-128
000000 80 80 80 80 80 80 80 80 80 80 80 80 80 80 80 80
       0.0 0.0 0.0 0.0 0.0 0.0 0.0 0.0 0.0 0.0 0.0 0.0 0.0 0.0 0.0 0.0
000010 80 80 80 80 80 80 80 80 80 80 80 80 80 80 80 80
       0.0 0.0 0.0 0.0 0.0 0.0 0.0 0.0 0.0 0.0 0.0 0.0 0.0 0.0 0.0 0.0
000020 80 80 80 80 80 80 80 80 80 80 80 80 80 80 80 80
       0.0 0.0 0.0 0.0 0.0 0.0 0.0 0.0 0.0 0.0 0.0 0.0 0.0 0.0 0.0 0.0
000030 80 80 80 80 80 80 80 80 80 80 80 80 80 80 80 80
       0.0 0.0 0.0 0.0 0.0 0.0 0.0 0.0 0.0 0.0 0.0 0.0 0.0 0.0 0.0 0.0
000040 80 80 80 80 80 80 80 80 80 80 80 80 80 80 80 80
       0.0 0.0 0.0 0.0 0.0 0.0 0.0 0.0 0.0 0.0 0.0 0.0 0.0 0.0 0.0 0.0
000050 80 80 80 80 80 80 80 80 80 80 80 80 80 80 80 80
       0.0 0.0 0.0 0.0 0.0 0.0 0.0 0.0 0.0 0.0 0.0 0.0 0.0 0.0 0.0 0.0
000060 80 80 80 80 80 80 80 80 80 80 80 80 80 80 80 80
       0.0 0.0 0.0 0.0 0.0 0.0 0.0 0.0 0.0 0.0 0.0 0.0 0.0 0.0 0.0 0.0
000070 80 80 80 80 80 80 80 80 80 80 80 80 80 80 80 80
       0.0 0.0 0.0 0.0 0.0 0.0 0.0 0.0 0.0 0.0 0.0 0.0 0.0 0.0 0.0 0.0
000080 80 80 80 80 80 80 80 80 80 80 80 80 80 80 80 80
       0.0 0.0 0.0 0.0 0.0 0.0 0.0 0.0 0.0 0.0 0.0 0.0 0.0 0.0 0.0 0.0
000090 80 80 80 80 80 80 80 80 80 80 80 80 80 80 80 80
       0.0 0.0 0.0 0.0 0.0 0.0 0.0 0.0 0.0 0.0 0.0 0.0 0.0 0.0 0.0 0.0
0000a0 80 80 80 80 80 80 80 80 80 80 80 80 80 80 80 80
       0.0 0.0 0.0 0.0 0.0 0.0 0.0 0.0 0.0 0.0 0.0 0.0 0.0 0.0 0.0 0.0
0000b0 80 80 80 80 80 80 80 80 80 80 80 80 80 80 80 80
       0.0 0.0 0.0 0.0 0.0 0.0 0.0 0.0 0.0 0.0 0.0 0.0 0.0 0.0 0.0 0.0
0000c0 80 80 80 80 80 80 80 80 80 80 80 80 80 80 80 80
       0.0 0.0 0.0 0.0 0.0 0.0 0.0 0.0 0.0 0.0 0.0 0.0 0.0 0.0 0.0 0.0
0000d0 80 80 80 80 80 80 80 80 80 80 80 80 80 80 80 80
       0.0 0.0 0.0 0.0 0.0 0.0 0.0 0.0 0.0 0.0 0.0 0.0 0.0 0.0 0.0 0.0
0000e0 80 80 80 80 80 80 80 80 80 80 80 80 80 80 80 80
       0.0 0.0 0.0 0.0 0.0 0.0 0.0 0.0 0.0 0.0 0.0 0.0 0.0 0.0 0.0 0.0
0000f0 80 80 80 80 80 80 80 80 80 80 80 80 80 80 80 80
       0.0 0.0 0.0 0.0 0.0 0.0 0.0 0.0 0.0 0.0 0.0 0.0 0.0 0.0 0.0 0.0

tfl.pseudo_qconst26 i1 [1, 3, 1, 40] scale=0.101960786 zero_point=-128
000000 80 80 80 80 80 80 80 80 80 80 80 80 80 80 80 80
       0.0 0.0 0.0 0.0 0.0 0.0 0.0 0.0 0.0 0.0 0.0 0.0 0.0 0.0 0.0 0.0
000010 80 80 80 80 80 80 80 80 80 80 80 80 80 80 80 80
       0.0 0.0 0.0 0.0 0.0 0.0 0.0 0.0 0.0 0.0 0.0 0.0 0.0 0.0 0.0 0.0
000020 80 80 80 80 80 80 80 80 80 80 80 80 80 80 80 80
       0.0 0.0 0.0 0.0 0.0 0.0 0.0 0.0 0.0 0.0 0.0 0.0 0.0 0.0 0.0 0.0
000030 80 80 80 80 80 80 80 80 80 80 80 80 80 80 80 80
       0.0 0.0 0.0 0.0 0.0 0.0 0.0 0.0 0.0 0.0 0.0 0.0 0.0 0.0 0.0 0.0
000040 80 80 80 80 80 80 80 80 80 80 80 80 80 80 80 80
       0.0 0.0 0.0 0.0 0.0 0.0 0.0 0.0 0.0 0.0 0.0 0.0 0.0 0.0 0.0 0.0
000050 80 80 80 80 80 80 80 80 80 80 80 80 80 80 80 80
       0.0 0.0 0.0 0.0 0.0 0.0 0.0 0.0 0.0 0.0 0.0 0.0 0.0 0.0 0.0 0.0
000060 80 80 80 80 80 80 80 80 80 80 80 80 80 80 80 80
       0.0 0.0 0.0 0.0 0.0 0.0 0.0 0.0 0.0 0.0 0.0 0.0 0.0 0.0 0.0 0.0
000070 80 80 80 80 80 80 80 80
       0.0 0.0 0.0 0.0 0.0 0.0 0.0 0.0

tfl.pseudo_qconst27 i1 [1, 4, 1, 32] scale=1.3779016 zero_point=-128
000000 80 80 80 80 80 80 80 80 80 80 80 80 80 80 80 80
       0.0 0.0 0.0 0.0 0.0 0.0 0.0 0.0 0.0 0.0 0.0 0.0 0.0 0.0 0.0 0.0
000010 80 80 80 80 80 80 80 80 80 80 80 80 80 80 80 80
       0.0 0.0 0.0 0.0 0.0 0.0 0.0 0.0 0.0 0.0 0.0 0.0 0.0 0.0 0.0 0.0
000020 80 80 80 80 80 80 80 80 80 80 80 80 80 80 80 80
       0.0 0.0 0.0 0.0 0.0 0.0 0.0 0.0 0.0 0.0 0.0 0.0 0.0 0.0 0.0 0.0
000030 80 80 80 80 80 80 80 80 80 80 80 80 80 80 80 80
       0.0 0.0 0.0 0.0 0.0 0.0 0.0 0.0 0.0 0.0 0.0 0.0 0.0 0.0 0.0 0.0
000040 80 80 80 80 80 80 80 80 80 80 80 80 80 80 80 80
       0.0 0.0 0.0 0.0 0.0 0.0 0.0 0.0 0.0 0.0 0.0 0.0 0.0 0.0 0.0 0.0
000050 80 80 80 80 80 80 80 80 80 80 80 80 80 80 80 80
       0.0 0.0 0.0 0.0 0.0 0.0 0.0 0.0 0.0 0.0 0.0 0.0 0.0 0.0 0.0 0.0
000060 80 80 80 80 80 80 80 80 80 80 80 80 80 80 80 80
       0.0 0.0 0.0 0.0 0.0 0.0 0.0 0.0 0.0 0.0 0.0 0.0 0.0 0.0 0.0 0.0
000070 80 80 80 80 80 80 80 80 80 80 80 80 80 80 80 80
       0.0 0.0 0.0 0.0 0.0 0.0 0.0 0.0 0.0 0.0 0.0 0.0 0.0 0.0 0.0 0.0

tfl.pseudo_qconst28 i1 [1, 10, 1, 80] scale=0.0367584 zero_point=-128
000000 80 80 80 80 80 80 80 80 80 80 80 80 80 80 80 80
       0.0 0.0 0.0 0.0 0.0 0.0 0.0 0.0 0.0 0.0 0.0 0.0 0.0 0.0 0.0 0.0
000010 80 80 80 80 80 80 80 80 80 80 80 80 80 80 80 80
       0.0 0.0 0.0 0.0 0.0 0.0 0.0 0.0 0.0 0.0 0.0 0.0 0.0 0.0 0.0 0.0
000020 80 80 80 80 80 80 80 80 80 80 80 80 80 80 80 80
       0.0 0.0 0.0 0.0 0.0 0.0 0.0 0.0 0.0 0.0 0.0 0.0 0.0 0.0 0.0 0.0
000030 80 80 80 80 80 80 80 80 80 80 80 80 80 80 80 80
       0.0 0.0 0.0 0.0 0.0 0.0 0.0 0.0 0.0 0.0 0.0 0.0 0.0 0.0 0.0 0.0
000040 80 80 80 80 80 80 80 80 80 80 80 80 80 80 80 80
       0.0 0.0 0.0 0.0 0.0 0.0 0.0 0.0 0.0 0.0 0.0 0.0 0.0 0.0 0.0 0.0
000050 80 80 80 80 80 80 80 80 80 80 80 80 80 80 80 80
       0.0 0.0 0.0 0.0 0.0 0.0 0.0 0.0 0.0 0.0 0.0 0.0 0.0 0.0 0.0 0.0
000060 80 80 80 80 80 80 80 80 80 80 80 80 80 80 80 80
       0.0 0.0 0.0 0.0 0.0 0.0 0.0 0.0 0.0 0.0 0.0 0.0 0.0 0.0 0.0 0.0
000070 80 80 80 80 80 80 80 80 80 80 80 80 80 80 80 80
       0.0 0.0 0.0 0.0 0.0 0.0 0.0 0.0 0.0 0.0 0.0 0.0 0.0 0.0 0.0 0.0
000080 80 80 80 80 80 80 80 80 80 80 80 80 80 80 80 80
       0.0 0.0 0.0 0.0 0.0 0.0 0.0 0.0 0.0 0.0 0.0 0.0 0.0 0.0 0.0 0.0
000090 80 80 80 80 80 80 80 80 80 80 80 80 80 80 80 80
       0.0 0.0 0.0 0.0 0.0 0.0 0.0 0.0 0.0 0.0 0.0 0.0 0.0 0.0 0.0 0.0
0000a0 80 80 80 80 80 80 80 80 80 80 80 80 80 80 80 80
       0.0 0.0 0.0 0.0 0.0 0.0 0.0 0.0 0.0 0.0 0.0 0.0 0.0 0.0 0.0 0.0
0000b0 80 80 80 80 80 80 80 80 80 80 80 80 80 80 80 80
       0.0 0.0 0.0 0.0 0.0 0.0 0.0 0.0 0.0 0.0 0.0 0.0 0.0 0.0 0.0 0.0
0000c0 80 80 80 80 80 80 80 80 80 80 80 80 80 80 80 80
       0.0 0.0 0.0 0.0 0.0 0.0 0.0 0.0 0.0 0.0 0.0 0.0 0.0 0.0 0.0 0.0
0000d0 80 80 80 80 80 80 80 80 80 80 80 80 80 80 80 80
       0.0 0.0 0.0 0.0 0.0 0.0 0.0 0.0 0.0 0.0 0.0 0.0 0.0 0.0 0.0 0.0
0000e0 80 80 80 80 80 80 80 80 80 80 80 80 80 80 80 80
       0.0 0.0 0.0 0.0 0.0 0.0 0.0 0.0 0.0 0.0 0.0 0.0 0.0 0.0 0.0 0.0
0000f0 80 80 80 80 80 80 80 80 80 80 80 80 80 80 80 80
       0.0 0.0 0.0 0.0 0.0 0.0 0.0 0.0 0.0 0.0 0.0 0.0 0.0 0.0 0.0 0.0

tfl.pseudo_qconst29 i1 [1, 14, 1, 80] scale=0.04250449 zero_point=-128
000000 80 80 80 80 80 80 80 80 80 80 80 80 80 80 80 80
       0.0 0.0 0.0 0.0 0.0 0.0 0.0 0.0 0.0 0.0 0.0 0.0 0.0 0.0 0.0 0.0
000010 80 80 80 80 80 80 80 80 80 80 80 80 80 80 80 80
       0.0 0.0 0.0 0.0 0.0 0.0 0.0 0.0 0.0 0.0 0.0 0.0 0.0 0.0 0.0 0.0
000020 80 80 80 80 80 80 80 80 80 80 80 80 80 80 80 80
       0.0 0.0 0.0 0.0 0.0 0.0 0.0 0.0 0.0 0.0 0.0 0.0 0.0 0.0 0.0 0.0
000030 80 80 80 80 80 80 80 80 80 80 80 80 80 80 80 80
       0.0 0.0 0.0 0.0 0.0 0.0 0.0 0.0 0.0 0.0 0.0 0.0 0.0 0.0 0.0 0.0
000040 80 80 80 80 80 80 80 80 80 80 80 80 80 80 80 80
       0.0 0.0 0.0 0.0 0.0 0.0 0.0 0.0 0.0 0.0 0.0 0.0 0.0 0.0 0.0 0.0
000050 80 80 80 80 80 80 80 80 80 80 80 80 80 80 80 80
       0.0 0.0 0.0 0.0 0.0 0.0 0.0 0.0 0.0 0.0 0.0 0.0 0.0 0.0 0.0 0.0
000060 80 80 80 80 80 80 80 80 80 80 80 80 80 80 80 80
       0.0 0.0 0.0 0.0 0.0 0.0 0.0 0.0 0.0 0.0 0.0 0.0 0.0 0.0 0.0 0.0
000070 80 80 80 80 80 80 80 80 80 80 80 80 80 80 80 80
       0.0 0.0 0.0 0.0 0.0 0.0 0.0 0.0 0.0 0.0 0.0 0.0 0.0 0.0 0.0 0.0
000080 80 80 80 80 80 80 80 80 80 80 80 80 80 80 80 80
       0.0 0.0 0.0 0.0 0.0 0.0 0.0 0.0 0.0 0.0 0.0 0.0 0.0 0.0 0.0 0.0
000090 80 80 80 80 80 80 80 80 80 80 80 80 80 80 80 80
       0.0 0.0 0.0 0.0 0.0 0.0 0.0 0.0 0.0 0.0 0.0 0.0 0.0 0.0 0.0 0.0
0000a0 80 80 80 80 80 80 80 80 80 80 80 80 80 80 80 80
       0.0 0.0 0.0 0.0 0.0 0.0 0.0 0.0 0.0 0.0 0.0 0.0 0.0 0.0 0.0 0.0
0000b0 80 80 80 80 80 80 80 80 80 80 80 80 80 80 80 80
       0.0 0.0 0.0 0.0 0.0 0.0 0.0 0.0 0.0 0.0 0.0 0.0 0.0 0.0 0.0 0.0
0000c0 80 80 80 80 80 80 80 80 80 80 80 80 80 80 80 80
       0.0 0.0 0.0 0.0 0.0 0.0 0.0 0.0 0.0 0.0 0.0 0.0 0.0 0.0 0.0 0.0
0000d0 80 80 80 80 80 80 80 80 80 80 80 80 80 80 80 80
       0.0 0.0 0.0 0.0 0.0 0.0 0.0 0.0 0.0 0.0 0.0 0.0 0.0 0.0 0.0 0.0
0000e0 80 80 80 80 80 80 80 80 80 80 80 80 80 80 80 80
       0.0 0.0 0.0 0.0 0.0 0.0 0.0 0.0 0.0 0.0 0.0 0.0 0.0 0.0 0.0 0.0
0000f0 80 80 80 80 80 80 80 80 80 80 80 80 80 80 80 80
       0.0 0.0 0.0 0.0 0.0 0.0 0.0 0.0 0.0 0.0 0.0 0.0 0.0 0.0 0.0 0.0
